…
      sampler {
        min_scale: 0.3
        max_scale: 1
        min_aspect_ratio: 0.5
        max_aspect_ratio: 2
      }
      sample_constraint {
        min_jaccard_overlap: 0.9
      }
      max_sample: 1
      max_trials: 50
    }
    batch_sampler {
      sampler {
        min_scale: 0.3
        max_scale: 1
        min_aspect_ratio: 0.5
        max_aspect_ratio: 2
      }
      sample_constraint {
        max_jaccard_overlap: 1
      }
      max_sample: 1
      max_trials: 50
    }
    label_map_file: "data/lmdb_files/labelmap.prototxt"
  }
}
layer {
  name: "conv0"
  type: "Convolution"
  bottom: "data"
  top: "conv0"
  param {
    lr_mult: 0.1
    decay_mult: 0.1
  }
  convolution_param {
    num_output: 32
    bias_term: false
    pad: 1
    kernel_size: 3
    stride: 2
    weight_filler {
      type: "msra"
    }
  }
}
layer {
  name: "conv0/bn"
  type: "BatchNorm"
  bottom: "conv0"
  top: "conv0"
}
layer {
  name: "conv0/scale"
  type: "Scale"
  bottom: "conv0"
  top: "conv0"
  param {
    lr_mult: 0.1
    decay_mult: 0
  }
  param {
    lr_mult: 0.2
    decay_mult: 0
  }
  scale_param {
    filler {
      value: 1
    }
    bias_term: true
    bias_filler {
      value: 0
    }
  }
}
layer {
  name: "conv0/relu"
  type: "ReLU"
  bottom: "conv0"
  top: "conv0"
}
layer {
  name: "conv1/dw"
  type: "Convolution"
  bottom: "conv0"
  top: "conv1/dw"
  param {
    lr_mult: 0.1
    decay_mult: 0.1
  }
  convolution_param {
    num_output: 32
    bias_term: false
    pad: 1
    kernel_size: 3
    group: 32
    weight_filler {
      type: "msra"
    }
    engine: CAFFE
  }
}
layer {
  name: "conv1/dw/bn"
  type: "BatchNorm"
  bottom: "conv1/dw"
  top: "conv1/dw"
}
layer {
  name: "conv1/dw/scale"
  type: "Scale"
  bottom: "conv1/dw"
  top: "conv1/dw"
  param {
    lr_mult: 0.1
    decay_mult: 0
  }
  param {
    lr_mult: 0.2
    decay_mult: 0
  }
  scale_param {
    filler {
      value: 1
    }
    bias_term: true
    bias_filler {
      value: 0
    }
  }
}
layer {
  name: "conv1/dw/relu"
  type: "ReLU"
  bottom: "conv1/dw"
  top: "conv1/dw"
}
layer {
  name: "conv1"
  type: "Convolution"
  bottom: "conv1/dw"
  top: "conv1"
  param {
    lr_mult: 0.1
    decay_mult: 0.1
  }
  convolution_param {
    num_output: 64
    bias_term: false
    kernel_size: 1
    weight_filler {
      type: "msra"
    }
  }
}
layer {
  name: "conv1/bn"
  type: "BatchNorm"
  bottom: "conv1"
  top: "conv1"
}
layer {
  name: "conv1/scale"
  type: "Scale"
  bottom: "conv1"
  top: "conv1"
  param {
    lr_mult: 0.1
    decay_mult: 0
  }
  param {
    lr_mult: 0.2
    decay_mult: 0
  }
  scale_param {
    filler {
      value: 1
    }
    bias_term: true
    bias_filler {
      value: 0
    }
  }
}
layer {
  name: "conv1/relu"
  type: "ReLU"
  bottom: "conv1"
  top: "conv1"
}
layer {
  name: "conv2/dw"
  type: "Convolution"
  bottom: "conv1"
  top: "conv2/dw"
  param {
    lr_mult: 0.1
    decay_mult: 0.1
  }
  convolution_param {
    num_output: 64
    bias_term: false
    pad: 1
    kernel_size: 3
    group: 64
    stride: 2
    weight_filler {
      type: "msra"
    }
    engine: CAFFE
  }
}
layer {
  name: "conv2/dw/bn"
  type: "BatchNorm"
  bottom: "conv2/dw"
  top: "conv2/dw"
}
layer {
  name: "conv2/dw/scale"
  type: "Scale"
  bottom: "conv2/dw"
  top: "conv2/dw"
  param {
    lr_mult: 0.1
    decay_mult: 0
  }
  param {
    lr_mult: 0.2
    decay_mult: 0
  }
  scale_param {
    filler {
      value: 1
    }
    bias_term: true
    bias_filler {
      value: 0
    }
  }
}
layer {
  name: "conv2/dw/relu"
  type: "ReLU"
  bottom: "conv2/dw"
  top: "conv2/dw"
}
layer {
  name: "conv2"
  type: "Convolution"
  bottom: "conv2/dw"
  top: "conv2"
  param {
    lr_mult: 0.1
    decay_mult: 0.1
  }
  convolution_param {
    num_output: 128
    bias_term: false
    kernel_size: 1
    weight_filler {
      type: "msra"
    }
  }
}
layer {
  name: "conv2/bn"
  type: "BatchNorm"
  bottom: "conv2"
  top: "conv2"
}
layer {
  name: "conv2/scale"
  type: "Scale"
  bottom: "conv2"
  top: "conv2"
  param {
    lr_mult: 0.1
    decay_mult: 0
  }
  param {
    lr_mult: 0.2
    decay_mult: 0
  }
  scale_param {
    filler {
      value: 1
    }
    bias_term: true
    bias_filler {
      value: 0
    }
  }
}
layer {
  name: "conv2/relu"
  type: "ReLU"
  bottom: "conv2"
  top: "conv2"
}
layer {
  name: "conv3/dw"
  type: "Convolution"
  bottom: "conv2"
  top: "conv3/dw"
  param {
    lr_mult: 0.1
    decay_mult: 0.1
  }
  convolution_param {
    num_output: 128
    bias_term: false
    pad: 1
    kernel_size: 3
    group: 128
    weight_filler {
      type: "msra"
    }
    engine: CAFFE
  }
}
layer {
  name: "conv3/dw/bn"
  type: "BatchNorm"
  bottom: "conv3/dw"
  top: "conv3/dw"
}
layer {
  name: "conv3/dw/scale"
  type: "Scale"
  bottom: "conv3/dw"
  top: "conv3/dw"
  param {
    lr_mult: 0.1
    decay_mult: 0
  }
  param {
    lr_mult: 0.2
    decay_mult: 0
  }
  scale_param {
    filler {
      value: 1
    }
    bias_term: true
    bias_filler {
      value: 0
    }
  }
}
layer {
  name: "conv3/dw/relu"
  type: "ReLU"
  bottom: "conv3/dw"
  top: "conv3/dw"
}
layer {
  name: "conv3"
  type: "Convolution"
  bottom: "conv3/dw"
  top: "conv3"
  param {
    lr_mult: 0.1
    decay_mult: 0.1
  }
  convolution_param {
    num_output: 128
    bias_term: false
    kernel_size: 1
    weight_filler {
      type: "msra"
    }
  }
}
layer {
  name: "conv3/bn"
  type: "BatchNorm"
  bottom: "conv3"
  top: "conv3"
}
layer {
  name: "conv3/scale"
  type: "Scale"
  bottom: "conv3"
  top: "conv3"
  param {
    lr_mult: 0.1
    decay_mult: 0
  }
  param {
    lr_mult: 0.2
    decay_mult: 0
  }
  scale_param {
    filler {
      value: 1
    }
    bias_term: true
    bias_filler {
      value: 0
    }
  }
}
layer {
  name: "conv3/relu"
  type: "ReLU"
  bottom: "conv3"
  top: "conv3"
}
layer {
  name: "conv4/dw"
  type: "Convolution"
  bottom: "conv3"
  top: "conv4/dw"
  param {
    lr_mult: 0.1
    decay_mult: 0.1
  }
  convolution_param {
    num_output: 128
    bias_term: false
    pad: 1
    kernel_size: 3
    group: 128
    stride: 2
    weight_filler {
      type: "msra"
    }
    engine: CAFFE
  }
}
layer {
  name: "conv4/dw/bn"
  type: "BatchNorm"
  bottom: "conv4/dw"
  top: "conv4/dw"
}
layer {
  name: "conv4/dw/scale"
  type: "Scale"
  bottom: "conv4/dw"
  top: "conv4/dw"
  param {
    lr_mult: 0.1
    decay_mult: 0
  }
  param {
    lr_mult: 0.2
    decay_mult: 0
  }
  scale_param {
    filler {
      value: 1
    }
    bias_term: true
    bias_filler {
      value: 0
    }
  }
}
layer {
  name: "conv4/dw/relu"
  type: "ReLU"
  bottom: "conv4/dw"
  top: "conv4/dw"
}
layer {
  name: "conv4"
  type: "Convolution"
  bottom: "conv4/dw"
  top: "conv4"
  param {
    lr_mult: 0.1
    decay_mult: 0.1
  }
  convolution_param {
    num_output: 256
    bias_term: false
    kernel_size: 1
    weight_filler {
      type: "msra"
    }
  }
}
layer {
  name: "conv4/bn"
  type: "BatchNorm"
  bottom: "conv4"
  top: "conv4"
}
layer {
  name: "conv4/scale"
  type: "Scale"
  bottom: "conv4"
  top: "conv4"
  param {
    lr_mult: 0.1
    decay_mult: 0
  }
  param {
    lr_mult: 0.2
    decay_mult: 0
  }
  scale_param {
    filler {
      value: 1
    }
    bias_term: true
    bias_filler {
      value: 0
    }
  }
}
layer {
  name: "conv4/relu"
  type: "ReLU"
  bottom: "conv4"
  top: "conv4"
}
layer {
  name: "conv5/dw"
  type: "Convolution"
  bottom: "conv4"
  top: "conv5/dw"
  param {
    lr_mult: 0.1
    decay_mult: 0.1
  }
  convolution_param {
    num_output: 256
    bias_term: false
    pad: 1
    kernel_size: 3
    group: 256
    weight_filler {
      type: "msra"
    }
    engine: CAFFE
  }
}
layer {
  name: "conv5/dw/bn"
  type: "BatchNorm"
  bottom: "conv5/dw"
  top: "conv5/dw"
}
layer {
  name: "conv5/dw/scale"
  type: "Scale"
  bottom: "conv5/dw"
  top: "conv5/dw"
  param {
    lr_mult: 0.1
    decay_mult: 0
  }
  param {
    lr_mult: 0.2
    decay_mult: 0
  }
  scale_param {
    filler {
      value: 1
    }
    bias_term: true
    bias_filler {
      value: 0
    }
  }
}
layer {
  name: "conv5/dw/relu"
  type: "ReLU"
  bottom: "conv5/dw"
  top: "conv5/dw"
}
layer {
  name: "conv5"
  type: "Convolution"
  bottom: "conv5/dw"
  top: "conv5"
  param {
    lr_mult: 0.1
    decay_mult: 0.1
  }
  convolution_param {
    num_output: 256
    bias_term: false
    kernel_size: 1
    weight_filler {
      type: "msra"
    }
  }
}
layer {
  name: "conv5/bn"
  type: "BatchNorm"
  bottom: "conv5"
  top: "conv5"
}
layer {
  name: "conv5/scale"
  type: "Scale"
  bottom: "conv5"
  top: "conv5"
  param {
    lr_mult: 0.1
    decay_mult: 0
  }
  param {
    lr_mult: 0.2
    decay_mult: 0
  }
  scale_param {
    filler {
      value: 1
    }
    bias_term: true
    bias_filler {
      value: 0
    }
  }
}
layer {
  name: "conv5/relu"
  type: "ReLU"
  bottom: "conv5"
  top: "conv5"
}
layer {
  name: "conv6/dw"
  type: "Convolution"
  bottom: "conv5"
  top: "conv6/dw"
  param {
    lr_mult: 0.1
    decay_mult: 0.1
  }
  convolution_param {
    num_output: 256
    bias_term: false
    pad: 1
    kernel_size: 3
    group: 256
    stride: 2
    weight_filler {
      type: "msra"
    }
    engine: CAFFE
  }
}
layer {
  name: "conv6/dw/bn"
  type: "BatchNorm"
  bottom: "conv6/dw"
  top: "conv6/dw"
}
layer {
  name: "conv6/dw/scale"
  type: "Scale"
  bottom: "conv6/dw"
  top: "conv6/dw"
  param {
    lr_mult: 0.1
    decay_mult: 0
  }
  param {
    lr_mult: 0.2
    decay_mult: 0
  }
  scale_param {
    filler {
      value: 1
    }
    bias_term: true
    bias_filler {
      value: 0
    }
  }
}
layer {
  name: "conv6/dw/relu"
  type: "ReLU"
  bottom: "conv6/dw"
  top: "conv6/dw"
}
layer {
  name: "conv6"
  type: "Convolution"
  bottom: "conv6/dw"
  top: "conv6"
  param {
    lr_mult: 0.1
    decay_mult: 0.1
  }
  convolution_param {
    num_output: 512
    bias_term: false
    kernel_size: 1
    weight_filler {
      type: "msra"
    }
  }
}
layer {
  name: "conv6/bn"
  type: "BatchNorm"
  bottom: "conv6"
  top: "conv6"
}
layer {
  name: "conv6/scale"
  type: "Scale"
  bottom: "conv6"
  top: "conv6"
  param {
    lr_mult: 0.1
    decay_mult: 0
  }
  param {
    lr_mult: 0.2
    decay_mult: 0
  }
  scale_param {
    filler {
      value: 1
    }
    bias_term: true
    bias_filler {
      value: 0
    }
  }
}
layer {
  name: "conv6/relu"
  type: "ReLU"
  bottom: "conv6"
  top: "conv6"
}
layer {
  name: "conv7/dw"
  type: "Convolution"
  bottom: "conv6"
  top: "conv7/dw"
  param {
    lr_mult: 0.1
    decay_mult: 0.1
  }
  convolution_param {
    num_output: 512
    bias_term: false
    pad: 1
    kernel_size: 3
    group: 512
    weight_filler {
      type: "msra"
    }
    engine: CAFFE
  }
}
layer {
  name: "conv7/dw/bn"
  type: "BatchNorm"
  bottom: "conv7/dw"
  top: "conv7/dw"
}
layer {
  name: "conv7/dw/scale"
  type: "Scale"
  bottom: "conv7/dw"
  top: "conv7/dw"
  param {
    lr_mult: 0.1
    decay_mult: 0
  }
  param {
    lr_mult: 0.2
    decay_mult: 0
  }
  scale_param {
    filler {
      value: 1
    }
    bias_term: true
    bias_filler {
      value: 0
    }
  }
}
layer {
  name: "conv7/dw/relu"
  type: "ReLU"
  bottom: "conv7/dw"
  top: "conv7/dw"
}
layer {
  name: "conv7"
  type: "Convolution"
  bottom: "conv7/dw"
  top: "conv7"
  param {
    lr_mult: 0.1
    decay_mult: 0.1
  }
  convolution_param {
    num_output: 512
    bias_term: false
    kernel_size: 1
    weight_filler {
      type: "msra"
    }
  }
}
layer {
  name: "conv7/bn"
  type: "BatchNorm"
  bottom: "conv7"
  top: "conv7"
}
layer {
  name: "conv7/scale"
  type: "Scale"
  bottom: "conv7"
  top: "conv7"
  param {
    lr_mult: 0.1
    decay_mult: 0
  }
  param {
    lr_mult: 0.2
    decay_mult: 0
  }
  scale_param {
    filler {
      value: 1
    }
    bias_term: true
    bias_filler {
      value: 0
    }
  }
}
layer {
  name: "conv7/relu"
  type: "ReLU"
  bottom: "conv7"
  top: "conv7"
}
layer {
  name: "conv8/dw"
  type: "Convolution"
  bottom: "conv7"
  top: "conv8/dw"
  param {
    lr_mult: 0.1
    decay_mult: 0.1
  }
  convolution_param {
    num_output: 512
    bias_term: false
    pad: 1
    kernel_size: 3
    group: 512
    weight_filler {
      type: "msra"
    }
    engine: CAFFE
  }
}
layer {
  name: "conv8/dw/bn"
  type: "BatchNorm"
  bottom: "conv8/dw"
  top: "conv8/dw"
}
layer {
  name: "conv8/dw/scale"
  type: "Scale"
  bottom: "conv8/dw"
  top: "conv8/dw"
  param {
    lr_mult: 0.1
    decay_mult: 0
  }
  param {
    lr_mult: 0.2
    decay_mult: 0
  }
  scale_param {
    filler {
      value: 1
    }
    bias_term: true
    bias_filler {
      value: 0
    }
  }
}
layer {
  name: "conv8/dw/relu"
  type: "ReLU"
  bottom: "conv8/dw"
  top: "conv8/dw"
}
layer {
  name: "conv8"
  type: "Convolution"
  bottom: "conv8/dw"
  top: "conv8"
  param {
    lr_mult: 0.1
    decay_mult: 0.1
  }
  convolution_param {
    num_output: 512
    bias_term: false
    kernel_size: 1
    weight_filler {
      type: "msra"
    }
  }
}
layer {
  name: "conv8/bn"
  type: "BatchNorm"
  bottom: "conv8"
  top: "conv8"
}
layer {
  name: "conv8/scale"
  type: "Scale"
  bottom: "conv8"
  top: "conv8"
  param {
    lr_mult: 0.1
    decay_mult: 0
  }
  param {
    lr_mult: 0.2
    decay_mult: 0
  }
  scale_param {
    filler {
      value: 1
    }
    bias_term: true
    bias_filler {
      value: 0
    }
  }
}
layer {
  name: "conv8/relu"
  type: "ReLU"
  bottom: "conv8"
  top: "conv8"
}
layer {
  name: "conv9/dw"
  type: "Convolution"
  bottom: "conv8"
  top: "conv9/dw"
  param {
    lr_mult: 0.1
    decay_mult: 0.1
  }
  convolution_param {
    num_output: 512
    bias_term: false
    pad: 1
    kernel_size: 3
    group: 512
    weight_filler {
      type: "msra"
    }
    engine: CAFFE
  }
}
layer {
  name: "conv9/dw/bn"
  type: "BatchNorm"
  bottom: "conv9/dw"
  top: "conv9/dw"
}
layer {
  name: "conv9/dw/scale"
  type: "Scale"
  bottom: "conv9/dw"
  top: "conv9/dw"
  param {
    lr_mult: 0.1
    decay_mult: 0
  }
  param {
    lr_mult: 0.2
    decay_mult: 0
  }
  scale_param {
    filler {
      value: 1
    }
    bias_term: true
    bias_filler {
      value: 0
    }
  }
}
layer {
  name: "conv9/dw/relu"
  type: "ReLU"
  bottom: "conv9/dw"
  top: "conv9/dw"
}
layer {
  name: "conv9"
  type: "Convolution"
  bottom: "conv9/dw"
  top: "conv9"
  param {
    lr_mult: 0.1
    decay_mult: 0.1
  }
  convolution_param {
    num_output: 512
    bias_term: false
    kernel_size: 1
    weight_filler {
      type: "msra"
    }
  }
}
layer {
  name: "conv9/bn"
  type: "BatchNorm"
  bottom: "conv9"
  top: "conv9"
}
layer {
  name: "conv9/scale"
  type: "Scale"
  bottom: "conv9"
  top: "conv9"
  param {
    lr_mult: 0.1
    decay_mult: 0
  }
  param {
    lr_mult: 0.2
    decay_mult: 0
  }
  scale_param {
    filler {
      value: 1
    }
    bias_term: true
    bias_filler {
      value: 0
    }
  }
}
layer {
  name: "conv9/relu"
  type: "ReLU"
  bottom: "conv9"
  top: "conv9"
}
layer {
  name: "conv10/dw"
  type: "Convolution"
  bottom: "conv9"
  top: "conv10/dw"
  param {
    lr_mult: 0.1
    decay_mult: 0.1
  }
  convolution_param {
    num_output: 512
    bias_term: false
    pad: 1
    kernel_size: 3
    group: 512
    weight_filler {
      type: "msra"
    }
    engine: CAFFE
  }
}
layer {
  name: "conv10/dw/bn"
  type: "BatchNorm"
  bottom: "conv10/dw"
  top: "conv10/dw"
}
layer {
  name: "conv10/dw/scale"
  type: "Scale"
  bottom: "conv10/dw"
  top: "conv10/dw"
  param {
    lr_mult: 0.1
    decay_mult: 0
  }
  param {
    lr_mult: 0.2
    decay_mult: 0
  }
  scale_param {
    filler {
      value: 1
    }
    bias_term: true
    bias_filler {
      value: 0
    }
  }
}
layer {
  name: "conv10/dw/relu"
  type: "ReLU"
  bottom: "conv10/dw"
  top: "conv10/dw"
}
layer {
  name: "conv10"
  type: "Convolution"
  bottom: "conv10/dw"
  top: "conv10"
  param {
    lr_mult: 0.1
    decay_mult: 0.1
  }
  convolution_param {
    num_output: 512
    bias_term: false
    kernel_size: 1
    weight_filler {
      type: "msra"
    }
  }
}
layer {
  name: "conv10/bn"
  type: "BatchNorm"
  bottom: "conv10"
  top: "conv10"
}
layer {
  name: "conv10/scale"
  type: "Scale"
  bottom: "conv10"
  top: "conv10"
  param {
    lr_mult: 0.1
    decay_mult: 0
  }
  param {
    lr_mult: 0.2
    decay_mult: 0
  }
  scale_param {
    filler {
      value: 1
    }
    bias_term: true
    bias_filler {
      value: 0
    }
  }
}
layer {
  name: "conv10/relu"
  type: "ReLU"
  bottom: "conv10"
  top: "conv10"
}
layer {
  name: "conv11/dw"
  type: "Convolution"
  bottom: "conv10"
  top: "conv11/dw"
  param {
    lr_mult: 0.1
    decay_mult: 0.1
  }
  convolution_param {
    num_output: 512
    bias_term: false
    pad: 1
    kernel_size: 3
    group: 512
    weight_filler {
      type: "msra"
    }
    engine: CAFFE
  }
}
layer {
  name: "conv11/dw/bn"
  type: "BatchNorm"
  bottom: "conv11/dw"
  top: "conv11/dw"
}
layer {
  name: "conv11/dw/scale"
  type: "Scale"
  bottom: "conv11/dw"
  top: "conv11/dw"
  param {
    lr_mult: 0.1
    decay_mult: 0
  }
  param {
    lr_mult: 0.2
    decay_mult: 0
  }
  scale_param {
    filler {
      value: 1
    }
    bias_term: true
    bias_filler {
      value: 0
    }
  }
}
layer {
  name: "conv11/dw/relu"
  type: "ReLU"
  bottom: "conv11/dw"
  top: "conv11/dw"
}
layer {
  name: "conv11"
  type: "Convolution"
  bottom: "conv11/dw"
  top: "conv11"
  param {
    lr_mult: 0.1
    decay_mult: 0.1
  }
  convolution_param {
    num_output: 512
    bias_term: false
    kernel_size: 1
    weight_filler {
      type: "msra"
    }
  }
}
layer {
  name: "conv11/bn"
  type: "BatchNorm"
  bottom: "conv11"
  top: "conv11"
}
layer {
  name: "conv11/scale"
  type: "Scale"
  bottom: "conv11"
  top: "conv11"
  param {
    lr_mult: 0.1
    decay_mult: 0
  }
  param {
    lr_mult: 0.2
    decay_mult: 0
  }
  scale_param {
    filler {
      value: 1
    }
    bias_term: true
    bias_filler {
      value: 0
    }
  }
}
layer {
  name: "conv11/relu"
  type: "ReLU"
  bottom: "conv11"
  top: "conv11"
}
layer {
  name: "conv12/dw"
  type: "Convolution"
  bottom: "conv11"
  top: "conv12/dw"
  param {
    lr_mult: 0.1
    decay_mult: 0.1
  }
  convolution_param {
    num_output: 512
    bias_term: false
    pad: 1
    kernel_size: 3
    group: 512
    stride: 2
    weight_filler {
      type: "msra"
    }
    engine: CAFFE
  }
}
layer {
  name: "conv12/dw/bn"
  type: "BatchNorm"
  bottom: "conv12/dw"
  top: "conv12/dw"
}
layer {
  name: "conv12/dw/scale"
  type: "Scale"
  bottom: "conv12/dw"
  top: "conv12/dw"
  param {
    lr_mult: 0.1
    decay_mult: 0
  }
  param {
    lr_mult: 0.2
    decay_mult: 0
  }
  scale_param {
    filler {
      value: 1
    }
    bias_term: true
    bias_filler {
      value: 0
    }
  }
}
layer {
  name: "conv12/dw/relu"
  type: "ReLU"
  bottom: "conv12/dw"
  top: "conv12/dw"
}
layer {
  name: "conv12"
  type: "Convolution"
  bottom: "conv12/dw"
  top: "conv12"
  param {
    lr_mult: 0.1
    decay_mult: 0.1
  }
  convolution_param {
    num_output: 1024
    bias_term: false
    kernel_size: 1
    weight_filler {
      type: "msra"
    }
  }
}
layer {
  name: "conv12/bn"
  type: "BatchNorm"
  bottom: "conv12"
  top: "conv12"
}
layer {
  name: "conv12/scale"
  type: "Scale"
  bottom: "conv12"
  top: "conv12"
  param {
    lr_mult: 0.1
    decay_mult: 0
  }
  param {
    lr_mult: 0.2
    decay_mult: 0
  }
  scale_param {
    filler {
      value: 1
    }
    bias_term: true
    bias_filler {
      value: 0
    }
  }
}
layer {
  name: "conv12/relu"
  type: "ReLU"
  bottom: "conv12"
  top: "conv12"
}
layer {
  name: "conv13/dw"
  type: "Convolution"
  bottom: "conv12"
  top: "conv13/dw"
  param {
    lr_mult: 0.1
    decay_mult: 0.1
  }
  convolution_param {
    num_output: 1024
    bias_term: false
    pad: 1
    kernel_size: 3
    group: 1024
    weight_filler {
      type: "msra"
    }
    engine: CAFFE
  }
}
layer {
  name: "conv13/dw/bn"
  type: "BatchNorm"
  bottom: "conv13/dw"
  top: "conv13/dw"
}
layer {
  name: "conv13/dw/scale"
  type: "Scale"
  bottom: "conv13/dw"
  top: "conv13/dw"
  param {
    lr_mult: 0.1
    decay_mult: 0
  }
  param {
    lr_mult: 0.2
    decay_mult: 0
  }
  scale_param {
    filler {
      value: 1
    }
    bias_term: true
    bias_filler {
      value: 0
    }
  }
}
layer {
  name: "conv13/dw/relu"
  type: "ReLU"
  bottom: "conv13/dw"
  top: "conv13/dw"
}
layer {
  name: "conv13"
  type: "Convolution"
  bottom: "conv13/dw"
  top: "conv13"
  param {
    lr_mult: 0.1
    decay_mult: 0.1
  }
  convolution_param {
    num_output: 1024
    bias_term: false
    kernel_size: 1
    weight_filler {
      type: "msra"
    }
  }
}
layer {
  name: "conv13/bn"
  type: "BatchNorm"
  bottom: "conv13"
  top: "conv13"
}
layer {
  name: "conv13/scale"
  type: "Scale"
  bottom: "conv13"
  top: "conv13"
  param {
    lr_mult: 0.1
    decay_mult: 0
  }
  param {
    lr_mult: 0.2
    decay_mult: 0
  }
  scale_param {
    filler {
      value: 1
    }
    bias_term: true
    bias_filler {
      value: 0
    }
  }
}
layer {
  name: "conv13/relu"
  type: "ReLU"
  bottom: "conv13"
  top: "conv13"
}
layer {
  name: "conv14_1"
  type: "Convolution"
  bottom: "conv13"
  top: "conv14_1"
  param {
    lr_mult: 0.1
    decay_mult: 0.1
  }
  convolution_param {
    num_output: 256
    bias_term: false
    kernel_size: 1
    weight_filler {
      type: "msra"
    }
  }
}
layer {
  name: "conv14_1/bn"
  type: "BatchNorm"
  bottom: "conv14_1"
  top: "conv14_1"
}
layer {
  name: "conv14_1/scale"
  type: "Scale"
  bottom: "conv14_1"
  top: "conv14_1"
  param {
    lr_mult: 0.1
    decay_mult: 0
  }
  param {
    lr_mult: 0.2
    decay_mult: 0
  }
  scale_param {
    filler {
      value: 1
    }
    bias_term: true
    bias_filler {
      value: 0
    }
  }
}
layer {
  name: "conv14_1/relu"
  type: "ReLU"
  bottom: "conv14_1"
  top: "conv14_1"
}
layer {
  name: "conv14_2"
  type: "Convolution"
  bottom: "conv14_1"
  top: "conv14_2"
  param {
    lr_mult: 0.1
    decay_mult: 0.1
  }
  convolution_param {
    num_output: 512
    bias_term: false
    pad: 1
    kernel_size: 3
    stride: 2
    weight_filler {
      type: "msra"
    }
  }
}
layer {
  name: "conv14_2/bn"
  type: "BatchNorm"
  bottom: "conv14_2"
  top: "conv14_2"
}
layer {
  name: "conv14_2/scale"
  type: "Scale"
  bottom: "conv14_2"
  top: "conv14_2"
  param {
    lr_mult: 0.1
    decay_mult: 0
  }
  param {
    lr_mult: 0.2
    decay_mult: 0
  }
  scale_param {
    filler {
      value: 1
    }
    bias_term: true
    bias_filler {
      value: 0
    }
  }
}
layer {
  name: "conv14_2/relu"
  type: "ReLU"
  bottom: "conv14_2"
  top: "conv14_2"
}
layer {
  name: "conv15_1"
  type: "Convolution"
  bottom: "conv14_2"
  top: "conv15_1"
  param {
    lr_mult: 0.1
    decay_mult: 0.1
  }
  convolution_param {
    num_output: 128
    bias_term: false
    kernel_size: 1
    weight_filler {
      type: "msra"
    }
  }
}
layer {
  name: "conv15_1/bn"
  type: "BatchNorm"
  bottom: "conv15_1"
  top: "conv15_1"
}
layer {
  name: "conv15_1/scale"
  type: "Scale"
  bottom: "conv15_1"
  top: "conv15_1"
  param {
    lr_mult: 0.1
    decay_mult: 0
  }
  param {
    lr_mult: 0.2
    decay_mult: 0
  }
  scale_param {
    filler {
      value: 1
    }
    bias_term: true
    bias_filler {
      value: 0
    }
  }
}
layer {
  name: "conv15_1/relu"
  type: "ReLU"
  bottom: "conv15_1"
  top: "conv15_1"
}
layer {
  name: "conv15_2"
  type: "Convolution"
  bottom: "conv15_1"
  top: "conv15_2"
  param {
    lr_mult: 0.1
    decay_mult: 0.1
  }
  convolution_param {
    num_output: 256
    bias_term: false
    pad: 1
    kernel_size: 3
    stride: 2
    weight_filler {
      type: "msra"
    }
  }
}
layer {
  name: "conv15_2/bn"
  type: "BatchNorm"
  bottom: "conv15_2"
  top: "conv15_2"
}
layer {
  name: "conv15_2/scale"
  type: "Scale"
  bottom: "conv15_2"
  top: "conv15_2"
  param {
    lr_mult: 0.1
    decay_mult: 0
  }
  param {
    lr_mult: 0.2
    decay_mult: 0
  }
  scale_param {
    filler {
      value: 1
    }
    bias_term: true
    bias_filler {
      value: 0
    }
  }
}
layer {
  name: "conv15_2/relu"
  type: "ReLU"
  bottom: "conv15_2"
  top: "conv15_2"
}
layer {
  name: "conv16_1"
  type: "Convolution"
  bottom: "conv15_2"
  top: "conv16_1"
  param {
    lr_mult: 0.1
    decay_mult: 0.1
  }
  convolution_param {
    num_output: 128
    bias_term: false
    kernel_size: 1
    weight_filler {
      type: "msra"
    }
  }
}
layer {
  name: "conv16_1/bn"
  type: "BatchNorm"
  bottom: "conv16_1"
  top: "conv16_1"
}
layer {
  name: "conv16_1/scale"
  type: "Scale"
  bottom: "conv16_1"
  top: "conv16_1"
  param {
    lr_mult: 0.1
    decay_mult: 0
  }
  param {
    lr_mult: 0.2
    decay_mult: 0
  }
  scale_param {
    filler {
      value: 1
    }
    bias_term: true
    bias_filler {
      value: 0
    }
  }
}
layer {
  name: "conv16_1/relu"
  type: "ReLU"
  bottom: "conv16_1"
  top: "conv16_1"
}
layer {
  name: "conv16_2"
  type: "Convolution"
  bottom: "conv16_1"
  top: "conv16_2"
  param {
    lr_mult: 0.1
    decay_mult: 0.1
  }
  convolution_param {
    num_output: 256
    bias_term: false
    pad: 1
    kernel_size: 3
    stride: 2
    weight_filler {
      type: "msra"
    }
  }
}
layer {
  name: "conv16_2/bn"
  type: "BatchNorm"
  bottom: "conv16_2"
  top: "conv16_2"
}
layer {
  name: "conv16_2/scale"
  type: "Scale"
  bottom: "conv16_2"
  top: "conv16_2"
  param {
    lr_mult: 0.1
    decay_mult: 0
  }
  param {
    lr_mult: 0.2
    decay_mult: 0
  }
  scale_param {
    filler {
      value: 1
    }
    bias_term: true
    bias_filler {
      value: 0
    }
  }
}
layer {
  name: "conv16_2/relu"
  type: "ReLU"
  bottom: "conv16_2"
  top: "conv16_2"
}
layer {
  name: "conv17_1"
  type: "Convolution"
  bottom: "conv16_2"
  top: "conv17_1"
  param {
    lr_mult: 0.1
    decay_mult: 0.1
  }
  convolution_param {
    num_output: 64
    bias_term: false
    kernel_size: 1
    weight_filler {
      type: "msra"
    }
  }
}
layer {
  name: "conv17_1/bn"
  type: "BatchNorm"
  bottom: "conv17_1"
  top: "conv17_1"
}
layer {
  name: "conv17_1/scale"
  type: "Scale"
  bottom: "conv17_1"
  top: "conv17_1"
  param {
    lr_mult: 0.1
    decay_mult: 0
  }
  param {
    lr_mult: 0.2
    decay_mult: 0
  }
  scale_param {
    filler {
      value: 1
    }
    bias_term: true
    bias_filler {
      value: 0
    }
  }
}
layer {
  name: "conv17_1/relu"
  type: "ReLU"
  bottom: "conv17_1"
  top: "conv17_1"
}
layer {
  name: "conv17_2"
  type: "Convolution"
  bottom: "conv17_1"
  top: "conv17_2"
  param {
    lr_mult: 0.1
    decay_mult: 0.1
  }
  convolution_param {
    num_output: 128
    bias_term: false
    pad: 1
    kernel_size: 3
    stride: 2
    weight_filler {
      type: "msra"
    }
  }
}
layer {
  name: "conv17_2/bn"
  type: "BatchNorm"
  bottom: "conv17_2"
  top: "conv17_2"
}
layer {
  name: "conv17_2/scale"
  type: "Scale"
  bottom: "conv17_2"
  top: "conv17_2"
  param {
    lr_mult: 0.1
    decay_mult: 0
  }
  param {
    lr_mult: 0.2
    decay_mult: 0
  }
  scale_param {
    filler {
      value: 1
    }
    bias_term: true
    bias_filler {
      value: 0
    }
  }
}
layer {
  name: "conv17_2/relu"
  type: "ReLU"
  bottom: "conv17_2"
  top: "conv17_2"
}
layer {
  name: "conv11_mbox_loc"
  type: "Convolution"
  bottom: "conv11"
  top: "conv11_mbox_loc"
  param {
    lr_mult: 0.1
    decay_mult: 0.1
  }
  param {
    lr_mult: 0.2
    decay_mult: 0
  }
  convolution_param {
    num_output: 12
    kernel_size: 1
    weight_filler {
      type: "msra"
    }
    bias_filler {
      type: "constant"
      value: 0
    }
  }
}
layer {
  name: "conv11_mbox_loc_perm"
  type: "Permute"
  bottom: "conv11_mbox_loc"
  top: "conv11_mbox_loc
I1014 20:25:28.160859  8556 layer_factory.hpp:77] Creating layer data
I1014 20:25:28.161233  8556 net.cpp:100] Creating Layer data
I1014 20:25:28.161247  8556 net.cpp:408] data -> data
I1014 20:25:28.161279  8556 net.cpp:408] data -> label
I1014 20:25:28.161790  8568 db_lmdb.cpp:35] Opened lmdb data/lmdb_files/lmdb/lmdb_files_train_lmdb/
I1014 20:25:28.190814  8556 annotated_data_layer.cpp:62] output data size: 2,3,300,300
I1014 20:25:28.194058  8556 net.cpp:150] Setting up data
I1014 20:25:28.194077  8556 net.cpp:157] Top shape: 2 3 300 300 (540000)
I1014 20:25:28.194084  8556 net.cpp:157] Top shape: 1 1 1 8 (8)
I1014 20:25:28.194087  8556 net.cpp:165] Memory required for data: 2160032
I1014 20:25:28.194109  8556 layer_factory.hpp:77] Creating layer data_data_0_split
I1014 20:25:28.194119  8556 net.cpp:100] Creating Layer data_data_0_split
I1014 20:25:28.194125  8556 net.cpp:434] data_data_0_split <- data
I1014 20:25:28.194136  8556 net.cpp:408] data_data_0_split -> data_data_0_split_0
I1014 20:25:28.194145  8556 net.cpp:408] data_data_0_split -> data_data_0_split_1
I1014 20:25:28.194151  8556 net.cpp:408] data_data_0_split -> data_data_0_split_2
I1014 20:25:28.194157  8556 net.cpp:408] data_data_0_split -> data_data_0_split_3
I1014 20:25:28.194164  8556 net.cpp:408] data_data_0_split -> data_data_0_split_4
I1014 20:25:28.194167  8556 net.cpp:408] data_data_0_split -> data_data_0_split_5
I1014 20:25:28.194171  8556 net.cpp:408] data_data_0_split -> data_data_0_split_6
I1014 20:25:28.194555  8556 net.cpp:150] Setting up data_data_0_split
I1014 20:25:28.194566  8556 net.cpp:157] Top shape: 2 3 300 300 (540000)
I1014 20:25:28.194571  8556 net.cpp:157] Top shape: 2 3 300 300 (540000)
I1014 20:25:28.194573  8556 net.cpp:157] Top shape: 2 3 300 300 (540000)
I1014 20:25:28.194627  8556 net.cpp:157] Top shape: 2 3 300 300 (540000)
I1014 20:25:28.194633  8556 net.cpp:157] Top shape: 2 3 300 300 (540000)
I1014 20:25:28.194635  8556 net.cpp:157] Top shape: 2 3 300 300 (540000)
I1014 20:25:28.194638  8556 net.cpp:157] Top shape: 2 3 300 300 (540000)
I1014 20:25:28.194641  8556 net.cpp:165] Memory required for data: 17280032
I1014 20:25:28.194644  8556 layer_factory.hpp:77] Creating layer conv0
I1014 20:25:28.194664  8556 net.cpp:100] Creating Layer conv0
I1014 20:25:28.194669  8556 net.cpp:434] conv0 <- data_data_0_split_0
I1014 20:25:28.194674  8556 net.cpp:408] conv0 -> conv0
I1014 20:25:29.291167  8556 net.cpp:150] Setting up conv0
I1014 20:25:29.291188  8556 net.cpp:157] Top shape: 2 32 150 150 (1440000)
I1014 20:25:29.291194  8556 net.cpp:165] Memory required for data: 23040032
I1014 20:25:29.291209  8556 layer_factory.hpp:77] Creating layer conv0/bn
I1014 20:25:29.291218  8556 net.cpp:100] Creating Layer conv0/bn
I1014 20:25:29.291221  8556 net.cpp:434] conv0/bn <- conv0
I1014 20:25:29.291227  8556 net.cpp:395] conv0/bn -> conv0 (in-place)
I1014 20:25:29.291440  8556 net.cpp:150] Setting up conv0/bn
I1014 20:25:29.291447  8556 net.cpp:157] Top shape: 2 32 150 150 (1440000)
I1014 20:25:29.291452  8556 net.cpp:165] Memory required for data: 28800032
I1014 20:25:29.291474  8556 layer_factory.hpp:77] Creating layer conv0/scale
I1014 20:25:29.291483  8556 net.cpp:100] Creating Layer conv0/scale
I1014 20:25:29.291486  8556 net.cpp:434] conv0/scale <- conv0
I1014 20:25:29.291491  8556 net.cpp:395] conv0/scale -> conv0 (in-place)
I1014 20:25:29.291522  8556 layer_factory.hpp:77] Creating layer conv0/scale
I1014 20:25:29.291978  8556 net.cpp:150] Setting up conv0/scale
I1014 20:25:29.291988  8556 net.cpp:157] Top shape: 2 32 150 150 (1440000)
I1014 20:25:29.291993  8556 net.cpp:165] Memory required for data: 34560032
I1014 20:25:29.292001  8556 layer_factory.hpp:77] Creating layer conv0/relu
I1014 20:25:29.292006  8556 net.cpp:100] Creating Layer conv0/relu
I1014 20:25:29.292008  8556 net.cpp:434] conv0/relu <- conv0
I1014 20:25:29.292012  8556 net.cpp:395] conv0/relu -> conv0 (in-place)
I1014 20:25:29.292484  8556 net.cpp:150] Setting up conv0/relu
I1014 20:25:29.292492  8556 net.cpp:157] Top shape: 2 32 150 150 (1440000)
I1014 20:25:29.292496  8556 net.cpp:165] Memory required for data: 40320032
I1014 20:25:29.292500  8556 layer_factory.hpp:77] Creating layer conv1/dw
I1014 20:25:29.292508  8556 net.cpp:100] Creating Layer conv1/dw
I1014 20:25:29.292511  8556 net.cpp:434] conv1/dw <- conv0
I1014 20:25:29.292515  8556 net.cpp:408] conv1/dw -> conv1/dw
I1014 20:25:29.292661  8556 net.cpp:150] Setting up conv1/dw
I1014 20:25:29.292666  8556 net.cpp:157] Top shape: 2 32 150 150 (1440000)
I1014 20:25:29.292670  8556 net.cpp:165] Memory required for data: 46080032
I1014 20:25:29.292675  8556 layer_factory.hpp:77] Creating layer conv1/dw/bn
I1014 20:25:29.292693  8556 net.cpp:100] Creating Layer conv1/dw/bn
I1014 20:25:29.292696  8556 net.cpp:434] conv1/dw/bn <- conv1/dw
I1014 20:25:29.292699  8556 net.cpp:395] conv1/dw/bn -> conv1/dw (in-place)
I1014 20:25:29.292860  8556 net.cpp:150] Setting up conv1/dw/bn
I1014 20:25:29.292865  8556 net.cpp:157] Top shape: 2 32 150 150 (1440000)
I1014 20:25:29.292868  8556 net.cpp:165] Memory required for data: 51840032
I1014 20:25:29.292874  8556 layer_factory.hpp:77] Creating layer conv1/dw/scale
I1014 20:25:29.292896  8556 net.cpp:100] Creating Layer conv1/dw/scale
I1014 20:25:29.292898  8556 net.cpp:434] conv1/dw/scale <- conv1/dw
I1014 20:25:29.292903  8556 net.cpp:395] conv1/dw/scale -> conv1/dw (in-place)
I1014 20:25:29.292927  8556 layer_factory.hpp:77] Creating layer conv1/dw/scale
I1014 20:25:29.293015  8556 net.cpp:150] Setting up conv1/dw/scale
I1014 20:25:29.293020  8556 net.cpp:157] Top shape: 2 32 150 150 (1440000)
I1014 20:25:29.293023  8556 net.cpp:165] Memory required for data: 57600032
I1014 20:25:29.293027  8556 layer_factory.hpp:77] Creating layer conv1/dw/relu
I1014 20:25:29.293032  8556 net.cpp:100] Creating Layer conv1/dw/relu
I1014 20:25:29.293052  8556 net.cpp:434] conv1/dw/relu <- conv1/dw
I1014 20:25:29.293057  8556 net.cpp:395] conv1/dw/relu -> conv1/dw (in-place)
I1014 20:25:29.293481  8556 net.cpp:150] Setting up conv1/dw/relu
I1014 20:25:29.293490  8556 net.cpp:157] Top shape: 2 32 150 150 (1440000)
I1014 20:25:29.293494  8556 net.cpp:165] Memory required for data: 63360032
I1014 20:25:29.293498  8556 layer_factory.hpp:77] Creating layer conv1
I1014 20:25:29.293505  8556 net.cpp:100] Creating Layer conv1
I1014 20:25:29.293509  8556 net.cpp:434] conv1 <- conv1/dw
I1014 20:25:29.293514  8556 net.cpp:408] conv1 -> conv1
I1014 20:25:29.295565  8556 net.cpp:150] Setting up conv1
I1014 20:25:29.295576  8556 net.cpp:157] Top shape: 2 64 150 150 (2880000)
I1014 20:25:29.295581  8556 net.cpp:165] Memory required for data: 74880032
I1014 20:25:29.295585  8556 layer_factory.hpp:77] Creating layer conv1/bn
I1014 20:25:29.295605  8556 net.cpp:100] Creating Layer conv1/bn
I1014 20:25:29.295608  8556 net.cpp:434] conv1/bn <- conv1
I1014 20:25:29.295612  8556 net.cpp:395] conv1/bn -> conv1 (in-place)
I1014 20:25:29.295754  8556 net.cpp:150] Setting up conv1/bn
I1014 20:25:29.295760  8556 net.cpp:157] Top shape: 2 64 150 150 (2880000)
I1014 20:25:29.295763  8556 net.cpp:165] Memory required for data: 86400032
I1014 20:25:29.295768  8556 layer_factory.hpp:77] Creating layer conv1/scale
I1014 20:25:29.295774  8556 net.cpp:100] Creating Layer conv1/scale
I1014 20:25:29.295778  8556 net.cpp:434] conv1/scale <- conv1
I1014 20:25:29.295780  8556 net.cpp:395] conv1/scale -> conv1 (in-place)
I1014 20:25:29.295804  8556 layer_factory.hpp:77] Creating layer conv1/scale
I1014 20:25:29.295977  8556 net.cpp:150] Setting up conv1/scale
I1014 20:25:29.295982  8556 net.cpp:157] Top shape: 2 64 150 150 (2880000)
I1014 20:25:29.295986  8556 net.cpp:165] Memory required for data: 97920032
I1014 20:25:29.296005  8556 layer_factory.hpp:77] Creating layer conv1/relu
I1014 20:25:29.296025  8556 net.cpp:100] Creating Layer conv1/relu
I1014 20:25:29.296028  8556 net.cpp:434] conv1/relu <- conv1
I1014 20:25:29.296032  8556 net.cpp:395] conv1/relu -> conv1 (in-place)
I1014 20:25:29.296545  8556 net.cpp:150] Setting up conv1/relu
I1014 20:25:29.296552  8556 net.cpp:157] Top shape: 2 64 150 150 (2880000)
I1014 20:25:29.296557  8556 net.cpp:165] Memory required for data: 109440032
I1014 20:25:29.296561  8556 layer_factory.hpp:77] Creating layer conv2/dw
I1014 20:25:29.296569  8556 net.cpp:100] Creating Layer conv2/dw
I1014 20:25:29.296572  8556 net.cpp:434] conv2/dw <- conv1
I1014 20:25:29.296576  8556 net.cpp:408] conv2/dw -> conv2/dw
I1014 20:25:29.296695  8556 net.cpp:150] Setting up conv2/dw
I1014 20:25:29.296701  8556 net.cpp:157] Top shape: 2 64 75 75 (720000)
I1014 20:25:29.296705  8556 net.cpp:165] Memory required for data: 112320032
I1014 20:25:29.296708  8556 layer_factory.hpp:77] Creating layer conv2/dw/bn
I1014 20:25:29.296712  8556 net.cpp:100] Creating Layer conv2/dw/bn
I1014 20:25:29.296715  8556 net.cpp:434] conv2/dw/bn <- conv2/dw
I1014 20:25:29.296718  8556 net.cpp:395] conv2/dw/bn -> conv2/dw (in-place)
I1014 20:25:29.296831  8556 net.cpp:150] Setting up conv2/dw/bn
I1014 20:25:29.296838  8556 net.cpp:157] Top shape: 2 64 75 75 (720000)
I1014 20:25:29.296841  8556 net.cpp:165] Memory required for data: 115200032
I1014 20:25:29.296845  8556 layer_factory.hpp:77] Creating layer conv2/dw/scale
I1014 20:25:29.296852  8556 net.cpp:100] Creating Layer conv2/dw/scale
I1014 20:25:29.296855  8556 net.cpp:434] conv2/dw/scale <- conv2/dw
I1014 20:25:29.296859  8556 net.cpp:395] conv2/dw/scale -> conv2/dw (in-place)
I1014 20:25:29.296881  8556 layer_factory.hpp:77] Creating layer conv2/dw/scale
I1014 20:25:29.296952  8556 net.cpp:150] Setting up conv2/dw/scale
I1014 20:25:29.296957  8556 net.cpp:157] Top shape: 2 64 75 75 (720000)
I1014 20:25:29.296962  8556 net.cpp:165] Memory required for data: 118080032
I1014 20:25:29.296965  8556 layer_factory.hpp:77] Creating layer conv2/dw/relu
I1014 20:25:29.296970  8556 net.cpp:100] Creating Layer conv2/dw/relu
I1014 20:25:29.296988  8556 net.cpp:434] conv2/dw/relu <- conv2/dw
I1014 20:25:29.296991  8556 net.cpp:395] conv2/dw/relu -> conv2/dw (in-place)
I1014 20:25:29.298213  8556 net.cpp:150] Setting up conv2/dw/relu
I1014 20:25:29.298223  8556 net.cpp:157] Top shape: 2 64 75 75 (720000)
I1014 20:25:29.298228  8556 net.cpp:165] Memory required for data: 120960032
I1014 20:25:29.298230  8556 layer_factory.hpp:77] Creating layer conv2
I1014 20:25:29.298241  8556 net.cpp:100] Creating Layer conv2
I1014 20:25:29.298246  8556 net.cpp:434] conv2 <- conv2/dw
I1014 20:25:29.298251  8556 net.cpp:408] conv2 -> conv2
I1014 20:25:29.299692  8556 net.cpp:150] Setting up conv2
I1014 20:25:29.299701  8556 net.cpp:157] Top shape: 2 128 75 75 (1440000)
I1014 20:25:29.299705  8556 net.cpp:165] Memory required for data: 126720032
I1014 20:25:29.299710  8556 layer_factory.hpp:77] Creating layer conv2/bn
I1014 20:25:29.299716  8556 net.cpp:100] Creating Layer conv2/bn
I1014 20:25:29.299721  8556 net.cpp:434] conv2/bn <- conv2
I1014 20:25:29.299724  8556 net.cpp:395] conv2/bn -> conv2 (in-place)
I1014 20:25:29.299876  8556 net.cpp:150] Setting up conv2/bn
I1014 20:25:29.299881  8556 net.cpp:157] Top shape: 2 128 75 75 (1440000)
I1014 20:25:29.299885  8556 net.cpp:165] Memory required for data: 132480032
I1014 20:25:29.299890  8556 layer_factory.hpp:77] Creating layer conv2/scale
I1014 20:25:29.299894  8556 net.cpp:100] Creating Layer conv2/scale
I1014 20:25:29.299896  8556 net.cpp:434] conv2/scale <- conv2
I1014 20:25:29.299922  8556 net.cpp:395] conv2/scale -> conv2 (in-place)
I1014 20:25:29.299973  8556 layer_factory.hpp:77] Creating layer conv2/scale
I1014 20:25:29.300091  8556 net.cpp:150] Setting up conv2/scale
I1014 20:25:29.300096  8556 net.cpp:157] Top shape: 2 128 75 75 (1440000)
I1014 20:25:29.300098  8556 net.cpp:165] Memory required for data: 138240032
I1014 20:25:29.300102  8556 layer_factory.hpp:77] Creating layer conv2/relu
I1014 20:25:29.300129  8556 net.cpp:100] Creating Layer conv2/relu
I1014 20:25:29.300132  8556 net.cpp:434] conv2/relu <- conv2
I1014 20:25:29.300137  8556 net.cpp:395] conv2/relu -> conv2 (in-place)
I1014 20:25:29.300559  8556 net.cpp:150] Setting up conv2/relu
I1014 20:25:29.300567  8556 net.cpp:157] Top shape: 2 128 75 75 (1440000)
I1014 20:25:29.300572  8556 net.cpp:165] Memory required for data: 144000032
I1014 20:25:29.300575  8556 layer_factory.hpp:77] Creating layer conv3/dw
I1014 20:25:29.300583  8556 net.cpp:100] Creating Layer conv3/dw
I1014 20:25:29.300587  8556 net.cpp:434] conv3/dw <- conv2
I1014 20:25:29.300591  8556 net.cpp:408] conv3/dw -> conv3/dw
I1014 20:25:29.300714  8556 net.cpp:150] Setting up conv3/dw
I1014 20:25:29.300720  8556 net.cpp:157] Top shape: 2 128 75 75 (1440000)
I1014 20:25:29.300724  8556 net.cpp:165] Memory required for data: 149760032
I1014 20:25:29.300729  8556 layer_factory.hpp:77] Creating layer conv3/dw/bn
I1014 20:25:29.300732  8556 net.cpp:100] Creating Layer conv3/dw/bn
I1014 20:25:29.300735  8556 net.cpp:434] conv3/dw/bn <- conv3/dw
I1014 20:25:29.300738  8556 net.cpp:395] conv3/dw/bn -> conv3/dw (in-place)
I1014 20:25:29.300849  8556 net.cpp:150] Setting up conv3/dw/bn
I1014 20:25:29.300854  8556 net.cpp:157] Top shape: 2 128 75 75 (1440000)
I1014 20:25:29.300858  8556 net.cpp:165] Memory required for data: 155520032
I1014 20:25:29.300865  8556 layer_factory.hpp:77] Creating layer conv3/dw/scale
I1014 20:25:29.300870  8556 net.cpp:100] Creating Layer conv3/dw/scale
I1014 20:25:29.300873  8556 net.cpp:434] conv3/dw/scale <- conv3/dw
I1014 20:25:29.300879  8556 net.cpp:395] conv3/dw/scale -> conv3/dw (in-place)
I1014 20:25:29.300901  8556 layer_factory.hpp:77] Creating layer conv3/dw/scale
I1014 20:25:29.300971  8556 net.cpp:150] Setting up conv3/dw/scale
I1014 20:25:29.300976  8556 net.cpp:157] Top shape: 2 128 75 75 (1440000)
I1014 20:25:29.300978  8556 net.cpp:165] Memory required for data: 161280032
I1014 20:25:29.300982  8556 layer_factory.hpp:77] Creating layer conv3/dw/relu
I1014 20:25:29.300988  8556 net.cpp:100] Creating Layer conv3/dw/relu
I1014 20:25:29.301003  8556 net.cpp:434] conv3/dw/relu <- conv3/dw
I1014 20:25:29.301007  8556 net.cpp:395] conv3/dw/relu -> conv3/dw (in-place)
I1014 20:25:29.301421  8556 net.cpp:150] Setting up conv3/dw/relu
I1014 20:25:29.301429  8556 net.cpp:157] Top shape: 2 128 75 75 (1440000)
I1014 20:25:29.301434  8556 net.cpp:165] Memory required for data: 167040032
I1014 20:25:29.301436  8556 layer_factory.hpp:77] Creating layer conv3
I1014 20:25:29.301445  8556 net.cpp:100] Creating Layer conv3
I1014 20:25:29.301448  8556 net.cpp:434] conv3 <- conv3/dw
I1014 20:25:29.301452  8556 net.cpp:408] conv3 -> conv3
I1014 20:25:29.302938  8556 net.cpp:150] Setting up conv3
I1014 20:25:29.302949  8556 net.cpp:157] Top shape: 2 128 75 75 (1440000)
I1014 20:25:29.302954  8556 net.cpp:165] Memory required for data: 172800032
I1014 20:25:29.302958  8556 layer_factory.hpp:77] Creating layer conv3/bn
I1014 20:25:29.302963  8556 net.cpp:100] Creating Layer conv3/bn
I1014 20:25:29.302966  8556 net.cpp:434] conv3/bn <- conv3
I1014 20:25:29.302971  8556 net.cpp:395] conv3/bn -> conv3 (in-place)
I1014 20:25:29.303088  8556 net.cpp:150] Setting up conv3/bn
I1014 20:25:29.303093  8556 net.cpp:157] Top shape: 2 128 75 75 (1440000)
I1014 20:25:29.303097  8556 net.cpp:165] Memory required for data: 178560032
I1014 20:25:29.303102  8556 layer_factory.hpp:77] Creating layer conv3/scale
I1014 20:25:29.303107  8556 net.cpp:100] Creating Layer conv3/scale
I1014 20:25:29.303110  8556 net.cpp:434] conv3/scale <- conv3
I1014 20:25:29.303115  8556 net.cpp:395] conv3/scale -> conv3 (in-place)
I1014 20:25:29.303139  8556 layer_factory.hpp:77] Creating layer conv3/scale
I1014 20:25:29.303210  8556 net.cpp:150] Setting up conv3/scale
I1014 20:25:29.303216  8556 net.cpp:157] Top shape: 2 128 75 75 (1440000)
I1014 20:25:29.303220  8556 net.cpp:165] Memory required for data: 184320032
I1014 20:25:29.303223  8556 layer_factory.hpp:77] Creating layer conv3/relu
I1014 20:25:29.303230  8556 net.cpp:100] Creating Layer conv3/relu
I1014 20:25:29.303232  8556 net.cpp:434] conv3/relu <- conv3
I1014 20:25:29.303236  8556 net.cpp:395] conv3/relu -> conv3 (in-place)
I1014 20:25:29.303679  8556 net.cpp:150] Setting up conv3/relu
I1014 20:25:29.303689  8556 net.cpp:157] Top shape: 2 128 75 75 (1440000)
I1014 20:25:29.303694  8556 net.cpp:165] Memory required for data: 190080032
I1014 20:25:29.303696  8556 layer_factory.hpp:77] Creating layer conv4/dw
I1014 20:25:29.303705  8556 net.cpp:100] Creating Layer conv4/dw
I1014 20:25:29.303709  8556 net.cpp:434] conv4/dw <- conv3
I1014 20:25:29.303714  8556 net.cpp:408] conv4/dw -> conv4/dw
I1014 20:25:29.303843  8556 net.cpp:150] Setting up conv4/dw
I1014 20:25:29.303850  8556 net.cpp:157] Top shape: 2 128 38 38 (369664)
I1014 20:25:29.303853  8556 net.cpp:165] Memory required for data: 191558688
I1014 20:25:29.303858  8556 layer_factory.hpp:77] Creating layer conv4/dw/bn
I1014 20:25:29.303862  8556 net.cpp:100] Creating Layer conv4/dw/bn
I1014 20:25:29.303865  8556 net.cpp:434] conv4/dw/bn <- conv4/dw
I1014 20:25:29.303869  8556 net.cpp:395] conv4/dw/bn -> conv4/dw (in-place)
I1014 20:25:29.303982  8556 net.cpp:150] Setting up conv4/dw/bn
I1014 20:25:29.303987  8556 net.cpp:157] Top shape: 2 128 38 38 (369664)
I1014 20:25:29.303990  8556 net.cpp:165] Memory required for data: 193037344
I1014 20:25:29.303994  8556 layer_factory.hpp:77] Creating layer conv4/dw/scale
I1014 20:25:29.304003  8556 net.cpp:100] Creating Layer conv4/dw/scale
I1014 20:25:29.304005  8556 net.cpp:434] conv4/dw/scale <- conv4/dw
I1014 20:25:29.304008  8556 net.cpp:395] conv4/dw/scale -> conv4/dw (in-place)
I1014 20:25:29.304031  8556 layer_factory.hpp:77] Creating layer conv4/dw/scale
I1014 20:25:29.304101  8556 net.cpp:150] Setting up conv4/dw/scale
I1014 20:25:29.304106  8556 net.cpp:157] Top shape: 2 128 38 38 (369664)
I1014 20:25:29.304109  8556 net.cpp:165] Memory required for data: 194516000
I1014 20:25:29.304113  8556 layer_factory.hpp:77] Creating layer conv4/dw/relu
I1014 20:25:29.304117  8556 net.cpp:100] Creating Layer conv4/dw/relu
I1014 20:25:29.304134  8556 net.cpp:434] conv4/dw/relu <- conv4/dw
I1014 20:25:29.304141  8556 net.cpp:395] conv4/dw/relu -> conv4/dw (in-place)
I1014 20:25:29.305413  8556 net.cpp:150] Setting up conv4/dw/relu
I1014 20:25:29.305423  8556 net.cpp:157] Top shape: 2 128 38 38 (369664)
I1014 20:25:29.305428  8556 net.cpp:165] Memory required for data: 195994656
I1014 20:25:29.305431  8556 layer_factory.hpp:77] Creating layer conv4
I1014 20:25:29.305456  8556 net.cpp:100] Creating Layer conv4
I1014 20:25:29.305460  8556 net.cpp:434] conv4 <- conv4/dw
I1014 20:25:29.305465  8556 net.cpp:408] conv4 -> conv4
I1014 20:25:29.306947  8556 net.cpp:150] Setting up conv4
I1014 20:25:29.306957  8556 net.cpp:157] Top shape: 2 256 38 38 (739328)
I1014 20:25:29.306962  8556 net.cpp:165] Memory required for data: 198951968
I1014 20:25:29.306965  8556 layer_factory.hpp:77] Creating layer conv4/bn
I1014 20:25:29.306987  8556 net.cpp:100] Creating Layer conv4/bn
I1014 20:25:29.306989  8556 net.cpp:434] conv4/bn <- conv4
I1014 20:25:29.306994  8556 net.cpp:395] conv4/bn -> conv4 (in-place)
I1014 20:25:29.307135  8556 net.cpp:150] Setting up conv4/bn
I1014 20:25:29.307142  8556 net.cpp:157] Top shape: 2 256 38 38 (739328)
I1014 20:25:29.307147  8556 net.cpp:165] Memory required for data: 201909280
I1014 20:25:29.307150  8556 layer_factory.hpp:77] Creating layer conv4/scale
I1014 20:25:29.307155  8556 net.cpp:100] Creating Layer conv4/scale
I1014 20:25:29.307162  8556 net.cpp:434] conv4/scale <- conv4
I1014 20:25:29.307166  8556 net.cpp:395] conv4/scale -> conv4 (in-place)
I1014 20:25:29.307191  8556 layer_factory.hpp:77] Creating layer conv4/scale
I1014 20:25:29.307260  8556 net.cpp:150] Setting up conv4/scale
I1014 20:25:29.307266  8556 net.cpp:157] Top shape: 2 256 38 38 (739328)
I1014 20:25:29.307271  8556 net.cpp:165] Memory required for data: 204866592
I1014 20:25:29.307274  8556 layer_factory.hpp:77] Creating layer conv4/relu
I1014 20:25:29.307278  8556 net.cpp:100] Creating Layer conv4/relu
I1014 20:25:29.307281  8556 net.cpp:434] conv4/relu <- conv4
I1014 20:25:29.307284  8556 net.cpp:395] conv4/relu -> conv4 (in-place)
I1014 20:25:29.307765  8556 net.cpp:150] Setting up conv4/relu
I1014 20:25:29.307773  8556 net.cpp:157] Top shape: 2 256 38 38 (739328)
I1014 20:25:29.307778  8556 net.cpp:165] Memory required for data: 207823904
I1014 20:25:29.307781  8556 layer_factory.hpp:77] Creating layer conv5/dw
I1014 20:25:29.307790  8556 net.cpp:100] Creating Layer conv5/dw
I1014 20:25:29.307793  8556 net.cpp:434] conv5/dw <- conv4
I1014 20:25:29.307797  8556 net.cpp:408] conv5/dw -> conv5/dw
I1014 20:25:29.307970  8556 net.cpp:150] Setting up conv5/dw
I1014 20:25:29.307974  8556 net.cpp:157] Top shape: 2 256 38 38 (739328)
I1014 20:25:29.307978  8556 net.cpp:165] Memory required for data: 210781216
I1014 20:25:29.307997  8556 layer_factory.hpp:77] Creating layer conv5/dw/bn
I1014 20:25:29.308001  8556 net.cpp:100] Creating Layer conv5/dw/bn
I1014 20:25:29.308004  8556 net.cpp:434] conv5/dw/bn <- conv5/dw
I1014 20:25:29.308007  8556 net.cpp:395] conv5/dw/bn -> conv5/dw (in-place)
I1014 20:25:29.308117  8556 net.cpp:150] Setting up conv5/dw/bn
I1014 20:25:29.308122  8556 net.cpp:157] Top shape: 2 256 38 38 (739328)
I1014 20:25:29.308125  8556 net.cpp:165] Memory required for data: 213738528
I1014 20:25:29.308130  8556 layer_factory.hpp:77] Creating layer conv5/dw/scale
I1014 20:25:29.308135  8556 net.cpp:100] Creating Layer conv5/dw/scale
I1014 20:25:29.308137  8556 net.cpp:434] conv5/dw/scale <- conv5/dw
I1014 20:25:29.308142  8556 net.cpp:395] conv5/dw/scale -> conv5/dw (in-place)
I1014 20:25:29.308163  8556 layer_factory.hpp:77] Creating layer conv5/dw/scale
I1014 20:25:29.308226  8556 net.cpp:150] Setting up conv5/dw/scale
I1014 20:25:29.308231  8556 net.cpp:157] Top shape: 2 256 38 38 (739328)
I1014 20:25:29.308234  8556 net.cpp:165] Memory required for data: 216695840
I1014 20:25:29.308238  8556 layer_factory.hpp:77] Creating layer conv5/dw/relu
I1014 20:25:29.308243  8556 net.cpp:100] Creating Layer conv5/dw/relu
I1014 20:25:29.308246  8556 net.cpp:434] conv5/dw/relu <- conv5/dw
I1014 20:25:29.308262  8556 net.cpp:395] conv5/dw/relu -> conv5/dw (in-place)
I1014 20:25:29.308787  8556 net.cpp:150] Setting up conv5/dw/relu
I1014 20:25:29.308795  8556 net.cpp:157] Top shape: 2 256 38 38 (739328)
I1014 20:25:29.308815  8556 net.cpp:165] Memory required for data: 219653152
I1014 20:25:29.308818  8556 layer_factory.hpp:77] Creating layer conv5
I1014 20:25:29.308827  8556 net.cpp:100] Creating Layer conv5
I1014 20:25:29.308830  8556 net.cpp:434] conv5 <- conv5/dw
I1014 20:25:29.308836  8556 net.cpp:408] conv5 -> conv5
I1014 20:25:29.310580  8556 net.cpp:150] Setting up conv5
I1014 20:25:29.310588  8556 net.cpp:157] Top shape: 2 256 38 38 (739328)
I1014 20:25:29.310608  8556 net.cpp:165] Memory required for data: 222610464
I1014 20:25:29.310613  8556 layer_factory.hpp:77] Creating layer conv5/bn
I1014 20:25:29.310617  8556 net.cpp:100] Creating Layer conv5/bn
I1014 20:25:29.310621  8556 net.cpp:434] conv5/bn <- conv5
I1014 20:25:29.310624  8556 net.cpp:395] conv5/bn -> conv5 (in-place)
I1014 20:25:29.310778  8556 net.cpp:150] Setting up conv5/bn
I1014 20:25:29.310796  8556 net.cpp:157] Top shape: 2 256 38 38 (739328)
I1014 20:25:29.310801  8556 net.cpp:165] Memory required for data: 225567776
I1014 20:25:29.310806  8556 layer_factory.hpp:77] Creating layer conv5/scale
I1014 20:25:29.310811  8556 net.cpp:100] Creating Layer conv5/scale
I1014 20:25:29.310814  8556 net.cpp:434] conv5/scale <- conv5
I1014 20:25:29.310817  8556 net.cpp:395] conv5/scale -> conv5 (in-place)
I1014 20:25:29.310842  8556 layer_factory.hpp:77] Creating layer conv5/scale
I1014 20:25:29.310909  8556 net.cpp:150] Setting up conv5/scale
I1014 20:25:29.310914  8556 net.cpp:157] Top shape: 2 256 38 38 (739328)
I1014 20:25:29.310919  8556 net.cpp:165] Memory required for data: 228525088
I1014 20:25:29.310928  8556 layer_factory.hpp:77] Creating layer conv5/relu
I1014 20:25:29.310935  8556 net.cpp:100] Creating Layer conv5/relu
I1014 20:25:29.310937  8556 net.cpp:434] conv5/relu <- conv5
I1014 20:25:29.310941  8556 net.cpp:395] conv5/relu -> conv5 (in-place)
I1014 20:25:29.311367  8556 net.cpp:150] Setting up conv5/relu
I1014 20:25:29.311380  8556 net.cpp:157] Top shape: 2 256 38 38 (739328)
I1014 20:25:29.311385  8556 net.cpp:165] Memory required for data: 231482400
I1014 20:25:29.311388  8556 layer_factory.hpp:77] Creating layer conv6/dw
I1014 20:25:29.311398  8556 net.cpp:100] Creating Layer conv6/dw
I1014 20:25:29.311403  8556 net.cpp:434] conv6/dw <- conv5
I1014 20:25:29.311406  8556 net.cpp:408] conv6/dw -> conv6/dw
I1014 20:25:29.311566  8556 net.cpp:150] Setting up conv6/dw
I1014 20:25:29.311573  8556 net.cpp:157] Top shape: 2 256 19 19 (184832)
I1014 20:25:29.311575  8556 net.cpp:165] Memory required for data: 232221728
I1014 20:25:29.311579  8556 layer_factory.hpp:77] Creating layer conv6/dw/bn
I1014 20:25:29.311583  8556 net.cpp:100] Creating Layer conv6/dw/bn
I1014 20:25:29.311586  8556 net.cpp:434] conv6/dw/bn <- conv6/dw
I1014 20:25:29.311589  8556 net.cpp:395] conv6/dw/bn -> conv6/dw (in-place)
I1014 20:25:29.311702  8556 net.cpp:150] Setting up conv6/dw/bn
I1014 20:25:29.311707  8556 net.cpp:157] Top shape: 2 256 19 19 (184832)
I1014 20:25:29.311710  8556 net.cpp:165] Memory required for data: 232961056
I1014 20:25:29.311715  8556 layer_factory.hpp:77] Creating layer conv6/dw/scale
I1014 20:25:29.311720  8556 net.cpp:100] Creating Layer conv6/dw/scale
I1014 20:25:29.311723  8556 net.cpp:434] conv6/dw/scale <- conv6/dw
I1014 20:25:29.311728  8556 net.cpp:395] conv6/dw/scale -> conv6/dw (in-place)
I1014 20:25:29.311750  8556 layer_factory.hpp:77] Creating layer conv6/dw/scale
I1014 20:25:29.311816  8556 net.cpp:150] Setting up conv6/dw/scale
I1014 20:25:29.311820  8556 net.cpp:157] Top shape: 2 256 19 19 (184832)
I1014 20:25:29.311825  8556 net.cpp:165] Memory required for data: 233700384
I1014 20:25:29.311828  8556 layer_factory.hpp:77] Creating layer conv6/dw/relu
I1014 20:25:29.311832  8556 net.cpp:100] Creating Layer conv6/dw/relu
I1014 20:25:29.311834  8556 net.cpp:434] conv6/dw/relu <- conv6/dw
I1014 20:25:29.311851  8556 net.cpp:395] conv6/dw/relu -> conv6/dw (in-place)
I1014 20:25:29.313069  8556 net.cpp:150] Setting up conv6/dw/relu
I1014 20:25:29.313078  8556 net.cpp:157] Top shape: 2 256 19 19 (184832)
I1014 20:25:29.313098  8556 net.cpp:165] Memory required for data: 234439712
I1014 20:25:29.313102  8556 layer_factory.hpp:77] Creating layer conv6
I1014 20:25:29.313112  8556 net.cpp:100] Creating Layer conv6
I1014 20:25:29.313115  8556 net.cpp:434] conv6 <- conv6/dw
I1014 20:25:29.313122  8556 net.cpp:408] conv6 -> conv6
I1014 20:25:29.315826  8556 net.cpp:150] Setting up conv6
I1014 20:25:29.315837  8556 net.cpp:157] Top shape: 2 512 19 19 (369664)
I1014 20:25:29.315857  8556 net.cpp:165] Memory required for data: 235918368
I1014 20:25:29.315862  8556 layer_factory.hpp:77] Creating layer conv6/bn
I1014 20:25:29.315870  8556 net.cpp:100] Creating Layer conv6/bn
I1014 20:25:29.315872  8556 net.cpp:434] conv6/bn <- conv6
I1014 20:25:29.315878  8556 net.cpp:395] conv6/bn -> conv6 (in-place)
I1014 20:25:29.316009  8556 net.cpp:150] Setting up conv6/bn
I1014 20:25:29.316013  8556 net.cpp:157] Top shape: 2 512 19 19 (369664)
I1014 20:25:29.316032  8556 net.cpp:165] Memory required for data: 237397024
I1014 20:25:29.316036  8556 layer_factory.hpp:77] Creating layer conv6/scale
I1014 20:25:29.316056  8556 net.cpp:100] Creating Layer conv6/scale
I1014 20:25:29.316059  8556 net.cpp:434] conv6/scale <- conv6
I1014 20:25:29.316064  8556 net.cpp:395] conv6/scale -> conv6 (in-place)
I1014 20:25:29.316107  8556 layer_factory.hpp:77] Creating layer conv6/scale
I1014 20:25:29.316206  8556 net.cpp:150] Setting up conv6/scale
I1014 20:25:29.316211  8556 net.cpp:157] Top shape: 2 512 19 19 (369664)
I1014 20:25:29.316215  8556 net.cpp:165] Memory required for data: 238875680
I1014 20:25:29.316218  8556 layer_factory.hpp:77] Creating layer conv6/relu
I1014 20:25:29.316223  8556 net.cpp:100] Creating Layer conv6/relu
I1014 20:25:29.316226  8556 net.cpp:434] conv6/relu <- conv6
I1014 20:25:29.316229  8556 net.cpp:395] conv6/relu -> conv6 (in-place)
I1014 20:25:29.316648  8556 net.cpp:150] Setting up conv6/relu
I1014 20:25:29.316655  8556 net.cpp:157] Top shape: 2 512 19 19 (369664)
I1014 20:25:29.316659  8556 net.cpp:165] Memory required for data: 240354336
I1014 20:25:29.316663  8556 layer_factory.hpp:77] Creating layer conv7/dw
I1014 20:25:29.316673  8556 net.cpp:100] Creating Layer conv7/dw
I1014 20:25:29.316675  8556 net.cpp:434] conv7/dw <- conv6
I1014 20:25:29.316680  8556 net.cpp:408] conv7/dw -> conv7/dw
I1014 20:25:29.316831  8556 net.cpp:150] Setting up conv7/dw
I1014 20:25:29.316836  8556 net.cpp:157] Top shape: 2 512 19 19 (369664)
I1014 20:25:29.316840  8556 net.cpp:165] Memory required for data: 241832992
I1014 20:25:29.316844  8556 layer_factory.hpp:77] Creating layer conv7/dw/bn
I1014 20:25:29.316848  8556 net.cpp:100] Creating Layer conv7/dw/bn
I1014 20:25:29.316851  8556 net.cpp:434] conv7/dw/bn <- conv7/dw
I1014 20:25:29.316854  8556 net.cpp:395] conv7/dw/bn -> conv7/dw (in-place)
I1014 20:25:29.316980  8556 net.cpp:150] Setting up conv7/dw/bn
I1014 20:25:29.316985  8556 net.cpp:157] Top shape: 2 512 19 19 (369664)
I1014 20:25:29.316988  8556 net.cpp:165] Memory required for data: 243311648
I1014 20:25:29.316992  8556 layer_factory.hpp:77] Creating layer conv7/dw/scale
I1014 20:25:29.316998  8556 net.cpp:100] Creating Layer conv7/dw/scale
I1014 20:25:29.316999  8556 net.cpp:434] conv7/dw/scale <- conv7/dw
I1014 20:25:29.317004  8556 net.cpp:395] conv7/dw/scale -> conv7/dw (in-place)
I1014 20:25:29.317025  8556 layer_factory.hpp:77] Creating layer conv7/dw/scale
I1014 20:25:29.317124  8556 net.cpp:150] Setting up conv7/dw/scale
I1014 20:25:29.317129  8556 net.cpp:157] Top shape: 2 512 19 19 (369664)
I1014 20:25:29.317132  8556 net.cpp:165] Memory required for data: 244790304
I1014 20:25:29.317137  8556 layer_factory.hpp:77] Creating layer conv7/dw/relu
I1014 20:25:29.317142  8556 net.cpp:100] Creating Layer conv7/dw/relu
I1014 20:25:29.317145  8556 net.cpp:434] conv7/dw/relu <- conv7/dw
I1014 20:25:29.317162  8556 net.cpp:395] conv7/dw/relu -> conv7/dw (in-place)
I1014 20:25:29.317596  8556 net.cpp:150] Setting up conv7/dw/relu
I1014 20:25:29.317605  8556 net.cpp:157] Top shape: 2 512 19 19 (369664)
I1014 20:25:29.317610  8556 net.cpp:165] Memory required for data: 246268960
I1014 20:25:29.317611  8556 layer_factory.hpp:77] Creating layer conv7
I1014 20:25:29.317620  8556 net.cpp:100] Creating Layer conv7
I1014 20:25:29.317625  8556 net.cpp:434] conv7 <- conv7/dw
I1014 20:25:29.317629  8556 net.cpp:408] conv7 -> conv7
I1014 20:25:29.320827  8556 net.cpp:150] Setting up conv7
I1014 20:25:29.320842  8556 net.cpp:157] Top shape: 2 512 19 19 (369664)
I1014 20:25:29.320847  8556 net.cpp:165] Memory required for data: 247747616
I1014 20:25:29.320852  8556 layer_factory.hpp:77] Creating layer conv7/bn
I1014 20:25:29.320858  8556 net.cpp:100] Creating Layer conv7/bn
I1014 20:25:29.320861  8556 net.cpp:434] conv7/bn <- conv7
I1014 20:25:29.320865  8556 net.cpp:395] conv7/bn -> conv7 (in-place)
I1014 20:25:29.321064  8556 net.cpp:150] Setting up conv7/bn
I1014 20:25:29.321069  8556 net.cpp:157] Top shape: 2 512 19 19 (369664)
I1014 20:25:29.321074  8556 net.cpp:165] Memory required for data: 249226272
I1014 20:25:29.321079  8556 layer_factory.hpp:77] Creating layer conv7/scale
I1014 20:25:29.321086  8556 net.cpp:100] Creating Layer conv7/scale
I1014 20:25:29.321089  8556 net.cpp:434] conv7/scale <- conv7
I1014 20:25:29.321094  8556 net.cpp:395] conv7/scale -> conv7 (in-place)
I1014 20:25:29.321120  8556 layer_factory.hpp:77] Creating layer conv7/scale
I1014 20:25:29.321192  8556 net.cpp:150] Setting up conv7/scale
I1014 20:25:29.321197  8556 net.cpp:157] Top shape: 2 512 19 19 (369664)
I1014 20:25:29.321202  8556 net.cpp:165] Memory required for data: 250704928
I1014 20:25:29.321205  8556 layer_factory.hpp:77] Creating layer conv7/relu
I1014 20:25:29.321209  8556 net.cpp:100] Creating Layer conv7/relu
I1014 20:25:29.321213  8556 net.cpp:434] conv7/relu <- conv7
I1014 20:25:29.321215  8556 net.cpp:395] conv7/relu -> conv7 (in-place)
I1014 20:25:29.321856  8556 net.cpp:150] Setting up conv7/relu
I1014 20:25:29.321866  8556 net.cpp:157] Top shape: 2 512 19 19 (369664)
I1014 20:25:29.321871  8556 net.cpp:165] Memory required for data: 252183584
I1014 20:25:29.321875  8556 layer_factory.hpp:77] Creating layer conv8/dw
I1014 20:25:29.321884  8556 net.cpp:100] Creating Layer conv8/dw
I1014 20:25:29.321889  8556 net.cpp:434] conv8/dw <- conv7
I1014 20:25:29.321895  8556 net.cpp:408] conv8/dw -> conv8/dw
I1014 20:25:29.322055  8556 net.cpp:150] Setting up conv8/dw
I1014 20:25:29.322062  8556 net.cpp:157] Top shape: 2 512 19 19 (369664)
I1014 20:25:29.322065  8556 net.cpp:165] Memory required for data: 253662240
I1014 20:25:29.322069  8556 layer_factory.hpp:77] Creating layer conv8/dw/bn
I1014 20:25:29.322073  8556 net.cpp:100] Creating Layer conv8/dw/bn
I1014 20:25:29.322077  8556 net.cpp:434] conv8/dw/bn <- conv8/dw
I1014 20:25:29.322080  8556 net.cpp:395] conv8/dw/bn -> conv8/dw (in-place)
I1014 20:25:29.322196  8556 net.cpp:150] Setting up conv8/dw/bn
I1014 20:25:29.322201  8556 net.cpp:157] Top shape: 2 512 19 19 (369664)
I1014 20:25:29.322204  8556 net.cpp:165] Memory required for data: 255140896
I1014 20:25:29.322209  8556 layer_factory.hpp:77] Creating layer conv8/dw/scale
I1014 20:25:29.322217  8556 net.cpp:100] Creating Layer conv8/dw/scale
I1014 20:25:29.322221  8556 net.cpp:434] conv8/dw/scale <- conv8/dw
I1014 20:25:29.322226  8556 net.cpp:395] conv8/dw/scale -> conv8/dw (in-place)
I1014 20:25:29.322249  8556 layer_factory.hpp:77] Creating layer conv8/dw/scale
I1014 20:25:29.322321  8556 net.cpp:150] Setting up conv8/dw/scale
I1014 20:25:29.322326  8556 net.cpp:157] Top shape: 2 512 19 19 (369664)
I1014 20:25:29.322330  8556 net.cpp:165] Memory required for data: 256619552
I1014 20:25:29.322335  8556 layer_factory.hpp:77] Creating layer conv8/dw/relu
I1014 20:25:29.322341  8556 net.cpp:100] Creating Layer conv8/dw/relu
I1014 20:25:29.322345  8556 net.cpp:434] conv8/dw/relu <- conv8/dw
I1014 20:25:29.322350  8556 net.cpp:395] conv8/dw/relu -> conv8/dw (in-place)
I1014 20:25:29.322679  8556 net.cpp:150] Setting up conv8/dw/relu
I1014 20:25:29.322685  8556 net.cpp:157] Top shape: 2 512 19 19 (369664)
I1014 20:25:29.322690  8556 net.cpp:165] Memory required for data: 258098208
I1014 20:25:29.322692  8556 layer_factory.hpp:77] Creating layer conv8
I1014 20:25:29.322700  8556 net.cpp:100] Creating Layer conv8
I1014 20:25:29.322705  8556 net.cpp:434] conv8 <- conv8/dw
I1014 20:25:29.322710  8556 net.cpp:408] conv8 -> conv8
I1014 20:25:29.327184  8556 net.cpp:150] Setting up conv8
I1014 20:25:29.327199  8556 net.cpp:157] Top shape: 2 512 19 19 (369664)
I1014 20:25:29.327204  8556 net.cpp:165] Memory required for data: 259576864
I1014 20:25:29.327210  8556 layer_factory.hpp:77] Creating layer conv8/bn
I1014 20:25:29.327219  8556 net.cpp:100] Creating Layer conv8/bn
I1014 20:25:29.327221  8556 net.cpp:434] conv8/bn <- conv8
I1014 20:25:29.327226  8556 net.cpp:395] conv8/bn -> conv8 (in-place)
I1014 20:25:29.327353  8556 net.cpp:150] Setting up conv8/bn
I1014 20:25:29.327358  8556 net.cpp:157] Top shape: 2 512 19 19 (369664)
I1014 20:25:29.327361  8556 net.cpp:165] Memory required for data: 261055520
I1014 20:25:29.327366  8556 layer_factory.hpp:77] Creating layer conv8/scale
I1014 20:25:29.327394  8556 net.cpp:100] Creating Layer conv8/scale
I1014 20:25:29.327399  8556 net.cpp:434] conv8/scale <- conv8
I1014 20:25:29.327404  8556 net.cpp:395] conv8/scale -> conv8 (in-place)
I1014 20:25:29.327461  8556 layer_factory.hpp:77] Creating layer conv8/scale
I1014 20:25:29.327570  8556 net.cpp:150] Setting up conv8/scale
I1014 20:25:29.327574  8556 net.cpp:157] Top shape: 2 512 19 19 (369664)
I1014 20:25:29.327579  8556 net.cpp:165] Memory required for data: 262534176
I1014 20:25:29.327582  8556 layer_factory.hpp:77] Creating layer conv8/relu
I1014 20:25:29.327587  8556 net.cpp:100] Creating Layer conv8/relu
I1014 20:25:29.327590  8556 net.cpp:434] conv8/relu <- conv8
I1014 20:25:29.327594  8556 net.cpp:395] conv8/relu -> conv8 (in-place)
I1014 20:25:29.328020  8556 net.cpp:150] Setting up conv8/relu
I1014 20:25:29.328027  8556 net.cpp:157] Top shape: 2 512 19 19 (369664)
I1014 20:25:29.328032  8556 net.cpp:165] Memory required for data: 264012832
I1014 20:25:29.328035  8556 layer_factory.hpp:77] Creating layer conv9/dw
I1014 20:25:29.328043  8556 net.cpp:100] Creating Layer conv9/dw
I1014 20:25:29.328047  8556 net.cpp:434] conv9/dw <- conv8
I1014 20:25:29.328052  8556 net.cpp:408] conv9/dw -> conv9/dw
I1014 20:25:29.328202  8556 net.cpp:150] Setting up conv9/dw
I1014 20:25:29.328208  8556 net.cpp:157] Top shape: 2 512 19 19 (369664)
I1014 20:25:29.328212  8556 net.cpp:165] Memory required for data: 265491488
I1014 20:25:29.328215  8556 layer_factory.hpp:77] Creating layer conv9/dw/bn
I1014 20:25:29.328219  8556 net.cpp:100] Creating Layer conv9/dw/bn
I1014 20:25:29.328222  8556 net.cpp:434] conv9/dw/bn <- conv9/dw
I1014 20:25:29.328227  8556 net.cpp:395] conv9/dw/bn -> conv9/dw (in-place)
I1014 20:25:29.328343  8556 net.cpp:150] Setting up conv9/dw/bn
I1014 20:25:29.328348  8556 net.cpp:157] Top shape: 2 512 19 19 (369664)
I1014 20:25:29.328351  8556 net.cpp:165] Memory required for data: 266970144
I1014 20:25:29.328356  8556 layer_factory.hpp:77] Creating layer conv9/dw/scale
I1014 20:25:29.328361  8556 net.cpp:100] Creating Layer conv9/dw/scale
I1014 20:25:29.328364  8556 net.cpp:434] conv9/dw/scale <- conv9/dw
I1014 20:25:29.328368  8556 net.cpp:395] conv9/dw/scale -> conv9/dw (in-place)
I1014 20:25:29.328392  8556 layer_factory.hpp:77] Creating layer conv9/dw/scale
I1014 20:25:29.328459  8556 net.cpp:150] Setting up conv9/dw/scale
I1014 20:25:29.328464  8556 net.cpp:157] Top shape: 2 512 19 19 (369664)
I1014 20:25:29.328467  8556 net.cpp:165] Memory required for data: 268448800
I1014 20:25:29.328471  8556 layer_factory.hpp:77] Creating layer conv9/dw/relu
I1014 20:25:29.328475  8556 net.cpp:100] Creating Layer conv9/dw/relu
I1014 20:25:29.328478  8556 net.cpp:434] conv9/dw/relu <- conv9/dw
I1014 20:25:29.328481  8556 net.cpp:395] conv9/dw/relu -> conv9/dw (in-place)
I1014 20:25:29.328804  8556 net.cpp:150] Setting up conv9/dw/relu
I1014 20:25:29.328811  8556 net.cpp:157] Top shape: 2 512 19 19 (369664)
I1014 20:25:29.328815  8556 net.cpp:165] Memory required for data: 269927456
I1014 20:25:29.328819  8556 layer_factory.hpp:77] Creating layer conv9
I1014 20:25:29.328827  8556 net.cpp:100] Creating Layer conv9
I1014 20:25:29.328830  8556 net.cpp:434] conv9 <- conv9/dw
I1014 20:25:29.328835  8556 net.cpp:408] conv9 -> conv9
I1014 20:25:29.331976  8556 net.cpp:150] Setting up conv9
I1014 20:25:29.331986  8556 net.cpp:157] Top shape: 2 512 19 19 (369664)
I1014 20:25:29.331991  8556 net.cpp:165] Memory required for data: 271406112
I1014 20:25:29.331996  8556 layer_factory.hpp:77] Creating layer conv9/bn
I1014 20:25:29.332001  8556 net.cpp:100] Creating Layer conv9/bn
I1014 20:25:29.332005  8556 net.cpp:434] conv9/bn <- conv9
I1014 20:25:29.332008  8556 net.cpp:395] conv9/bn -> conv9 (in-place)
I1014 20:25:29.332147  8556 net.cpp:150] Setting up conv9/bn
I1014 20:25:29.332152  8556 net.cpp:157] Top shape: 2 512 19 19 (369664)
I1014 20:25:29.332156  8556 net.cpp:165] Memory required for data: 272884768
I1014 20:25:29.332160  8556 layer_factory.hpp:77] Creating layer conv9/scale
I1014 20:25:29.332166  8556 net.cpp:100] Creating Layer conv9/scale
I1014 20:25:29.332170  8556 net.cpp:434] conv9/scale <- conv9
I1014 20:25:29.332172  8556 net.cpp:395] conv9/scale -> conv9 (in-place)
I1014 20:25:29.332197  8556 layer_factory.hpp:77] Creating layer conv9/scale
I1014 20:25:29.332294  8556 net.cpp:150] Setting up conv9/scale
I1014 20:25:29.332299  8556 net.cpp:157] Top shape: 2 512 19 19 (369664)
I1014 20:25:29.332303  8556 net.cpp:165] Memory required for data: 274363424
I1014 20:25:29.332306  8556 layer_factory.hpp:77] Creating layer conv9/relu
I1014 20:25:29.332311  8556 net.cpp:100] Creating Layer conv9/relu
I1014 20:25:29.332314  8556 net.cpp:434] conv9/relu <- conv9
I1014 20:25:29.332317  8556 net.cpp:395] conv9/relu -> conv9 (in-place)
I1014 20:25:29.332912  8556 net.cpp:150] Setting up conv9/relu
I1014 20:25:29.332921  8556 net.cpp:157] Top shape: 2 512 19 19 (369664)
I1014 20:25:29.332924  8556 net.cpp:165] Memory required for data: 275842080
I1014 20:25:29.332927  8556 layer_factory.hpp:77] Creating layer conv10/dw
I1014 20:25:29.332937  8556 net.cpp:100] Creating Layer conv10/dw
I1014 20:25:29.332939  8556 net.cpp:434] conv10/dw <- conv9
I1014 20:25:29.332944  8556 net.cpp:408] conv10/dw -> conv10/dw
I1014 20:25:29.333094  8556 net.cpp:150] Setting up conv10/dw
I1014 20:25:29.333101  8556 net.cpp:157] Top shape: 2 512 19 19 (369664)
I1014 20:25:29.333104  8556 net.cpp:165] Memory required for data: 277320736
I1014 20:25:29.333107  8556 layer_factory.hpp:77] Creating layer conv10/dw/bn
I1014 20:25:29.333112  8556 net.cpp:100] Creating Layer conv10/dw/bn
I1014 20:25:29.333114  8556 net.cpp:434] conv10/dw/bn <- conv10/dw
I1014 20:25:29.333118  8556 net.cpp:395] conv10/dw/bn -> conv10/dw (in-place)
I1014 20:25:29.333233  8556 net.cpp:150] Setting up conv10/dw/bn
I1014 20:25:29.333237  8556 net.cpp:157] Top shape: 2 512 19 19 (369664)
I1014 20:25:29.333241  8556 net.cpp:165] Memory required for data: 278799392
I1014 20:25:29.333245  8556 layer_factory.hpp:77] Creating layer conv10/dw/scale
I1014 20:25:29.333251  8556 net.cpp:100] Creating Layer conv10/dw/scale
I1014 20:25:29.333254  8556 net.cpp:434] conv10/dw/scale <- conv10/dw
I1014 20:25:29.333257  8556 net.cpp:395] conv10/dw/scale -> conv10/dw (in-place)
I1014 20:25:29.333282  8556 layer_factory.hpp:77] Creating layer conv10/dw/scale
I1014 20:25:29.333348  8556 net.cpp:150] Setting up conv10/dw/scale
I1014 20:25:29.333353  8556 net.cpp:157] Top shape: 2 512 19 19 (369664)
I1014 20:25:29.333356  8556 net.cpp:165] Memory required for data: 280278048
I1014 20:25:29.333360  8556 layer_factory.hpp:77] Creating layer conv10/dw/relu
I1014 20:25:29.333364  8556 net.cpp:100] Creating Layer conv10/dw/relu
I1014 20:25:29.333366  8556 net.cpp:434] conv10/dw/relu <- conv10/dw
I1014 20:25:29.333371  8556 net.cpp:395] conv10/dw/relu -> conv10/dw (in-place)
I1014 20:25:29.333691  8556 net.cpp:150] Setting up conv10/dw/relu
I1014 20:25:29.333698  8556 net.cpp:157] Top shape: 2 512 19 19 (369664)
I1014 20:25:29.333703  8556 net.cpp:165] Memory required for data: 281756704
I1014 20:25:29.333705  8556 layer_factory.hpp:77] Creating layer conv10
I1014 20:25:29.333714  8556 net.cpp:100] Creating Layer conv10
I1014 20:25:29.333716  8556 net.cpp:434] conv10 <- conv10/dw
I1014 20:25:29.333721  8556 net.cpp:408] conv10 -> conv10
I1014 20:25:29.338564  8556 net.cpp:150] Setting up conv10
I1014 20:25:29.338579  8556 net.cpp:157] Top shape: 2 512 19 19 (369664)
I1014 20:25:29.338587  8556 net.cpp:165] Memory required for data: 283235360
I1014 20:25:29.338593  8556 layer_factory.hpp:77] Creating layer conv10/bn
I1014 20:25:29.338598  8556 net.cpp:100] Creating Layer conv10/bn
I1014 20:25:29.338601  8556 net.cpp:434] conv10/bn <- conv10
I1014 20:25:29.338608  8556 net.cpp:395] conv10/bn -> conv10 (in-place)
I1014 20:25:29.338760  8556 net.cpp:150] Setting up conv10/bn
I1014 20:25:29.338766  8556 net.cpp:157] Top shape: 2 512 19 19 (369664)
I1014 20:25:29.338769  8556 net.cpp:165] Memory required for data: 284714016
I1014 20:25:29.338774  8556 layer_factory.hpp:77] Creating layer conv10/scale
I1014 20:25:29.338780  8556 net.cpp:100] Creating Layer conv10/scale
I1014 20:25:29.338800  8556 net.cpp:434] conv10/scale <- conv10
I1014 20:25:29.338804  8556 net.cpp:395] conv10/scale -> conv10 (in-place)
I1014 20:25:29.338832  8556 layer_factory.hpp:77] Creating layer conv10/scale
I1014 20:25:29.338968  8556 net.cpp:150] Setting up conv10/scale
I1014 20:25:29.338973  8556 net.cpp:157] Top shape: 2 512 19 19 (369664)
I1014 20:25:29.338977  8556 net.cpp:165] Memory required for data: 286192672
I1014 20:25:29.338981  8556 layer_factory.hpp:77] Creating layer conv10/relu
I1014 20:25:29.338985  8556 net.cpp:100] Creating Layer conv10/relu
I1014 20:25:29.338989  8556 net.cpp:434] conv10/relu <- conv10
I1014 20:25:29.338991  8556 net.cpp:395] conv10/relu -> conv10 (in-place)
I1014 20:25:29.339434  8556 net.cpp:150] Setting up conv10/relu
I1014 20:25:29.339443  8556 net.cpp:157] Top shape: 2 512 19 19 (369664)
I1014 20:25:29.339448  8556 net.cpp:165] Memory required for data: 287671328
I1014 20:25:29.339452  8556 layer_factory.hpp:77] Creating layer conv11/dw
I1014 20:25:29.339462  8556 net.cpp:100] Creating Layer conv11/dw
I1014 20:25:29.339465  8556 net.cpp:434] conv11/dw <- conv10
I1014 20:25:29.339470  8556 net.cpp:408] conv11/dw -> conv11/dw
I1014 20:25:29.339624  8556 net.cpp:150] Setting up conv11/dw
I1014 20:25:29.339629  8556 net.cpp:157] Top shape: 2 512 19 19 (369664)
I1014 20:25:29.339633  8556 net.cpp:165] Memory required for data: 289149984
I1014 20:25:29.339637  8556 layer_factory.hpp:77] Creating layer conv11/dw/bn
I1014 20:25:29.339643  8556 net.cpp:100] Creating Layer conv11/dw/bn
I1014 20:25:29.339645  8556 net.cpp:434] conv11/dw/bn <- conv11/dw
I1014 20:25:29.339648  8556 net.cpp:395] conv11/dw/bn -> conv11/dw (in-place)
I1014 20:25:29.339761  8556 net.cpp:150] Setting up conv11/dw/bn
I1014 20:25:29.339766  8556 net.cpp:157] Top shape: 2 512 19 19 (369664)
I1014 20:25:29.339771  8556 net.cpp:165] Memory required for data: 290628640
I1014 20:25:29.339782  8556 layer_factory.hpp:77] Creating layer conv11/dw/scale
I1014 20:25:29.339788  8556 net.cpp:100] Creating Layer conv11/dw/scale
I1014 20:25:29.339792  8556 net.cpp:434] conv11/dw/scale <- conv11/dw
I1014 20:25:29.339797  8556 net.cpp:395] conv11/dw/scale -> conv11/dw (in-place)
I1014 20:25:29.339821  8556 layer_factory.hpp:77] Creating layer conv11/dw/scale
I1014 20:25:29.339887  8556 net.cpp:150] Setting up conv11/dw/scale
I1014 20:25:29.339893  8556 net.cpp:157] Top shape: 2 512 19 19 (369664)
I1014 20:25:29.339897  8556 net.cpp:165] Memory required for data: 292107296
I1014 20:25:29.339901  8556 layer_factory.hpp:77] Creating layer conv11/dw/relu
I1014 20:25:29.339905  8556 net.cpp:100] Creating Layer conv11/dw/relu
I1014 20:25:29.339908  8556 net.cpp:434] conv11/dw/relu <- conv11/dw
I1014 20:25:29.339911  8556 net.cpp:395] conv11/dw/relu -> conv11/dw (in-place)
I1014 20:25:29.340234  8556 net.cpp:150] Setting up conv11/dw/relu
I1014 20:25:29.340240  8556 net.cpp:157] Top shape: 2 512 19 19 (369664)
I1014 20:25:29.340243  8556 net.cpp:165] Memory required for data: 293585952
I1014 20:25:29.340246  8556 layer_factory.hpp:77] Creating layer conv11
I1014 20:25:29.340255  8556 net.cpp:100] Creating Layer conv11
I1014 20:25:29.340258  8556 net.cpp:434] conv11 <- conv11/dw
I1014 20:25:29.340263  8556 net.cpp:408] conv11 -> conv11
I1014 20:25:29.343436  8556 net.cpp:150] Setting up conv11
I1014 20:25:29.343449  8556 net.cpp:157] Top shape: 2 512 19 19 (369664)
I1014 20:25:29.343454  8556 net.cpp:165] Memory required for data: 295064608
I1014 20:25:29.343459  8556 layer_factory.hpp:77] Creating layer conv11/bn
I1014 20:25:29.343466  8556 net.cpp:100] Creating Layer conv11/bn
I1014 20:25:29.343470  8556 net.cpp:434] conv11/bn <- conv11
I1014 20:25:29.343474  8556 net.cpp:395] conv11/bn -> conv11 (in-place)
I1014 20:25:29.343596  8556 net.cpp:150] Setting up conv11/bn
I1014 20:25:29.343601  8556 net.cpp:157] Top shape: 2 512 19 19 (369664)
I1014 20:25:29.343605  8556 net.cpp:165] Memory required for data: 296543264
I1014 20:25:29.343611  8556 layer_factory.hpp:77] Creating layer conv11/scale
I1014 20:25:29.343616  8556 net.cpp:100] Creating Layer conv11/scale
I1014 20:25:29.343619  8556 net.cpp:434] conv11/scale <- conv11
I1014 20:25:29.343624  8556 net.cpp:395] conv11/scale -> conv11 (in-place)
I1014 20:25:29.343652  8556 layer_factory.hpp:77] Creating layer conv11/scale
I1014 20:25:29.343719  8556 net.cpp:150] Setting up conv11/scale
I1014 20:25:29.343724  8556 net.cpp:157] Top shape: 2 512 19 19 (369664)
I1014 20:25:29.343729  8556 net.cpp:165] Memory required for data: 298021920
I1014 20:25:29.343732  8556 layer_factory.hpp:77] Creating layer conv11/relu
I1014 20:25:29.343736  8556 net.cpp:100] Creating Layer conv11/relu
I1014 20:25:29.343739  8556 net.cpp:434] conv11/relu <- conv11
I1014 20:25:29.343742  8556 net.cpp:395] conv11/relu -> conv11 (in-place)
I1014 20:25:29.344054  8556 net.cpp:150] Setting up conv11/relu
I1014 20:25:29.344060  8556 net.cpp:157] Top shape: 2 512 19 19 (369664)
I1014 20:25:29.344065  8556 net.cpp:165] Memory required for data: 299500576
I1014 20:25:29.344069  8556 layer_factory.hpp:77] Creating layer conv11_conv11/relu_0_split
I1014 20:25:29.344074  8556 net.cpp:100] Creating Layer conv11_conv11/relu_0_split
I1014 20:25:29.344079  8556 net.cpp:434] conv11_conv11/relu_0_split <- conv11
I1014 20:25:29.344084  8556 net.cpp:408] conv11_conv11/relu_0_split -> conv11_conv11/relu_0_split_0
I1014 20:25:29.344092  8556 net.cpp:408] conv11_conv11/relu_0_split -> conv11_conv11/relu_0_split_1
I1014 20:25:29.344099  8556 net.cpp:408] conv11_conv11/relu_0_split -> conv11_conv11/relu_0_split_2
I1014 20:25:29.344102  8556 net.cpp:408] conv11_conv11/relu_0_split -> conv11_conv11/relu_0_split_3
I1014 20:25:29.344147  8556 net.cpp:150] Setting up conv11_conv11/relu_0_split
I1014 20:25:29.344152  8556 net.cpp:157] Top shape: 2 512 19 19 (369664)
I1014 20:25:29.344156  8556 net.cpp:157] Top shape: 2 512 19 19 (369664)
I1014 20:25:29.344159  8556 net.cpp:157] Top shape: 2 512 19 19 (369664)
I1014 20:25:29.344162  8556 net.cpp:157] Top shape: 2 512 19 19 (369664)
I1014 20:25:29.344166  8556 net.cpp:165] Memory required for data: 305415200
I1014 20:25:29.344168  8556 layer_factory.hpp:77] Creating layer conv12/dw
I1014 20:25:29.344174  8556 net.cpp:100] Creating Layer conv12/dw
I1014 20:25:29.344178  8556 net.cpp:434] conv12/dw <- conv11_conv11/relu_0_split_0
I1014 20:25:29.344184  8556 net.cpp:408] conv12/dw -> conv12/dw
I1014 20:25:29.344332  8556 net.cpp:150] Setting up conv12/dw
I1014 20:25:29.344337  8556 net.cpp:157] Top shape: 2 512 10 10 (102400)
I1014 20:25:29.344341  8556 net.cpp:165] Memory required for data: 305824800
I1014 20:25:29.344346  8556 layer_factory.hpp:77] Creating layer conv12/dw/bn
I1014 20:25:29.344350  8556 net.cpp:100] Creating Layer conv12/dw/bn
I1014 20:25:29.344353  8556 net.cpp:434] conv12/dw/bn <- conv12/dw
I1014 20:25:29.344370  8556 net.cpp:395] conv12/dw/bn -> conv12/dw (in-place)
I1014 20:25:29.344486  8556 net.cpp:150] Setting up conv12/dw/bn
I1014 20:25:29.344491  8556 net.cpp:157] Top shape: 2 512 10 10 (102400)
I1014 20:25:29.344496  8556 net.cpp:165] Memory required for data: 306234400
I1014 20:25:29.344499  8556 layer_factory.hpp:77] Creating layer conv12/dw/scale
I1014 20:25:29.344504  8556 net.cpp:100] Creating Layer conv12/dw/scale
I1014 20:25:29.344507  8556 net.cpp:434] conv12/dw/scale <- conv12/dw
I1014 20:25:29.344512  8556 net.cpp:395] conv12/dw/scale -> conv12/dw (in-place)
I1014 20:25:29.344537  8556 layer_factory.hpp:77] Creating layer conv12/dw/scale
I1014 20:25:29.344607  8556 net.cpp:150] Setting up conv12/dw/scale
I1014 20:25:29.344612  8556 net.cpp:157] Top shape: 2 512 10 10 (102400)
I1014 20:25:29.344616  8556 net.cpp:165] Memory required for data: 306644000
I1014 20:25:29.344620  8556 layer_factory.hpp:77] Creating layer conv12/dw/relu
I1014 20:25:29.344624  8556 net.cpp:100] Creating Layer conv12/dw/relu
I1014 20:25:29.344626  8556 net.cpp:434] conv12/dw/relu <- conv12/dw
I1014 20:25:29.344630  8556 net.cpp:395] conv12/dw/relu -> conv12/dw (in-place)
I1014 20:25:29.345057  8556 net.cpp:150] Setting up conv12/dw/relu
I1014 20:25:29.345067  8556 net.cpp:157] Top shape: 2 512 10 10 (102400)
I1014 20:25:29.345072  8556 net.cpp:165] Memory required for data: 307053600
I1014 20:25:29.345074  8556 layer_factory.hpp:77] Creating layer conv12
I1014 20:25:29.345083  8556 net.cpp:100] Creating Layer conv12
I1014 20:25:29.345088  8556 net.cpp:434] conv12 <- conv12/dw
I1014 20:25:29.345091  8556 net.cpp:408] conv12 -> conv12
I1014 20:25:29.351400  8556 net.cpp:150] Setting up conv12
I1014 20:25:29.351419  8556 net.cpp:157] Top shape: 2 1024 10 10 (204800)
I1014 20:25:29.351425  8556 net.cpp:165] Memory required for data: 307872800
I1014 20:25:29.351430  8556 layer_factory.hpp:77] Creating layer conv12/bn
I1014 20:25:29.351439  8556 net.cpp:100] Creating Layer conv12/bn
I1014 20:25:29.351444  8556 net.cpp:434] conv12/bn <- conv12
I1014 20:25:29.351449  8556 net.cpp:395] conv12/bn -> conv12 (in-place)
I1014 20:25:29.351574  8556 net.cpp:150] Setting up conv12/bn
I1014 20:25:29.351579  8556 net.cpp:157] Top shape: 2 1024 10 10 (204800)
I1014 20:25:29.351583  8556 net.cpp:165] Memory required for data: 308692000
I1014 20:25:29.351588  8556 layer_factory.hpp:77] Creating layer conv12/scale
I1014 20:25:29.351594  8556 net.cpp:100] Creating Layer conv12/scale
I1014 20:25:29.351598  8556 net.cpp:434] conv12/scale <- conv12
I1014 20:25:29.351601  8556 net.cpp:395] conv12/scale -> conv12 (in-place)
I1014 20:25:29.351630  8556 layer_factory.hpp:77] Creating layer conv12/scale
I1014 20:25:29.351701  8556 net.cpp:150] Setting up conv12/scale
I1014 20:25:29.351706  8556 net.cpp:157] Top shape: 2 1024 10 10 (204800)
I1014 20:25:29.351709  8556 net.cpp:165] Memory required for data: 309511200
I1014 20:25:29.351713  8556 layer_factory.hpp:77] Creating layer conv12/relu
I1014 20:25:29.351720  8556 net.cpp:100] Creating Layer conv12/relu
I1014 20:25:29.351723  8556 net.cpp:434] conv12/relu <- conv12
I1014 20:25:29.351727  8556 net.cpp:395] conv12/relu -> conv12 (in-place)
I1014 20:25:29.352037  8556 net.cpp:150] Setting up conv12/relu
I1014 20:25:29.352044  8556 net.cpp:157] Top shape: 2 1024 10 10 (204800)
I1014 20:25:29.352048  8556 net.cpp:165] Memory required for data: 310330400
I1014 20:25:29.352051  8556 layer_factory.hpp:77] Creating layer conv13/dw
I1014 20:25:29.352059  8556 net.cpp:100] Creating Layer conv13/dw
I1014 20:25:29.352062  8556 net.cpp:434] conv13/dw <- conv12
I1014 20:25:29.352067  8556 net.cpp:408] conv13/dw -> conv13/dw
I1014 20:25:29.352253  8556 net.cpp:150] Setting up conv13/dw
I1014 20:25:29.352259  8556 net.cpp:157] Top shape: 2 1024 10 10 (204800)
I1014 20:25:29.352263  8556 net.cpp:165] Memory required for data: 311149600
I1014 20:25:29.352267  8556 layer_factory.hpp:77] Creating layer conv13/dw/bn
I1014 20:25:29.352272  8556 net.cpp:100] Creating Layer conv13/dw/bn
I1014 20:25:29.352274  8556 net.cpp:434] conv13/dw/bn <- conv13/dw
I1014 20:25:29.352291  8556 net.cpp:395] conv13/dw/bn -> conv13/dw (in-place)
I1014 20:25:29.352406  8556 net.cpp:150] Setting up conv13/dw/bn
I1014 20:25:29.352411  8556 net.cpp:157] Top shape: 2 1024 10 10 (204800)
I1014 20:25:29.352414  8556 net.cpp:165] Memory required for data: 311968800
I1014 20:25:29.352419  8556 layer_factory.hpp:77] Creating layer conv13/dw/scale
I1014 20:25:29.352423  8556 net.cpp:100] Creating Layer conv13/dw/scale
I1014 20:25:29.352427  8556 net.cpp:434] conv13/dw/scale <- conv13/dw
I1014 20:25:29.352432  8556 net.cpp:395] conv13/dw/scale -> conv13/dw (in-place)
I1014 20:25:29.352458  8556 layer_factory.hpp:77] Creating layer conv13/dw/scale
I1014 20:25:29.352522  8556 net.cpp:150] Setting up conv13/dw/scale
I1014 20:25:29.352527  8556 net.cpp:157] Top shape: 2 1024 10 10 (204800)
I1014 20:25:29.352531  8556 net.cpp:165] Memory required for data: 312788000
I1014 20:25:29.352542  8556 layer_factory.hpp:77] Creating layer conv13/dw/relu
I1014 20:25:29.352547  8556 net.cpp:100] Creating Layer conv13/dw/relu
I1014 20:25:29.352550  8556 net.cpp:434] conv13/dw/relu <- conv13/dw
I1014 20:25:29.352553  8556 net.cpp:395] conv13/dw/relu -> conv13/dw (in-place)
I1014 20:25:29.352996  8556 net.cpp:150] Setting up conv13/dw/relu
I1014 20:25:29.353005  8556 net.cpp:157] Top shape: 2 1024 10 10 (204800)
I1014 20:25:29.353009  8556 net.cpp:165] Memory required for data: 313607200
I1014 20:25:29.353013  8556 layer_factory.hpp:77] Creating layer conv13
I1014 20:25:29.353021  8556 net.cpp:100] Creating Layer conv13
I1014 20:25:29.353026  8556 net.cpp:434] conv13 <- conv13/dw
I1014 20:25:29.353032  8556 net.cpp:408] conv13 -> conv13
I1014 20:25:29.362274  8556 net.cpp:150] Setting up conv13
I1014 20:25:29.362293  8556 net.cpp:157] Top shape: 2 1024 10 10 (204800)
I1014 20:25:29.362299  8556 net.cpp:165] Memory required for data: 314426400
I1014 20:25:29.362305  8556 layer_factory.hpp:77] Creating layer conv13/bn
I1014 20:25:29.362313  8556 net.cpp:100] Creating Layer conv13/bn
I1014 20:25:29.362316  8556 net.cpp:434] conv13/bn <- conv13
I1014 20:25:29.362323  8556 net.cpp:395] conv13/bn -> conv13 (in-place)
I1014 20:25:29.362449  8556 net.cpp:150] Setting up conv13/bn
I1014 20:25:29.362455  8556 net.cpp:157] Top shape: 2 1024 10 10 (204800)
I1014 20:25:29.362458  8556 net.cpp:165] Memory required for data: 315245600
I1014 20:25:29.362463  8556 layer_factory.hpp:77] Creating layer conv13/scale
I1014 20:25:29.362469  8556 net.cpp:100] Creating Layer conv13/scale
I1014 20:25:29.362473  8556 net.cpp:434] conv13/scale <- conv13
I1014 20:25:29.362476  8556 net.cpp:395] conv13/scale -> conv13 (in-place)
I1014 20:25:29.362505  8556 layer_factory.hpp:77] Creating layer conv13/scale
I1014 20:25:29.362586  8556 net.cpp:150] Setting up conv13/scale
I1014 20:25:29.362591  8556 net.cpp:157] Top shape: 2 1024 10 10 (204800)
I1014 20:25:29.362594  8556 net.cpp:165] Memory required for data: 316064800
I1014 20:25:29.362598  8556 layer_factory.hpp:77] Creating layer conv13/relu
I1014 20:25:29.362603  8556 net.cpp:100] Creating Layer conv13/relu
I1014 20:25:29.362605  8556 net.cpp:434] conv13/relu <- conv13
I1014 20:25:29.362609  8556 net.cpp:395] conv13/relu -> conv13 (in-place)
I1014 20:25:29.362921  8556 net.cpp:150] Setting up conv13/relu
I1014 20:25:29.362927  8556 net.cpp:157] Top shape: 2 1024 10 10 (204800)
I1014 20:25:29.362932  8556 net.cpp:165] Memory required for data: 316884000
I1014 20:25:29.362936  8556 layer_factory.hpp:77] Creating layer conv13_conv13/relu_0_split
I1014 20:25:29.362941  8556 net.cpp:100] Creating Layer conv13_conv13/relu_0_split
I1014 20:25:29.362944  8556 net.cpp:434] conv13_conv13/relu_0_split <- conv13
I1014 20:25:29.362948  8556 net.cpp:408] conv13_conv13/relu_0_split -> conv13_conv13/relu_0_split_0
I1014 20:25:29.362954  8556 net.cpp:408] conv13_conv13/relu_0_split -> conv13_conv13/relu_0_split_1
I1014 20:25:29.362958  8556 net.cpp:408] conv13_conv13/relu_0_split -> conv13_conv13/relu_0_split_2
I1014 20:25:29.362963  8556 net.cpp:408] conv13_conv13/relu_0_split -> conv13_conv13/relu_0_split_3
I1014 20:25:29.363031  8556 net.cpp:150] Setting up conv13_conv13/relu_0_split
I1014 20:25:29.363036  8556 net.cpp:157] Top shape: 2 1024 10 10 (204800)
I1014 20:25:29.363041  8556 net.cpp:157] Top shape: 2 1024 10 10 (204800)
I1014 20:25:29.363044  8556 net.cpp:157] Top shape: 2 1024 10 10 (204800)
I1014 20:25:29.363047  8556 net.cpp:157] Top shape: 2 1024 10 10 (204800)
I1014 20:25:29.363050  8556 net.cpp:165] Memory required for data: 320160800
I1014 20:25:29.363052  8556 layer_factory.hpp:77] Creating layer conv14_1
I1014 20:25:29.363061  8556 net.cpp:100] Creating Layer conv14_1
I1014 20:25:29.363065  8556 net.cpp:434] conv14_1 <- conv13_conv13/relu_0_split_0
I1014 20:25:29.363068  8556 net.cpp:408] conv14_1 -> conv14_1
I1014 20:25:29.367602  8556 net.cpp:150] Setting up conv14_1
I1014 20:25:29.367617  8556 net.cpp:157] Top shape: 2 256 10 10 (51200)
I1014 20:25:29.367622  8556 net.cpp:165] Memory required for data: 320365600
I1014 20:25:29.367628  8556 layer_factory.hpp:77] Creating layer conv14_1/bn
I1014 20:25:29.367636  8556 net.cpp:100] Creating Layer conv14_1/bn
I1014 20:25:29.367640  8556 net.cpp:434] conv14_1/bn <- conv14_1
I1014 20:25:29.367645  8556 net.cpp:395] conv14_1/bn -> conv14_1 (in-place)
I1014 20:25:29.367772  8556 net.cpp:150] Setting up conv14_1/bn
I1014 20:25:29.367777  8556 net.cpp:157] Top shape: 2 256 10 10 (51200)
I1014 20:25:29.367781  8556 net.cpp:165] Memory required for data: 320570400
I1014 20:25:29.367786  8556 layer_factory.hpp:77] Creating layer conv14_1/scale
I1014 20:25:29.367794  8556 net.cpp:100] Creating Layer conv14_1/scale
I1014 20:25:29.367797  8556 net.cpp:434] conv14_1/scale <- conv14_1
I1014 20:25:29.367801  8556 net.cpp:395] conv14_1/scale -> conv14_1 (in-place)
I1014 20:25:29.367830  8556 layer_factory.hpp:77] Creating layer conv14_1/scale
I1014 20:25:29.367902  8556 net.cpp:150] Setting up conv14_1/scale
I1014 20:25:29.367907  8556 net.cpp:157] Top shape: 2 256 10 10 (51200)
I1014 20:25:29.367910  8556 net.cpp:165] Memory required for data: 320775200
I1014 20:25:29.367914  8556 layer_factory.hpp:77] Creating layer conv14_1/relu
I1014 20:25:29.367920  8556 net.cpp:100] Creating Layer conv14_1/relu
I1014 20:25:29.367923  8556 net.cpp:434] conv14_1/relu <- conv14_1
I1014 20:25:29.367926  8556 net.cpp:395] conv14_1/relu -> conv14_1 (in-place)
I1014 20:25:29.368352  8556 net.cpp:150] Setting up conv14_1/relu
I1014 20:25:29.368360  8556 net.cpp:157] Top shape: 2 256 10 10 (51200)
I1014 20:25:29.368364  8556 net.cpp:165] Memory required for data: 320980000
I1014 20:25:29.368367  8556 layer_factory.hpp:77] Creating layer conv14_2
I1014 20:25:29.368377  8556 net.cpp:100] Creating Layer conv14_2
I1014 20:25:29.368382  8556 net.cpp:434] conv14_2 <- conv14_1
I1014 20:25:29.368386  8556 net.cpp:408] conv14_2 -> conv14_2
I1014 20:25:29.378675  8556 net.cpp:150] Setting up conv14_2
I1014 20:25:29.378695  8556 net.cpp:157] Top shape: 2 512 5 5 (25600)
I1014 20:25:29.378701  8556 net.cpp:165] Memory required for data: 321082400
I1014 20:25:29.378707  8556 layer_factory.hpp:77] Creating layer conv14_2/bn
I1014 20:25:29.378716  8556 net.cpp:100] Creating Layer conv14_2/bn
I1014 20:25:29.378720  8556 net.cpp:434] conv14_2/bn <- conv14_2
I1014 20:25:29.378726  8556 net.cpp:395] conv14_2/bn -> conv14_2 (in-place)
I1014 20:25:29.378861  8556 net.cpp:150] Setting up conv14_2/bn
I1014 20:25:29.378867  8556 net.cpp:157] Top shape: 2 512 5 5 (25600)
I1014 20:25:29.378871  8556 net.cpp:165] Memory required for data: 321184800
I1014 20:25:29.378875  8556 layer_factory.hpp:77] Creating layer conv14_2/scale
I1014 20:25:29.378882  8556 net.cpp:100] Creating Layer conv14_2/scale
I1014 20:25:29.378885  8556 net.cpp:434] conv14_2/scale <- conv14_2
I1014 20:25:29.378888  8556 net.cpp:395] conv14_2/scale -> conv14_2 (in-place)
I1014 20:25:29.378918  8556 layer_factory.hpp:77] Creating layer conv14_2/scale
I1014 20:25:29.378990  8556 net.cpp:150] Setting up conv14_2/scale
I1014 20:25:29.378995  8556 net.cpp:157] Top shape: 2 512 5 5 (25600)
I1014 20:25:29.378999  8556 net.cpp:165] Memory required for data: 321287200
I1014 20:25:29.379019  8556 layer_factory.hpp:77] Creating layer conv14_2/relu
I1014 20:25:29.379024  8556 net.cpp:100] Creating Layer conv14_2/relu
I1014 20:25:29.379026  8556 net.cpp:434] conv14_2/relu <- conv14_2
I1014 20:25:29.379031  8556 net.cpp:395] conv14_2/relu -> conv14_2 (in-place)
I1014 20:25:29.379480  8556 net.cpp:150] Setting up conv14_2/relu
I1014 20:25:29.379487  8556 net.cpp:157] Top shape: 2 512 5 5 (25600)
I1014 20:25:29.379492  8556 net.cpp:165] Memory required for data: 321389600
I1014 20:25:29.379495  8556 layer_factory.hpp:77] Creating layer conv14_2_conv14_2/relu_0_split
I1014 20:25:29.379504  8556 net.cpp:100] Creating Layer conv14_2_conv14_2/relu_0_split
I1014 20:25:29.379508  8556 net.cpp:434] conv14_2_conv14_2/relu_0_split <- conv14_2
I1014 20:25:29.379513  8556 net.cpp:408] conv14_2_conv14_2/relu_0_split -> conv14_2_conv14_2/relu_0_split_0
I1014 20:25:29.379519  8556 net.cpp:408] conv14_2_conv14_2/relu_0_split -> conv14_2_conv14_2/relu_0_split_1
I1014 20:25:29.379523  8556 net.cpp:408] conv14_2_conv14_2/relu_0_split -> conv14_2_conv14_2/relu_0_split_2
I1014 20:25:29.379528  8556 net.cpp:408] conv14_2_conv14_2/relu_0_split -> conv14_2_conv14_2/relu_0_split_3
I1014 20:25:29.379573  8556 net.cpp:150] Setting up conv14_2_conv14_2/relu_0_split
I1014 20:25:29.379578  8556 net.cpp:157] Top shape: 2 512 5 5 (25600)
I1014 20:25:29.379582  8556 net.cpp:157] Top shape: 2 512 5 5 (25600)
I1014 20:25:29.379585  8556 net.cpp:157] Top shape: 2 512 5 5 (25600)
I1014 20:25:29.379590  8556 net.cpp:157] Top shape: 2 512 5 5 (25600)
I1014 20:25:29.379592  8556 net.cpp:165] Memory required for data: 321799200
I1014 20:25:29.379595  8556 layer_factory.hpp:77] Creating layer conv15_1
I1014 20:25:29.379601  8556 net.cpp:100] Creating Layer conv15_1
I1014 20:25:29.379604  8556 net.cpp:434] conv15_1 <- conv14_2_conv14_2/relu_0_split_0
I1014 20:25:29.379608  8556 net.cpp:408] conv15_1 -> conv15_1
I1014 20:25:29.381345  8556 net.cpp:150] Setting up conv15_1
I1014 20:25:29.381356  8556 net.cpp:157] Top shape: 2 128 5 5 (6400)
I1014 20:25:29.381361  8556 net.cpp:165] Memory required for data: 321824800
I1014 20:25:29.381366  8556 layer_factory.hpp:77] Creating layer conv15_1/bn
I1014 20:25:29.381371  8556 net.cpp:100] Creating Layer conv15_1/bn
I1014 20:25:29.381376  8556 net.cpp:434] conv15_1/bn <- conv15_1
I1014 20:25:29.381379  8556 net.cpp:395] conv15_1/bn -> conv15_1 (in-place)
I1014 20:25:29.381512  8556 net.cpp:150] Setting up conv15_1/bn
I1014 20:25:29.381517  8556 net.cpp:157] Top shape: 2 128 5 5 (6400)
I1014 20:25:29.381521  8556 net.cpp:165] Memory required for data: 321850400
I1014 20:25:29.381525  8556 layer_factory.hpp:77] Creating layer conv15_1/scale
I1014 20:25:29.381532  8556 net.cpp:100] Creating Layer conv15_1/scale
I1014 20:25:29.381536  8556 net.cpp:434] conv15_1/scale <- conv15_1
I1014 20:25:29.381539  8556 net.cpp:395] conv15_1/scale -> conv15_1 (in-place)
I1014 20:25:29.381567  8556 layer_factory.hpp:77] Creating layer conv15_1/scale
I1014 20:25:29.381639  8556 net.cpp:150] Setting up conv15_1/scale
I1014 20:25:29.381644  8556 net.cpp:157] Top shape: 2 128 5 5 (6400)
I1014 20:25:29.381649  8556 net.cpp:165] Memory required for data: 321876000
I1014 20:25:29.381652  8556 layer_factory.hpp:77] Creating layer conv15_1/relu
I1014 20:25:29.381656  8556 net.cpp:100] Creating Layer conv15_1/relu
I1014 20:25:29.381659  8556 net.cpp:434] conv15_1/relu <- conv15_1
I1014 20:25:29.381664  8556 net.cpp:395] conv15_1/relu -> conv15_1 (in-place)
I1014 20:25:29.383011  8556 net.cpp:150] Setting up conv15_1/relu
I1014 20:25:29.383023  8556 net.cpp:157] Top shape: 2 128 5 5 (6400)
I1014 20:25:29.383028  8556 net.cpp:165] Memory required for data: 321901600
I1014 20:25:29.383031  8556 layer_factory.hpp:77] Creating layer conv15_2
I1014 20:25:29.383042  8556 net.cpp:100] Creating Layer conv15_2
I1014 20:25:29.383046  8556 net.cpp:434] conv15_2 <- conv15_1
I1014 20:25:29.383052  8556 net.cpp:408] conv15_2 -> conv15_2
I1014 20:25:29.386808  8556 net.cpp:150] Setting up conv15_2
I1014 20:25:29.386837  8556 net.cpp:157] Top shape: 2 256 3 3 (4608)
I1014 20:25:29.386842  8556 net.cpp:165] Memory required for data: 321920032
I1014 20:25:29.386848  8556 layer_factory.hpp:77] Creating layer conv15_2/bn
I1014 20:25:29.386855  8556 net.cpp:100] Creating Layer conv15_2/bn
I1014 20:25:29.386859  8556 net.cpp:434] conv15_2/bn <- conv15_2
I1014 20:25:29.386865  8556 net.cpp:395] conv15_2/bn -> conv15_2 (in-place)
I1014 20:25:29.386994  8556 net.cpp:150] Setting up conv15_2/bn
I1014 20:25:29.387001  8556 net.cpp:157] Top shape: 2 256 3 3 (4608)
I1014 20:25:29.387004  8556 net.cpp:165] Memory required for data: 321938464
I1014 20:25:29.387009  8556 layer_factory.hpp:77] Creating layer conv15_2/scale
I1014 20:25:29.387014  8556 net.cpp:100] Creating Layer conv15_2/scale
I1014 20:25:29.387017  8556 net.cpp:434] conv15_2/scale <- conv15_2
I1014 20:25:29.387020  8556 net.cpp:395] conv15_2/scale -> conv15_2 (in-place)
I1014 20:25:29.387049  8556 layer_factory.hpp:77] Creating layer conv15_2/scale
I1014 20:25:29.387122  8556 net.cpp:150] Setting up conv15_2/scale
I1014 20:25:29.387127  8556 net.cpp:157] Top shape: 2 256 3 3 (4608)
I1014 20:25:29.387131  8556 net.cpp:165] Memory required for data: 321956896
I1014 20:25:29.387135  8556 layer_factory.hpp:77] Creating layer conv15_2/relu
I1014 20:25:29.387145  8556 net.cpp:100] Creating Layer conv15_2/relu
I1014 20:25:29.387157  8556 net.cpp:434] conv15_2/relu <- conv15_2
I1014 20:25:29.387161  8556 net.cpp:395] conv15_2/relu -> conv15_2 (in-place)
I1014 20:25:29.387612  8556 net.cpp:150] Setting up conv15_2/relu
I1014 20:25:29.387620  8556 net.cpp:157] Top shape: 2 256 3 3 (4608)
I1014 20:25:29.387625  8556 net.cpp:165] Memory required for data: 321975328
I1014 20:25:29.387629  8556 layer_factory.hpp:77] Creating layer conv15_2_conv15_2/relu_0_split
I1014 20:25:29.387635  8556 net.cpp:100] Creating Layer conv15_2_conv15_2/relu_0_split
I1014 20:25:29.387639  8556 net.cpp:434] conv15_2_conv15_2/relu_0_split <- conv15_2
I1014 20:25:29.387642  8556 net.cpp:408] conv15_2_conv15_2/relu_0_split -> conv15_2_conv15_2/relu_0_split_0
I1014 20:25:29.387648  8556 net.cpp:408] conv15_2_conv15_2/relu_0_split -> conv15_2_conv15_2/relu_0_split_1
I1014 20:25:29.387655  8556 net.cpp:408] conv15_2_conv15_2/relu_0_split -> conv15_2_conv15_2/relu_0_split_2
I1014 20:25:29.387660  8556 net.cpp:408] conv15_2_conv15_2/relu_0_split -> conv15_2_conv15_2/relu_0_split_3
I1014 20:25:29.387706  8556 net.cpp:150] Setting up conv15_2_conv15_2/relu_0_split
I1014 20:25:29.387712  8556 net.cpp:157] Top shape: 2 256 3 3 (4608)
I1014 20:25:29.387714  8556 net.cpp:157] Top shape: 2 256 3 3 (4608)
I1014 20:25:29.387718  8556 net.cpp:157] Top shape: 2 256 3 3 (4608)
I1014 20:25:29.387722  8556 net.cpp:157] Top shape: 2 256 3 3 (4608)
I1014 20:25:29.387723  8556 net.cpp:165] Memory required for data: 322049056
I1014 20:25:29.387727  8556 layer_factory.hpp:77] Creating layer conv16_1
I1014 20:25:29.387734  8556 net.cpp:100] Creating Layer conv16_1
I1014 20:25:29.387737  8556 net.cpp:434] conv16_1 <- conv15_2_conv15_2/relu_0_split_0
I1014 20:25:29.387742  8556 net.cpp:408] conv16_1 -> conv16_1
I1014 20:25:29.389338  8556 net.cpp:150] Setting up conv16_1
I1014 20:25:29.389350  8556 net.cpp:157] Top shape: 2 128 3 3 (2304)
I1014 20:25:29.389355  8556 net.cpp:165] Memory required for data: 322058272
I1014 20:25:29.389359  8556 layer_factory.hpp:77] Creating layer conv16_1/bn
I1014 20:25:29.389364  8556 net.cpp:100] Creating Layer conv16_1/bn
I1014 20:25:29.389367  8556 net.cpp:434] conv16_1/bn <- conv16_1
I1014 20:25:29.389370  8556 net.cpp:395] conv16_1/bn -> conv16_1 (in-place)
I1014 20:25:29.389497  8556 net.cpp:150] Setting up conv16_1/bn
I1014 20:25:29.389503  8556 net.cpp:157] Top shape: 2 128 3 3 (2304)
I1014 20:25:29.389506  8556 net.cpp:165] Memory required for data: 322067488
I1014 20:25:29.389510  8556 layer_factory.hpp:77] Creating layer conv16_1/scale
I1014 20:25:29.389518  8556 net.cpp:100] Creating Layer conv16_1/scale
I1014 20:25:29.389520  8556 net.cpp:434] conv16_1/scale <- conv16_1
I1014 20:25:29.389534  8556 net.cpp:395] conv16_1/scale -> conv16_1 (in-place)
I1014 20:25:29.389562  8556 layer_factory.hpp:77] Creating layer conv16_1/scale
I1014 20:25:29.389632  8556 net.cpp:150] Setting up conv16_1/scale
I1014 20:25:29.389637  8556 net.cpp:157] Top shape: 2 128 3 3 (2304)
I1014 20:25:29.389642  8556 net.cpp:165] Memory required for data: 322076704
I1014 20:25:29.389645  8556 layer_factory.hpp:77] Creating layer conv16_1/relu
I1014 20:25:29.389650  8556 net.cpp:100] Creating Layer conv16_1/relu
I1014 20:25:29.389653  8556 net.cpp:434] conv16_1/relu <- conv16_1
I1014 20:25:29.389657  8556 net.cpp:395] conv16_1/relu -> conv16_1 (in-place)
I1014 20:25:29.389966  8556 net.cpp:150] Setting up conv16_1/relu
I1014 20:25:29.389972  8556 net.cpp:157] Top shape: 2 128 3 3 (2304)
I1014 20:25:29.389976  8556 net.cpp:165] Memory required for data: 322085920
I1014 20:25:29.389979  8556 layer_factory.hpp:77] Creating layer conv16_2
I1014 20:25:29.389987  8556 net.cpp:100] Creating Layer conv16_2
I1014 20:25:29.389991  8556 net.cpp:434] conv16_2 <- conv16_1
I1014 20:25:29.389994  8556 net.cpp:408] conv16_2 -> conv16_2
I1014 20:25:29.394804  8556 net.cpp:150] Setting up conv16_2
I1014 20:25:29.394822  8556 net.cpp:157] Top shape: 2 256 2 2 (2048)
I1014 20:25:29.394829  8556 net.cpp:165] Memory required for data: 322094112
I1014 20:25:29.394834  8556 layer_factory.hpp:77] Creating layer conv16_2/bn
I1014 20:25:29.394843  8556 net.cpp:100] Creating Layer conv16_2/bn
I1014 20:25:29.394847  8556 net.cpp:434] conv16_2/bn <- conv16_2
I1014 20:25:29.394852  8556 net.cpp:395] conv16_2/bn -> conv16_2 (in-place)
I1014 20:25:29.394979  8556 net.cpp:150] Setting up conv16_2/bn
I1014 20:25:29.394984  8556 net.cpp:157] Top shape: 2 256 2 2 (2048)
I1014 20:25:29.394987  8556 net.cpp:165] Memory required for data: 322102304
I1014 20:25:29.394992  8556 layer_factory.hpp:77] Creating layer conv16_2/scale
I1014 20:25:29.394999  8556 net.cpp:100] Creating Layer conv16_2/scale
I1014 20:25:29.395002  8556 net.cpp:434] conv16_2/scale <- conv16_2
I1014 20:25:29.395006  8556 net.cpp:395] conv16_2/scale -> conv16_2 (in-place)
I1014 20:25:29.395036  8556 layer_factory.hpp:77] Creating layer conv16_2/scale
I1014 20:25:29.395105  8556 net.cpp:150] Setting up conv16_2/scale
I1014 20:25:29.395110  8556 net.cpp:157] Top shape: 2 256 2 2 (2048)
I1014 20:25:29.395114  8556 net.cpp:165] Memory required for data: 322110496
I1014 20:25:29.395118  8556 layer_factory.hpp:77] Creating layer conv16_2/relu
I1014 20:25:29.395124  8556 net.cpp:100] Creating Layer conv16_2/relu
I1014 20:25:29.395128  8556 net.cpp:434] conv16_2/relu <- conv16_2
I1014 20:25:29.395130  8556 net.cpp:395] conv16_2/relu -> conv16_2 (in-place)
I1014 20:25:29.395452  8556 net.cpp:150] Setting up conv16_2/relu
I1014 20:25:29.395459  8556 net.cpp:157] Top shape: 2 256 2 2 (2048)
I1014 20:25:29.395463  8556 net.cpp:165] Memory required for data: 322118688
I1014 20:25:29.395467  8556 layer_factory.hpp:77] Creating layer conv16_2_conv16_2/relu_0_split
I1014 20:25:29.395474  8556 net.cpp:100] Creating Layer conv16_2_conv16_2/relu_0_split
I1014 20:25:29.395478  8556 net.cpp:434] conv16_2_conv16_2/relu_0_split <- conv16_2
I1014 20:25:29.395481  8556 net.cpp:408] conv16_2_conv16_2/relu_0_split -> conv16_2_conv16_2/relu_0_split_0
I1014 20:25:29.395488  8556 net.cpp:408] conv16_2_conv16_2/relu_0_split -> conv16_2_conv16_2/relu_0_split_1
I1014 20:25:29.395493  8556 net.cpp:408] conv16_2_conv16_2/relu_0_split -> conv16_2_conv16_2/relu_0_split_2
I1014 20:25:29.395496  8556 net.cpp:408] conv16_2_conv16_2/relu_0_split -> conv16_2_conv16_2/relu_0_split_3
I1014 20:25:29.395541  8556 net.cpp:150] Setting up conv16_2_conv16_2/relu_0_split
I1014 20:25:29.395547  8556 net.cpp:157] Top shape: 2 256 2 2 (2048)
I1014 20:25:29.395551  8556 net.cpp:157] Top shape: 2 256 2 2 (2048)
I1014 20:25:29.395555  8556 net.cpp:157] Top shape: 2 256 2 2 (2048)
I1014 20:25:29.395557  8556 net.cpp:157] Top shape: 2 256 2 2 (2048)
I1014 20:25:29.395560  8556 net.cpp:165] Memory required for data: 322151456
I1014 20:25:29.395579  8556 layer_factory.hpp:77] Creating layer conv17_1
I1014 20:25:29.395588  8556 net.cpp:100] Creating Layer conv17_1
I1014 20:25:29.395591  8556 net.cpp:434] conv17_1 <- conv16_2_conv16_2/relu_0_split_0
I1014 20:25:29.395596  8556 net.cpp:408] conv17_1 -> conv17_1
I1014 20:25:29.397220  8556 net.cpp:150] Setting up conv17_1
I1014 20:25:29.397228  8556 net.cpp:157] Top shape: 2 64 2 2 (512)
I1014 20:25:29.397231  8556 net.cpp:165] Memory required for data: 322153504
I1014 20:25:29.397236  8556 layer_factory.hpp:77] Creating layer conv17_1/bn
I1014 20:25:29.397240  8556 net.cpp:100] Creating Layer conv17_1/bn
I1014 20:25:29.397246  8556 net.cpp:434] conv17_1/bn <- conv17_1
I1014 20:25:29.397250  8556 net.cpp:395] conv17_1/bn -> conv17_1 (in-place)
I1014 20:25:29.397382  8556 net.cpp:150] Setting up conv17_1/bn
I1014 20:25:29.397384  8556 net.cpp:157] Top shape: 2 64 2 2 (512)
I1014 20:25:29.397388  8556 net.cpp:165] Memory required for data: 322155552
I1014 20:25:29.397392  8556 layer_factory.hpp:77] Creating layer conv17_1/scale
I1014 20:25:29.397398  8556 net.cpp:100] Creating Layer conv17_1/scale
I1014 20:25:29.397402  8556 net.cpp:434] conv17_1/scale <- conv17_1
I1014 20:25:29.397404  8556 net.cpp:395] conv17_1/scale -> conv17_1 (in-place)
I1014 20:25:29.397430  8556 layer_factory.hpp:77] Creating layer conv17_1/scale
I1014 20:25:29.397505  8556 net.cpp:150] Setting up conv17_1/scale
I1014 20:25:29.397508  8556 net.cpp:157] Top shape: 2 64 2 2 (512)
I1014 20:25:29.397511  8556 net.cpp:165] Memory required for data: 322157600
I1014 20:25:29.397516  8556 layer_factory.hpp:77] Creating layer conv17_1/relu
I1014 20:25:29.397519  8556 net.cpp:100] Creating Layer conv17_1/relu
I1014 20:25:29.397522  8556 net.cpp:434] conv17_1/relu <- conv17_1
I1014 20:25:29.397526  8556 net.cpp:395] conv17_1/relu -> conv17_1 (in-place)
I1014 20:25:29.397953  8556 net.cpp:150] Setting up conv17_1/relu
I1014 20:25:29.397958  8556 net.cpp:157] Top shape: 2 64 2 2 (512)
I1014 20:25:29.397963  8556 net.cpp:165] Memory required for data: 322159648
I1014 20:25:29.397965  8556 layer_factory.hpp:77] Creating layer conv17_2
I1014 20:25:29.397972  8556 net.cpp:100] Creating Layer conv17_2
I1014 20:25:29.397976  8556 net.cpp:434] conv17_2 <- conv17_1
I1014 20:25:29.397981  8556 net.cpp:408] conv17_2 -> conv17_2
I1014 20:25:29.399829  8556 net.cpp:150] Setting up conv17_2
I1014 20:25:29.399839  8556 net.cpp:157] Top shape: 2 128 1 1 (256)
I1014 20:25:29.399843  8556 net.cpp:165] Memory required for data: 322160672
I1014 20:25:29.399848  8556 layer_factory.hpp:77] Creating layer conv17_2/bn
I1014 20:25:29.399854  8556 net.cpp:100] Creating Layer conv17_2/bn
I1014 20:25:29.399857  8556 net.cpp:434] conv17_2/bn <- conv17_2
I1014 20:25:29.399861  8556 net.cpp:395] conv17_2/bn -> conv17_2 (in-place)
I1014 20:25:29.399986  8556 net.cpp:150] Setting up conv17_2/bn
I1014 20:25:29.399991  8556 net.cpp:157] Top shape: 2 128 1 1 (256)
I1014 20:25:29.399993  8556 net.cpp:165] Memory required for data: 322161696
I1014 20:25:29.399998  8556 layer_factory.hpp:77] Creating layer conv17_2/scale
I1014 20:25:29.400003  8556 net.cpp:100] Creating Layer conv17_2/scale
I1014 20:25:29.400007  8556 net.cpp:434] conv17_2/scale <- conv17_2
I1014 20:25:29.400009  8556 net.cpp:395] conv17_2/scale -> conv17_2 (in-place)
I1014 20:25:29.400035  8556 layer_factory.hpp:77] Creating layer conv17_2/scale
I1014 20:25:29.400105  8556 net.cpp:150] Setting up conv17_2/scale
I1014 20:25:29.400111  8556 net.cpp:157] Top shape: 2 128 1 1 (256)
I1014 20:25:29.400115  8556 net.cpp:165] Memory required for data: 322162720
I1014 20:25:29.400118  8556 layer_factory.hpp:77] Creating layer conv17_2/relu
I1014 20:25:29.400123  8556 net.cpp:100] Creating Layer conv17_2/relu
I1014 20:25:29.400126  8556 net.cpp:434] conv17_2/relu <- conv17_2
I1014 20:25:29.400130  8556 net.cpp:395] conv17_2/relu -> conv17_2 (in-place)
I1014 20:25:29.401455  8556 net.cpp:150] Setting up conv17_2/relu
I1014 20:25:29.401466  8556 net.cpp:157] Top shape: 2 128 1 1 (256)
I1014 20:25:29.401470  8556 net.cpp:165] Memory required for data: 322163744
I1014 20:25:29.401486  8556 layer_factory.hpp:77] Creating layer conv17_2_conv17_2/relu_0_split
I1014 20:25:29.401492  8556 net.cpp:100] Creating Layer conv17_2_conv17_2/relu_0_split
I1014 20:25:29.401497  8556 net.cpp:434] conv17_2_conv17_2/relu_0_split <- conv17_2
I1014 20:25:29.401504  8556 net.cpp:408] conv17_2_conv17_2/relu_0_split -> conv17_2_conv17_2/relu_0_split_0
I1014 20:25:29.401517  8556 net.cpp:408] conv17_2_conv17_2/relu_0_split -> conv17_2_conv17_2/relu_0_split_1
I1014 20:25:29.401523  8556 net.cpp:408] conv17_2_conv17_2/relu_0_split -> conv17_2_conv17_2/relu_0_split_2
I1014 20:25:29.401568  8556 net.cpp:150] Setting up conv17_2_conv17_2/relu_0_split
I1014 20:25:29.401573  8556 net.cpp:157] Top shape: 2 128 1 1 (256)
I1014 20:25:29.401576  8556 net.cpp:157] Top shape: 2 128 1 1 (256)
I1014 20:25:29.401579  8556 net.cpp:157] Top shape: 2 128 1 1 (256)
I1014 20:25:29.401582  8556 net.cpp:165] Memory required for data: 322166816
I1014 20:25:29.401585  8556 layer_factory.hpp:77] Creating layer conv11_mbox_loc
I1014 20:25:29.401593  8556 net.cpp:100] Creating Layer conv11_mbox_loc
I1014 20:25:29.401598  8556 net.cpp:434] conv11_mbox_loc <- conv11_conv11/relu_0_split_1
I1014 20:25:29.401602  8556 net.cpp:408] conv11_mbox_loc -> conv11_mbox_loc
I1014 20:25:29.402967  8556 net.cpp:150] Setting up conv11_mbox_loc
I1014 20:25:29.402976  8556 net.cpp:157] Top shape: 2 12 19 19 (8664)
I1014 20:25:29.402981  8556 net.cpp:165] Memory required for data: 322201472
I1014 20:25:29.402987  8556 layer_factory.hpp:77] Creating layer conv11_mbox_loc_perm
I1014 20:25:29.402994  8556 net.cpp:100] Creating Layer conv11_mbox_loc_perm
I1014 20:25:29.402998  8556 net.cpp:434] conv11_mbox_loc_perm <- conv11_mbox_loc
I1014 20:25:29.403003  8556 net.cpp:408] conv11_mbox_loc_perm -> conv11_mbox_loc_perm
I1014 20:25:29.403084  8556 net.cpp:150] Setting up conv11_mbox_loc_perm
I1014 20:25:29.403090  8556 net.cpp:157] Top shape: 2 19 19 12 (8664)
I1014 20:25:29.403092  8556 net.cpp:165] Memory required for data: 322236128
I1014 20:25:29.403095  8556 layer_factory.hpp:77] Creating layer conv11_mbox_loc_flat
I1014 20:25:29.403100  8556 net.cpp:100] Creating Layer conv11_mbox_loc_flat
I1014 20:25:29.403103  8556 net.cpp:434] conv11_mbox_loc_flat <- conv11_mbox_loc_perm
I1014 20:25:29.403107  8556 net.cpp:408] conv11_mbox_loc_flat -> conv11_mbox_loc_flat
I1014 20:25:29.403125  8556 net.cpp:150] Setting up conv11_mbox_loc_flat
I1014 20:25:29.403129  8556 net.cpp:157] Top shape: 2 4332 (8664)
I1014 20:25:29.403132  8556 net.cpp:165] Memory required for data: 322270784
I1014 20:25:29.403134  8556 layer_factory.hpp:77] Creating layer conv11_mbox_conf_new
I1014 20:25:29.403141  8556 net.cpp:100] Creating Layer conv11_mbox_conf_new
I1014 20:25:29.403146  8556 net.cpp:434] conv11_mbox_conf_new <- conv11_conv11/relu_0_split_2
I1014 20:25:29.403151  8556 net.cpp:408] conv11_mbox_conf_new -> conv11_mbox_conf
I1014 20:25:29.404600  8556 net.cpp:150] Setting up conv11_mbox_conf_new
I1014 20:25:29.404610  8556 net.cpp:157] Top shape: 2 6 19 19 (4332)
I1014 20:25:29.404615  8556 net.cpp:165] Memory required for data: 322288112
I1014 20:25:29.404620  8556 layer_factory.hpp:77] Creating layer conv11_mbox_conf_perm
I1014 20:25:29.404625  8556 net.cpp:100] Creating Layer conv11_mbox_conf_perm
I1014 20:25:29.404630  8556 net.cpp:434] conv11_mbox_conf_perm <- conv11_mbox_conf
I1014 20:25:29.404634  8556 net.cpp:408] conv11_mbox_conf_perm -> conv11_mbox_conf_perm
I1014 20:25:29.404706  8556 net.cpp:150] Setting up conv11_mbox_conf_perm
I1014 20:25:29.404711  8556 net.cpp:157] Top shape: 2 19 19 6 (4332)
I1014 20:25:29.404714  8556 net.cpp:165] Memory required for data: 322305440
I1014 20:25:29.404717  8556 layer_factory.hpp:77] Creating layer conv11_mbox_conf_flat
I1014 20:25:29.404723  8556 net.cpp:100] Creating Layer conv11_mbox_conf_flat
I1014 20:25:29.404727  8556 net.cpp:434] conv11_mbox_conf_flat <- conv11_mbox_conf_perm
I1014 20:25:29.404731  8556 net.cpp:408] conv11_mbox_conf_flat -> conv11_mbox_conf_flat
I1014 20:25:29.404747  8556 net.cpp:150] Setting up conv11_mbox_conf_flat
I1014 20:25:29.404762  8556 net.cpp:157] Top shape: 2 2166 (4332)
I1014 20:25:29.404767  8556 net.cpp:165] Memory required for data: 322322768
I1014 20:25:29.404769  8556 layer_factory.hpp:77] Creating layer conv11_mbox_priorbox
I1014 20:25:29.405720  8556 net.cpp:100] Creating Layer conv11_mbox_priorbox
I1014 20:25:29.405731  8556 net.cpp:434] conv11_mbox_priorbox <- conv11_conv11/relu_0_split_3
I1014 20:25:29.405737  8556 net.cpp:434] conv11_mbox_priorbox <- data_data_0_split_1
I1014 20:25:29.405745  8556 net.cpp:408] conv11_mbox_priorbox -> conv11_mbox_priorbox
I1014 20:25:29.405779  8556 net.cpp:150] Setting up conv11_mbox_priorbox
I1014 20:25:29.405784  8556 net.cpp:157] Top shape: 1 2 4332 (8664)
I1014 20:25:29.405787  8556 net.cpp:165] Memory required for data: 322357424
I1014 20:25:29.405791  8556 layer_factory.hpp:77] Creating layer conv13_mbox_loc
I1014 20:25:29.405798  8556 net.cpp:100] Creating Layer conv13_mbox_loc
I1014 20:25:29.405802  8556 net.cpp:434] conv13_mbox_loc <- conv13_conv13/relu_0_split_1
I1014 20:25:29.405807  8556 net.cpp:408] conv13_mbox_loc -> conv13_mbox_loc
I1014 20:25:29.407318  8556 net.cpp:150] Setting up conv13_mbox_loc
I1014 20:25:29.407327  8556 net.cpp:157] Top shape: 2 24 10 10 (4800)
I1014 20:25:29.407332  8556 net.cpp:165] Memory required for data: 322376624
I1014 20:25:29.407337  8556 layer_factory.hpp:77] Creating layer conv13_mbox_loc_perm
I1014 20:25:29.407344  8556 net.cpp:100] Creating Layer conv13_mbox_loc_perm
I1014 20:25:29.407348  8556 net.cpp:434] conv13_mbox_loc_perm <- conv13_mbox_loc
I1014 20:25:29.407353  8556 net.cpp:408] conv13_mbox_loc_perm -> conv13_mbox_loc_perm
I1014 20:25:29.407452  8556 net.cpp:150] Setting up conv13_mbox_loc_perm
I1014 20:25:29.407459  8556 net.cpp:157] Top shape: 2 10 10 24 (4800)
I1014 20:25:29.407462  8556 net.cpp:165] Memory required for data: 322395824
I1014 20:25:29.407465  8556 layer_factory.hpp:77] Creating layer conv13_mbox_loc_flat
I1014 20:25:29.407469  8556 net.cpp:100] Creating Layer conv13_mbox_loc_flat
I1014 20:25:29.407472  8556 net.cpp:434] conv13_mbox_loc_flat <- conv13_mbox_loc_perm
I1014 20:25:29.407477  8556 net.cpp:408] conv13_mbox_loc_flat -> conv13_mbox_loc_flat
I1014 20:25:29.407495  8556 net.cpp:150] Setting up conv13_mbox_loc_flat
I1014 20:25:29.407498  8556 net.cpp:157] Top shape: 2 2400 (4800)
I1014 20:25:29.407501  8556 net.cpp:165] Memory required for data: 322415024
I1014 20:25:29.407505  8556 layer_factory.hpp:77] Creating layer conv13_mbox_conf_new
I1014 20:25:29.407511  8556 net.cpp:100] Creating Layer conv13_mbox_conf_new
I1014 20:25:29.407514  8556 net.cpp:434] conv13_mbox_conf_new <- conv13_conv13/relu_0_split_2
I1014 20:25:29.407518  8556 net.cpp:408] conv13_mbox_conf_new -> conv13_mbox_conf
I1014 20:25:29.409987  8556 net.cpp:150] Setting up conv13_mbox_conf_new
I1014 20:25:29.410001  8556 net.cpp:157] Top shape: 2 12 10 10 (2400)
I1014 20:25:29.410006  8556 net.cpp:165] Memory required for data: 322424624
I1014 20:25:29.410012  8556 layer_factory.hpp:77] Creating layer conv13_mbox_conf_perm
I1014 20:25:29.410020  8556 net.cpp:100] Creating Layer conv13_mbox_conf_perm
I1014 20:25:29.410024  8556 net.cpp:434] conv13_mbox_conf_perm <- conv13_mbox_conf
I1014 20:25:29.410029  8556 net.cpp:408] conv13_mbox_conf_perm -> conv13_mbox_conf_perm
I1014 20:25:29.410100  8556 net.cpp:150] Setting up conv13_mbox_conf_perm
I1014 20:25:29.410105  8556 net.cpp:157] Top shape: 2 10 10 12 (2400)
I1014 20:25:29.410109  8556 net.cpp:165] Memory required for data: 322434224
I1014 20:25:29.410112  8556 layer_factory.hpp:77] Creating layer conv13_mbox_conf_flat
I1014 20:25:29.410116  8556 net.cpp:100] Creating Layer conv13_mbox_conf_flat
I1014 20:25:29.410120  8556 net.cpp:434] conv13_mbox_conf_flat <- conv13_mbox_conf_perm
I1014 20:25:29.410125  8556 net.cpp:408] conv13_mbox_conf_flat -> conv13_mbox_conf_flat
I1014 20:25:29.410141  8556 net.cpp:150] Setting up conv13_mbox_conf_flat
I1014 20:25:29.410145  8556 net.cpp:157] Top shape: 2 1200 (2400)
I1014 20:25:29.410147  8556 net.cpp:165] Memory required for data: 322443824
I1014 20:25:29.410164  8556 layer_factory.hpp:77] Creating layer conv13_mbox_priorbox
I1014 20:25:29.410171  8556 net.cpp:100] Creating Layer conv13_mbox_priorbox
I1014 20:25:29.410173  8556 net.cpp:434] conv13_mbox_priorbox <- conv13_conv13/relu_0_split_3
I1014 20:25:29.410177  8556 net.cpp:434] conv13_mbox_priorbox <- data_data_0_split_2
I1014 20:25:29.410185  8556 net.cpp:408] conv13_mbox_priorbox -> conv13_mbox_priorbox
I1014 20:25:29.410207  8556 net.cpp:150] Setting up conv13_mbox_priorbox
I1014 20:25:29.410210  8556 net.cpp:157] Top shape: 1 2 2400 (4800)
I1014 20:25:29.410214  8556 net.cpp:165] Memory required for data: 322463024
I1014 20:25:29.410217  8556 layer_factory.hpp:77] Creating layer conv14_2_mbox_loc
I1014 20:25:29.410224  8556 net.cpp:100] Creating Layer conv14_2_mbox_loc
I1014 20:25:29.410228  8556 net.cpp:434] conv14_2_mbox_loc <- conv14_2_conv14_2/relu_0_split_1
I1014 20:25:29.410233  8556 net.cpp:408] conv14_2_mbox_loc -> conv14_2_mbox_loc
I1014 20:25:29.411656  8556 net.cpp:150] Setting up conv14_2_mbox_loc
I1014 20:25:29.411665  8556 net.cpp:157] Top shape: 2 24 5 5 (1200)
I1014 20:25:29.411670  8556 net.cpp:165] Memory required for data: 322467824
I1014 20:25:29.411675  8556 layer_factory.hpp:77] Creating layer conv14_2_mbox_loc_perm
I1014 20:25:29.411681  8556 net.cpp:100] Creating Layer conv14_2_mbox_loc_perm
I1014 20:25:29.411685  8556 net.cpp:434] conv14_2_mbox_loc_perm <- conv14_2_mbox_loc
I1014 20:25:29.411689  8556 net.cpp:408] conv14_2_mbox_loc_perm -> conv14_2_mbox_loc_perm
I1014 20:25:29.411759  8556 net.cpp:150] Setting up conv14_2_mbox_loc_perm
I1014 20:25:29.411764  8556 net.cpp:157] Top shape: 2 5 5 24 (1200)
I1014 20:25:29.411768  8556 net.cpp:165] Memory required for data: 322472624
I1014 20:25:29.411772  8556 layer_factory.hpp:77] Creating layer conv14_2_mbox_loc_flat
I1014 20:25:29.411777  8556 net.cpp:100] Creating Layer conv14_2_mbox_loc_flat
I1014 20:25:29.411779  8556 net.cpp:434] conv14_2_mbox_loc_flat <- conv14_2_mbox_loc_perm
I1014 20:25:29.411783  8556 net.cpp:408] conv14_2_mbox_loc_flat -> conv14_2_mbox_loc_flat
I1014 20:25:29.411799  8556 net.cpp:150] Setting up conv14_2_mbox_loc_flat
I1014 20:25:29.411803  8556 net.cpp:157] Top shape: 2 600 (1200)
I1014 20:25:29.411806  8556 net.cpp:165] Memory required for data: 322477424
I1014 20:25:29.411808  8556 layer_factory.hpp:77] Creating layer conv14_2_mbox_conf_new
I1014 20:25:29.411815  8556 net.cpp:100] Creating Layer conv14_2_mbox_conf_new
I1014 20:25:29.411818  8556 net.cpp:434] conv14_2_mbox_conf_new <- conv14_2_conv14_2/relu_0_split_2
I1014 20:25:29.411824  8556 net.cpp:408] conv14_2_mbox_conf_new -> conv14_2_mbox_conf
I1014 20:25:29.413192  8556 net.cpp:150] Setting up conv14_2_mbox_conf_new
I1014 20:25:29.413203  8556 net.cpp:157] Top shape: 2 12 5 5 (600)
I1014 20:25:29.413206  8556 net.cpp:165] Memory required for data: 322479824
I1014 20:25:29.413211  8556 layer_factory.hpp:77] Creating layer conv14_2_mbox_conf_perm
I1014 20:25:29.413220  8556 net.cpp:100] Creating Layer conv14_2_mbox_conf_perm
I1014 20:25:29.413224  8556 net.cpp:434] conv14_2_mbox_conf_perm <- conv14_2_mbox_conf
I1014 20:25:29.413229  8556 net.cpp:408] conv14_2_mbox_conf_perm -> conv14_2_mbox_conf_perm
I1014 20:25:29.413300  8556 net.cpp:150] Setting up conv14_2_mbox_conf_perm
I1014 20:25:29.413305  8556 net.cpp:157] Top shape: 2 5 5 12 (600)
I1014 20:25:29.413308  8556 net.cpp:165] Memory required for data: 322482224
I1014 20:25:29.413311  8556 layer_factory.hpp:77] Creating layer conv14_2_mbox_conf_flat
I1014 20:25:29.413317  8556 net.cpp:100] Creating Layer conv14_2_mbox_conf_flat
I1014 20:25:29.413321  8556 net.cpp:434] conv14_2_mbox_conf_flat <- conv14_2_mbox_conf_perm
I1014 20:25:29.413324  8556 net.cpp:408] conv14_2_mbox_conf_flat -> conv14_2_mbox_conf_flat
I1014 20:25:29.413341  8556 net.cpp:150] Setting up conv14_2_mbox_conf_flat
I1014 20:25:29.413343  8556 net.cpp:157] Top shape: 2 300 (600)
I1014 20:25:29.413347  8556 net.cpp:165] Memory required for data: 322484624
I1014 20:25:29.413349  8556 layer_factory.hpp:77] Creating layer conv14_2_mbox_priorbox
I1014 20:25:29.413369  8556 net.cpp:100] Creating Layer conv14_2_mbox_priorbox
I1014 20:25:29.413373  8556 net.cpp:434] conv14_2_mbox_priorbox <- conv14_2_conv14_2/relu_0_split_3
I1014 20:25:29.413378  8556 net.cpp:434] conv14_2_mbox_priorbox <- data_data_0_split_3
I1014 20:25:29.413381  8556 net.cpp:408] conv14_2_mbox_priorbox -> conv14_2_mbox_priorbox
I1014 20:25:29.413401  8556 net.cpp:150] Setting up conv14_2_mbox_priorbox
I1014 20:25:29.413405  8556 net.cpp:157] Top shape: 1 2 600 (1200)
I1014 20:25:29.413408  8556 net.cpp:165] Memory required for data: 322489424
I1014 20:25:29.413411  8556 layer_factory.hpp:77] Creating layer conv15_2_mbox_loc
I1014 20:25:29.413419  8556 net.cpp:100] Creating Layer conv15_2_mbox_loc
I1014 20:25:29.413424  8556 net.cpp:434] conv15_2_mbox_loc <- conv15_2_conv15_2/relu_0_split_1
I1014 20:25:29.413429  8556 net.cpp:408] conv15_2_mbox_loc -> conv15_2_mbox_loc
I1014 20:25:29.415843  8556 net.cpp:150] Setting up conv15_2_mbox_loc
I1014 20:25:29.415855  8556 net.cpp:157] Top shape: 2 24 3 3 (432)
I1014 20:25:29.415859  8556 net.cpp:165] Memory required for data: 322491152
I1014 20:25:29.415865  8556 layer_factory.hpp:77] Creating layer conv15_2_mbox_loc_perm
I1014 20:25:29.415874  8556 net.cpp:100] Creating Layer conv15_2_mbox_loc_perm
I1014 20:25:29.415879  8556 net.cpp:434] conv15_2_mbox_loc_perm <- conv15_2_mbox_loc
I1014 20:25:29.415884  8556 net.cpp:408] conv15_2_mbox_loc_perm -> conv15_2_mbox_loc_perm
I1014 20:25:29.415953  8556 net.cpp:150] Setting up conv15_2_mbox_loc_perm
I1014 20:25:29.415958  8556 net.cpp:157] Top shape: 2 3 3 24 (432)
I1014 20:25:29.415961  8556 net.cpp:165] Memory required for data: 322492880
I1014 20:25:29.415964  8556 layer_factory.hpp:77] Creating layer conv15_2_mbox_loc_flat
I1014 20:25:29.415971  8556 net.cpp:100] Creating Layer conv15_2_mbox_loc_flat
I1014 20:25:29.415974  8556 net.cpp:434] conv15_2_mbox_loc_flat <- conv15_2_mbox_loc_perm
I1014 20:25:29.415978  8556 net.cpp:408] conv15_2_mbox_loc_flat -> conv15_2_mbox_loc_flat
I1014 20:25:29.415994  8556 net.cpp:150] Setting up conv15_2_mbox_loc_flat
I1014 20:25:29.415998  8556 net.cpp:157] Top shape: 2 216 (432)
I1014 20:25:29.416002  8556 net.cpp:165] Memory required for data: 322494608
I1014 20:25:29.416004  8556 layer_factory.hpp:77] Creating layer conv15_2_mbox_conf_new
I1014 20:25:29.416013  8556 net.cpp:100] Creating Layer conv15_2_mbox_conf_new
I1014 20:25:29.416018  8556 net.cpp:434] conv15_2_mbox_conf_new <- conv15_2_conv15_2/relu_0_split_2
I1014 20:25:29.416021  8556 net.cpp:408] conv15_2_mbox_conf_new -> conv15_2_mbox_conf
I1014 20:25:29.417357  8556 net.cpp:150] Setting up conv15_2_mbox_conf_new
I1014 20:25:29.417366  8556 net.cpp:157] Top shape: 2 12 3 3 (216)
I1014 20:25:29.417371  8556 net.cpp:165] Memory required for data: 322495472
I1014 20:25:29.417376  8556 layer_factory.hpp:77] Creating layer conv15_2_mbox_conf_perm
I1014 20:25:29.417380  8556 net.cpp:100] Creating Layer conv15_2_mbox_conf_perm
I1014 20:25:29.417383  8556 net.cpp:434] conv15_2_mbox_conf_perm <- conv15_2_mbox_conf
I1014 20:25:29.417389  8556 net.cpp:408] conv15_2_mbox_conf_perm -> conv15_2_mbox_conf_perm
I1014 20:25:29.417455  8556 net.cpp:150] Setting up conv15_2_mbox_conf_perm
I1014 20:25:29.417460  8556 net.cpp:157] Top shape: 2 3 3 12 (216)
I1014 20:25:29.417464  8556 net.cpp:165] Memory required for data: 322496336
I1014 20:25:29.417466  8556 layer_factory.hpp:77] Creating layer conv15_2_mbox_conf_flat
I1014 20:25:29.417471  8556 net.cpp:100] Creating Layer conv15_2_mbox_conf_flat
I1014 20:25:29.417474  8556 net.cpp:434] conv15_2_mbox_conf_flat <- conv15_2_mbox_conf_perm
I1014 20:25:29.417479  8556 net.cpp:408] conv15_2_mbox_conf_flat -> conv15_2_mbox_conf_flat
I1014 20:25:29.417495  8556 net.cpp:150] Setting up conv15_2_mbox_conf_flat
I1014 20:25:29.417497  8556 net.cpp:157] Top shape: 2 108 (216)
I1014 20:25:29.417500  8556 net.cpp:165] Memory required for data: 322497200
I1014 20:25:29.417503  8556 layer_factory.hpp:77] Creating layer conv15_2_mbox_priorbox
I1014 20:25:29.417524  8556 net.cpp:100] Creating Layer conv15_2_mbox_priorbox
I1014 20:25:29.417529  8556 net.cpp:434] conv15_2_mbox_priorbox <- conv15_2_conv15_2/relu_0_split_3
I1014 20:25:29.417533  8556 net.cpp:434] conv15_2_mbox_priorbox <- data_data_0_split_4
I1014 20:25:29.417537  8556 net.cpp:408] conv15_2_mbox_priorbox -> conv15_2_mbox_priorbox
I1014 20:25:29.417557  8556 net.cpp:150] Setting up conv15_2_mbox_priorbox
I1014 20:25:29.417562  8556 net.cpp:157] Top shape: 1 2 216 (432)
I1014 20:25:29.417564  8556 net.cpp:165] Memory required for data: 322498928
I1014 20:25:29.417567  8556 layer_factory.hpp:77] Creating layer conv16_2_mbox_loc
I1014 20:25:29.417574  8556 net.cpp:100] Creating Layer conv16_2_mbox_loc
I1014 20:25:29.417578  8556 net.cpp:434] conv16_2_mbox_loc <- conv16_2_conv16_2/relu_0_split_1
I1014 20:25:29.417584  8556 net.cpp:408] conv16_2_mbox_loc -> conv16_2_mbox_loc
I1014 20:25:29.419036  8556 net.cpp:150] Setting up conv16_2_mbox_loc
I1014 20:25:29.419045  8556 net.cpp:157] Top shape: 2 24 2 2 (192)
I1014 20:25:29.419050  8556 net.cpp:165] Memory required for data: 322499696
I1014 20:25:29.419055  8556 layer_factory.hpp:77] Creating layer conv16_2_mbox_loc_perm
I1014 20:25:29.419061  8556 net.cpp:100] Creating Layer conv16_2_mbox_loc_perm
I1014 20:25:29.419066  8556 net.cpp:434] conv16_2_mbox_loc_perm <- conv16_2_mbox_loc
I1014 20:25:29.419070  8556 net.cpp:408] conv16_2_mbox_loc_perm -> conv16_2_mbox_loc_perm
I1014 20:25:29.419137  8556 net.cpp:150] Setting up conv16_2_mbox_loc_perm
I1014 20:25:29.419142  8556 net.cpp:157] Top shape: 2 2 2 24 (192)
I1014 20:25:29.419144  8556 net.cpp:165] Memory required for data: 322500464
I1014 20:25:29.419147  8556 layer_factory.hpp:77] Creating layer conv16_2_mbox_loc_flat
I1014 20:25:29.419152  8556 net.cpp:100] Creating Layer conv16_2_mbox_loc_flat
I1014 20:25:29.419157  8556 net.cpp:434] conv16_2_mbox_loc_flat <- conv16_2_mbox_loc_perm
I1014 20:25:29.419159  8556 net.cpp:408] conv16_2_mbox_loc_flat -> conv16_2_mbox_loc_flat
I1014 20:25:29.419175  8556 net.cpp:150] Setting up conv16_2_mbox_loc_flat
I1014 20:25:29.419179  8556 net.cpp:157] Top shape: 2 96 (192)
I1014 20:25:29.419183  8556 net.cpp:165] Memory required for data: 322501232
I1014 20:25:29.419185  8556 layer_factory.hpp:77] Creating layer conv16_2_mbox_conf_new
I1014 20:25:29.419193  8556 net.cpp:100] Creating Layer conv16_2_mbox_conf_new
I1014 20:25:29.419196  8556 net.cpp:434] conv16_2_mbox_conf_new <- conv16_2_conv16_2/relu_0_split_2
I1014 20:25:29.419200  8556 net.cpp:408] conv16_2_mbox_conf_new -> conv16_2_mbox_conf
I1014 20:25:29.421483  8556 net.cpp:150] Setting up conv16_2_mbox_conf_new
I1014 20:25:29.421494  8556 net.cpp:157] Top shape: 2 12 2 2 (96)
I1014 20:25:29.421499  8556 net.cpp:165] Memory required for data: 322501616
I1014 20:25:29.421504  8556 layer_factory.hpp:77] Creating layer conv16_2_mbox_conf_perm
I1014 20:25:29.421511  8556 net.cpp:100] Creating Layer conv16_2_mbox_conf_perm
I1014 20:25:29.421515  8556 net.cpp:434] conv16_2_mbox_conf_perm <- conv16_2_mbox_conf
I1014 20:25:29.421520  8556 net.cpp:408] conv16_2_mbox_conf_perm -> conv16_2_mbox_conf_perm
I1014 20:25:29.421589  8556 net.cpp:150] Setting up conv16_2_mbox_conf_perm
I1014 20:25:29.421594  8556 net.cpp:157] Top shape: 2 2 2 12 (96)
I1014 20:25:29.421598  8556 net.cpp:165] Memory required for data: 322502000
I1014 20:25:29.421600  8556 layer_factory.hpp:77] Creating layer conv16_2_mbox_conf_flat
I1014 20:25:29.421607  8556 net.cpp:100] Creating Layer conv16_2_mbox_conf_flat
I1014 20:25:29.421609  8556 net.cpp:434] conv16_2_mbox_conf_flat <- conv16_2_mbox_conf_perm
I1014 20:25:29.421613  8556 net.cpp:408] conv16_2_mbox_conf_flat -> conv16_2_mbox_conf_flat
I1014 20:25:29.421629  8556 net.cpp:150] Setting up conv16_2_mbox_conf_flat
I1014 20:25:29.421633  8556 net.cpp:157] Top shape: 2 48 (96)
I1014 20:25:29.421635  8556 net.cpp:165] Memory required for data: 322502384
I1014 20:25:29.421638  8556 layer_factory.hpp:77] Creating layer conv16_2_mbox_priorbox
I1014 20:25:29.421644  8556 net.cpp:100] Creating Layer conv16_2_mbox_priorbox
I1014 20:25:29.421659  8556 net.cpp:434] conv16_2_mbox_priorbox <- conv16_2_conv16_2/relu_0_split_3
I1014 20:25:29.421664  8556 net.cpp:434] conv16_2_mbox_priorbox <- data_data_0_split_5
I1014 20:25:29.421669  8556 net.cpp:408] conv16_2_mbox_priorbox -> conv16_2_mbox_priorbox
I1014 20:25:29.421689  8556 net.cpp:150] Setting up conv16_2_mbox_priorbox
I1014 20:25:29.421692  8556 net.cpp:157] Top shape: 1 2 96 (192)
I1014 20:25:29.421696  8556 net.cpp:165] Memory required for data: 322503152
I1014 20:25:29.421699  8556 layer_factory.hpp:77] Creating layer conv17_2_mbox_loc
I1014 20:25:29.421707  8556 net.cpp:100] Creating Layer conv17_2_mbox_loc
I1014 20:25:29.421712  8556 net.cpp:434] conv17_2_mbox_loc <- conv17_2_conv17_2/relu_0_split_0
I1014 20:25:29.421717  8556 net.cpp:408] conv17_2_mbox_loc -> conv17_2_mbox_loc
I1014 20:25:29.423178  8556 net.cpp:150] Setting up conv17_2_mbox_loc
I1014 20:25:29.423188  8556 net.cpp:157] Top shape: 2 24 1 1 (48)
I1014 20:25:29.423192  8556 net.cpp:165] Memory required for data: 322503344
I1014 20:25:29.423198  8556 layer_factory.hpp:77] Creating layer conv17_2_mbox_loc_perm
I1014 20:25:29.423203  8556 net.cpp:100] Creating Layer conv17_2_mbox_loc_perm
I1014 20:25:29.423207  8556 net.cpp:434] conv17_2_mbox_loc_perm <- conv17_2_mbox_loc
I1014 20:25:29.423214  8556 net.cpp:408] conv17_2_mbox_loc_perm -> conv17_2_mbox_loc_perm
I1014 20:25:29.423282  8556 net.cpp:150] Setting up conv17_2_mbox_loc_perm
I1014 20:25:29.423287  8556 net.cpp:157] Top shape: 2 1 1 24 (48)
I1014 20:25:29.423290  8556 net.cpp:165] Memory required for data: 322503536
I1014 20:25:29.423293  8556 layer_factory.hpp:77] Creating layer conv17_2_mbox_loc_flat
I1014 20:25:29.423300  8556 net.cpp:100] Creating Layer conv17_2_mbox_loc_flat
I1014 20:25:29.423302  8556 net.cpp:434] conv17_2_mbox_loc_flat <- conv17_2_mbox_loc_perm
I1014 20:25:29.423306  8556 net.cpp:408] conv17_2_mbox_loc_flat -> conv17_2_mbox_loc_flat
I1014 20:25:29.423321  8556 net.cpp:150] Setting up conv17_2_mbox_loc_flat
I1014 20:25:29.423326  8556 net.cpp:157] Top shape: 2 24 (48)
I1014 20:25:29.423328  8556 net.cpp:165] Memory required for data: 322503728
I1014 20:25:29.423331  8556 layer_factory.hpp:77] Creating layer conv17_2_mbox_conf_new
I1014 20:25:29.423338  8556 net.cpp:100] Creating Layer conv17_2_mbox_conf_new
I1014 20:25:29.423342  8556 net.cpp:434] conv17_2_mbox_conf_new <- conv17_2_conv17_2/relu_0_split_1
I1014 20:25:29.423348  8556 net.cpp:408] conv17_2_mbox_conf_new -> conv17_2_mbox_conf
I1014 20:25:29.424842  8556 net.cpp:150] Setting up conv17_2_mbox_conf_new
I1014 20:25:29.424854  8556 net.cpp:157] Top shape: 2 12 1 1 (24)
I1014 20:25:29.424860  8556 net.cpp:165] Memory required for data: 322503824
I1014 20:25:29.424865  8556 layer_factory.hpp:77] Creating layer conv17_2_mbox_conf_perm
I1014 20:25:29.424873  8556 net.cpp:100] Creating Layer conv17_2_mbox_conf_perm
I1014 20:25:29.424878  8556 net.cpp:434] conv17_2_mbox_conf_perm <- conv17_2_mbox_conf
I1014 20:25:29.424883  8556 net.cpp:408] conv17_2_mbox_conf_perm -> conv17_2_mbox_conf_perm
I1014 20:25:29.424952  8556 net.cpp:150] Setting up conv17_2_mbox_conf_perm
I1014 20:25:29.424957  8556 net.cpp:157] Top shape: 2 1 1 12 (24)
I1014 20:25:29.424959  8556 net.cpp:165] Memory required for data: 322503920
I1014 20:25:29.424962  8556 layer_factory.hpp:77] Creating layer conv17_2_mbox_conf_flat
I1014 20:25:29.424968  8556 net.cpp:100] Creating Layer conv17_2_mbox_conf_flat
I1014 20:25:29.424970  8556 net.cpp:434] conv17_2_mbox_conf_flat <- conv17_2_mbox_conf_perm
I1014 20:25:29.424974  8556 net.cpp:408] conv17_2_mbox_conf_flat -> conv17_2_mbox_conf_flat
I1014 20:25:29.424989  8556 net.cpp:150] Setting up conv17_2_mbox_conf_flat
I1014 20:25:29.424993  8556 net.cpp:157] Top shape: 2 12 (24)
I1014 20:25:29.424996  8556 net.cpp:165] Memory required for data: 322504016
I1014 20:25:29.425005  8556 layer_factory.hpp:77] Creating layer conv17_2_mbox_priorbox
I1014 20:25:29.425010  8556 net.cpp:100] Creating Layer conv17_2_mbox_priorbox
I1014 20:25:29.425014  8556 net.cpp:434] conv17_2_mbox_priorbox <- conv17_2_conv17_2/relu_0_split_2
I1014 20:25:29.425030  8556 net.cpp:434] conv17_2_mbox_priorbox <- data_data_0_split_6
I1014 20:25:29.425035  8556 net.cpp:408] conv17_2_mbox_priorbox -> conv17_2_mbox_priorbox
I1014 20:25:29.425058  8556 net.cpp:150] Setting up conv17_2_mbox_priorbox
I1014 20:25:29.425063  8556 net.cpp:157] Top shape: 1 2 24 (48)
I1014 20:25:29.425066  8556 net.cpp:165] Memory required for data: 322504208
I1014 20:25:29.425070  8556 layer_factory.hpp:77] Creating layer mbox_loc
I1014 20:25:29.425074  8556 net.cpp:100] Creating Layer mbox_loc
I1014 20:25:29.425077  8556 net.cpp:434] mbox_loc <- conv11_mbox_loc_flat
I1014 20:25:29.425081  8556 net.cpp:434] mbox_loc <- conv13_mbox_loc_flat
I1014 20:25:29.425086  8556 net.cpp:434] mbox_loc <- conv14_2_mbox_loc_flat
I1014 20:25:29.425088  8556 net.cpp:434] mbox_loc <- conv15_2_mbox_loc_flat
I1014 20:25:29.425091  8556 net.cpp:434] mbox_loc <- conv16_2_mbox_loc_flat
I1014 20:25:29.425094  8556 net.cpp:434] mbox_loc <- conv17_2_mbox_loc_flat
I1014 20:25:29.425098  8556 net.cpp:408] mbox_loc -> mbox_loc
I1014 20:25:29.425123  8556 net.cpp:150] Setting up mbox_loc
I1014 20:25:29.425128  8556 net.cpp:157] Top shape: 2 7668 (15336)
I1014 20:25:29.425132  8556 net.cpp:165] Memory required for data: 322565552
I1014 20:25:29.425134  8556 layer_factory.hpp:77] Creating layer mbox_conf
I1014 20:25:29.425138  8556 net.cpp:100] Creating Layer mbox_conf
I1014 20:25:29.425141  8556 net.cpp:434] mbox_conf <- conv11_mbox_conf_flat
I1014 20:25:29.425144  8556 net.cpp:434] mbox_conf <- conv13_mbox_conf_flat
I1014 20:25:29.425148  8556 net.cpp:434] mbox_conf <- conv14_2_mbox_conf_flat
I1014 20:25:29.425150  8556 net.cpp:434] mbox_conf <- conv15_2_mbox_conf_flat
I1014 20:25:29.425153  8556 net.cpp:434] mbox_conf <- conv16_2_mbox_conf_flat
I1014 20:25:29.425156  8556 net.cpp:434] mbox_conf <- conv17_2_mbox_conf_flat
I1014 20:25:29.425161  8556 net.cpp:408] mbox_conf -> mbox_conf
I1014 20:25:29.425176  8556 net.cpp:150] Setting up mbox_conf
I1014 20:25:29.425180  8556 net.cpp:157] Top shape: 2 3834 (7668)
I1014 20:25:29.425184  8556 net.cpp:165] Memory required for data: 322596224
I1014 20:25:29.425185  8556 layer_factory.hpp:77] Creating layer mbox_priorbox
I1014 20:25:29.425190  8556 net.cpp:100] Creating Layer mbox_priorbox
I1014 20:25:29.425194  8556 net.cpp:434] mbox_priorbox <- conv11_mbox_priorbox
I1014 20:25:29.425197  8556 net.cpp:434] mbox_priorbox <- conv13_mbox_priorbox
I1014 20:25:29.425200  8556 net.cpp:434] mbox_priorbox <- conv14_2_mbox_priorbox
I1014 20:25:29.425204  8556 net.cpp:434] mbox_priorbox <- conv15_2_mbox_priorbox
I1014 20:25:29.425206  8556 net.cpp:434] mbox_priorbox <- conv16_2_mbox_priorbox
I1014 20:25:29.425209  8556 net.cpp:434] mbox_priorbox <- conv17_2_mbox_priorbox
I1014 20:25:29.425212  8556 net.cpp:408] mbox_priorbox -> mbox_priorbox
I1014 20:25:29.425227  8556 net.cpp:150] Setting up mbox_priorbox
I1014 20:25:29.425231  8556 net.cpp:157] Top shape: 1 2 7668 (15336)
I1014 20:25:29.425235  8556 net.cpp:165] Memory required for data: 322657568
I1014 20:25:29.425238  8556 layer_factory.hpp:77] Creating layer mbox_loss
I1014 20:25:29.425246  8556 net.cpp:100] Creating Layer mbox_loss
I1014 20:25:29.425251  8556 net.cpp:434] mbox_loss <- mbox_loc
I1014 20:25:29.425254  8556 net.cpp:434] mbox_loss <- mbox_conf
I1014 20:25:29.425257  8556 net.cpp:434] mbox_loss <- mbox_priorbox
…
  name: "data"
  type: "AnnotatedData"
  top: "data"
  top: "label"
  include {
    phase: TEST
  }
  transform_param {
    scale: 0.007843
    mean_value: 127.5
    mean_value: 127.5
    mean_value: 127.5
    resize_param {
      prob: 1
      resize_mode: WARP
      height: 300
      width: 300
      interp_mode: LINEAR
    }
  }
  data_param {
    source: "data/lmdb_files/lmdb/lmdb_files_test_lmdb"
    batch_size: 8
    backend: LMDB
  }
  annotated_data_param {
    batch_sampler {
    }
    label_map_file: "data/lmdb_files/labelmap.prototxt"
  }
}
layer {
  name: "conv0"
  type: "Convolution"
  bottom: "data"
  top: "conv0"
  param {
    lr_mult: 1
    decay_mult: 1
  }
  convolution_param {
    num_output: 32
    bias_term: false
    pad: 1
    kernel_size: 3
    stride: 2
    weight_filler {
      type: "msra"
    }
  }
}
layer {
  name: "conv0/bn"
  type: "BatchNorm"
  bottom: "conv0"
  top: "conv0"
}
layer {
  name: "conv0/scale"
  type: "Scale"
  bottom: "conv0"
  top: "conv0"
  param {
    lr_mult: 1
    decay_mult: 0
  }
  param {
    lr_mult: 2
    decay_mult: 0
  }
  scale_param {
    filler {
      value: 1
    }
    bias_term: true
    bias_filler {
      value: 0
    }
  }
}
layer {
  name: "conv0/relu"
  type: "ReLU"
  bottom: "conv0"
  top: "conv0"
}
layer {
  name: "conv1/dw"
  type: "Convolution"
  bottom: "conv0"
  top: "conv1/dw"
  param {
    lr_mult: 1
    decay_mult: 1
  }
  convolution_param {
    num_output: 32
    bias_term: false
    pad: 1
    kernel_size: 3
    group: 32
    weight_filler {
      type: "msra"
    }
    engine: CAFFE
  }
}
layer {
  name: "conv1/dw/bn"
  type: "BatchNorm"
  bottom: "conv1/dw"
  top: "conv1/dw"
}
layer {
  name: "conv1/dw/scale"
  type: "Scale"
  bottom: "conv1/dw"
  top: "conv1/dw"
  param {
    lr_mult: 1
    decay_mult: 0
  }
  param {
    lr_mult: 2
    decay_mult: 0
  }
  scale_param {
    filler {
      value: 1
    }
    bias_term: true
    bias_filler {
      value: 0
    }
  }
}
layer {
  name: "conv1/dw/relu"
  type: "ReLU"
  bottom: "conv1/dw"
  top: "conv1/dw"
}
layer {
  name: "conv1"
  type: "Convolution"
  bottom: "conv1/dw"
  top: "conv1"
  param {
    lr_mult: 1
    decay_mult: 1
  }
  convolution_param {
    num_output: 64
    bias_term: false
    kernel_size: 1
    weight_filler {
      type: "msra"
    }
  }
}
layer {
  name: "conv1/bn"
  type: "BatchNorm"
  bottom: "conv1"
  top: "conv1"
}
layer {
  name: "conv1/scale"
  type: "Scale"
  bottom: "conv1"
  top: "conv1"
  param {
    lr_mult: 1
    decay_mult: 0
  }
  param {
    lr_mult: 2
    decay_mult: 0
  }
  scale_param {
    filler {
      value: 1
    }
    bias_term: true
    bias_filler {
      value: 0
    }
  }
}
layer {
  name: "conv1/relu"
  type: "ReLU"
  bottom: "conv1"
  top: "conv1"
}
layer {
  name: "conv2/dw"
  type: "Convolution"
  bottom: "conv1"
  top: "conv2/dw"
  param {
    lr_mult: 1
    decay_mult: 1
  }
  convolution_param {
    num_output: 64
    bias_term: false
    pad: 1
    kernel_size: 3
    group: 64
    stride: 2
    weight_filler {
      type: "msra"
    }
    engine: CAFFE
  }
}
layer {
  name: "conv2/dw/bn"
  type: "BatchNorm"
  bottom: "conv2/dw"
  top: "conv2/dw"
}
layer {
  name: "conv2/dw/scale"
  type: "Scale"
  bottom: "conv2/dw"
  top: "conv2/dw"
  param {
    lr_mult: 1
    decay_mult: 0
  }
  param {
    lr_mult: 2
    decay_mult: 0
  }
  scale_param {
    filler {
      value: 1
    }
    bias_term: true
    bias_filler {
      value: 0
    }
  }
}
layer {
  name: "conv2/dw/relu"
  type: "ReLU"
  bottom: "conv2/dw"
  top: "conv2/dw"
}
layer {
  name: "conv2"
  type: "Convolution"
  bottom: "conv2/dw"
  top: "conv2"
  param {
    lr_mult: 1
    decay_mult: 1
  }
  convolution_param {
    num_output: 128
    bias_term: false
    kernel_size: 1
    weight_filler {
      type: "msra"
    }
  }
}
layer {
  name: "conv2/bn"
  type: "BatchNorm"
  bottom: "conv2"
  top: "conv2"
}
layer {
  name: "conv2/scale"
  type: "Scale"
  bottom: "conv2"
  top: "conv2"
  param {
    lr_mult: 1
    decay_mult: 0
  }
  param {
    lr_mult: 2
    decay_mult: 0
  }
  scale_param {
    filler {
      value: 1
    }
    bias_term: true
    bias_filler {
      value: 0
    }
  }
}
layer {
  name: "conv2/relu"
  type: "ReLU"
  bottom: "conv2"
  top: "conv2"
}
layer {
  name: "conv3/dw"
  type: "Convolution"
  bottom: "conv2"
  top: "conv3/dw"
  param {
    lr_mult: 1
    decay_mult: 1
  }
  convolution_param {
    num_output: 128
    bias_term: false
    pad: 1
    kernel_size: 3
    group: 128
    weight_filler {
      type: "msra"
    }
    engine: CAFFE
  }
}
layer {
  name: "conv3/dw/bn"
  type: "BatchNorm"
  bottom: "conv3/dw"
  top: "conv3/dw"
}
layer {
  name: "conv3/dw/scale"
  type: "Scale"
  bottom: "conv3/dw"
  top: "conv3/dw"
  param {
    lr_mult: 1
    decay_mult: 0
  }
  param {
    lr_mult: 2
    decay_mult: 0
  }
  scale_param {
    filler {
      value: 1
    }
    bias_term: true
    bias_filler {
      value: 0
    }
  }
}
layer {
  name: "conv3/dw/relu"
  type: "ReLU"
  bottom: "conv3/dw"
  top: "conv3/dw"
}
layer {
  name: "conv3"
  type: "Convolution"
  bottom: "conv3/dw"
  top: "conv3"
  param {
    lr_mult: 1
    decay_mult: 1
  }
  convolution_param {
    num_output: 128
    bias_term: false
    kernel_size: 1
    weight_filler {
      type: "msra"
    }
  }
}
layer {
  name: "conv3/bn"
  type: "BatchNorm"
  bottom: "conv3"
  top: "conv3"
}
layer {
  name: "conv3/scale"
  type: "Scale"
  bottom: "conv3"
  top: "conv3"
  param {
    lr_mult: 1
    decay_mult: 0
  }
  param {
    lr_mult: 2
    decay_mult: 0
  }
  scale_param {
    filler {
      value: 1
    }
    bias_term: true
    bias_filler {
      value: 0
    }
  }
}
layer {
  name: "conv3/relu"
  type: "ReLU"
  bottom: "conv3"
  top: "conv3"
}
layer {
  name: "conv4/dw"
  type: "Convolution"
  bottom: "conv3"
  top: "conv4/dw"
  param {
    lr_mult: 1
    decay_mult: 1
  }
  convolution_param {
    num_output: 128
    bias_term: false
    pad: 1
    kernel_size: 3
    group: 128
    stride: 2
    weight_filler {
      type: "msra"
    }
    engine: CAFFE
  }
}
layer {
  name: "conv4/dw/bn"
  type: "BatchNorm"
  bottom: "conv4/dw"
  top: "conv4/dw"
}
layer {
  name: "conv4/dw/scale"
  type: "Scale"
  bottom: "conv4/dw"
  top: "conv4/dw"
  param {
    lr_mult: 1
    decay_mult: 0
  }
  param {
    lr_mult: 2
    decay_mult: 0
  }
  scale_param {
    filler {
      value: 1
    }
    bias_term: true
    bias_filler {
      value: 0
    }
  }
}
layer {
  name: "conv4/dw/relu"
  type: "ReLU"
  bottom: "conv4/dw"
  top: "conv4/dw"
}
layer {
  name: "conv4"
  type: "Convolution"
  bottom: "conv4/dw"
  top: "conv4"
  param {
    lr_mult: 1
    decay_mult: 1
  }
  convolution_param {
    num_output: 256
    bias_term: false
    kernel_size: 1
    weight_filler {
      type: "msra"
    }
  }
}
layer {
  name: "conv4/bn"
  type: "BatchNorm"
  bottom: "conv4"
  top: "conv4"
}
layer {
  name: "conv4/scale"
  type: "Scale"
  bottom: "conv4"
  top: "conv4"
  param {
    lr_mult: 1
    decay_mult: 0
  }
  param {
    lr_mult: 2
    decay_mult: 0
  }
  scale_param {
    filler {
      value: 1
    }
    bias_term: true
    bias_filler {
      value: 0
    }
  }
}
layer {
  name: "conv4/relu"
  type: "ReLU"
  bottom: "conv4"
  top: "conv4"
}
layer {
  name: "conv5/dw"
  type: "Convolution"
  bottom: "conv4"
  top: "conv5/dw"
  param {
    lr_mult: 1
    decay_mult: 1
  }
  convolution_param {
    num_output: 256
    bias_term: false
    pad: 1
    kernel_size: 3
    group: 256
    weight_filler {
      type: "msra"
    }
    engine: CAFFE
  }
}
layer {
  name: "conv5/dw/bn"
  type: "BatchNorm"
  bottom: "conv5/dw"
  top: "conv5/dw"
}
layer {
  name: "conv5/dw/scale"
  type: "Scale"
  bottom: "conv5/dw"
  top: "conv5/dw"
  param {
    lr_mult: 1
    decay_mult: 0
  }
  param {
    lr_mult: 2
    decay_mult: 0
  }
  scale_param {
    filler {
      value: 1
    }
    bias_term: true
    bias_filler {
      value: 0
    }
  }
}
layer {
  name: "conv5/dw/relu"
  type: "ReLU"
  bottom: "conv5/dw"
  top: "conv5/dw"
}
layer {
  name: "conv5"
  type: "Convolution"
  bottom: "conv5/dw"
  top: "conv5"
  param {
    lr_mult: 1
    decay_mult: 1
  }
  convolution_param {
    num_output: 256
    bias_term: false
    kernel_size: 1
    weight_filler {
      type: "msra"
    }
  }
}
layer {
  name: "conv5/bn"
  type: "BatchNorm"
  bottom: "conv5"
  top: "conv5"
}
layer {
  name: "conv5/scale"
  type: "Scale"
  bottom: "conv5"
  top: "conv5"
  param {
    lr_mult: 1
    decay_mult: 0
  }
  param {
    lr_mult: 2
    decay_mult: 0
  }
  scale_param {
    filler {
      value: 1
    }
    bias_term: true
    bias_filler {
      value: 0
    }
  }
}
layer {
  name: "conv5/relu"
  type: "ReLU"
  bottom: "conv5"
  top: "conv5"
}
layer {
  name: "conv6/dw"
  type: "Convolution"
  bottom: "conv5"
  top: "conv6/dw"
  param {
    lr_mult: 1
    decay_mult: 1
  }
  convolution_param {
    num_output: 256
    bias_term: false
    pad: 1
    kernel_size: 3
    group: 256
    stride: 2
    weight_filler {
      type: "msra"
    }
    engine: CAFFE
  }
}
layer {
  name: "conv6/dw/bn"
  type: "BatchNorm"
  bottom: "conv6/dw"
  top: "conv6/dw"
}
layer {
  name: "conv6/dw/scale"
  type: "Scale"
  bottom: "conv6/dw"
  top: "conv6/dw"
  param {
    lr_mult: 1
    decay_mult: 0
  }
  param {
    lr_mult: 2
    decay_mult: 0
  }
  scale_param {
    filler {
      value: 1
    }
    bias_term: true
    bias_filler {
      value: 0
    }
  }
}
layer {
  name: "conv6/dw/relu"
  type: "ReLU"
  bottom: "conv6/dw"
  top: "conv6/dw"
}
layer {
  name: "conv6"
  type: "Convolution"
  bottom: "conv6/dw"
  top: "conv6"
  param {
    lr_mult: 1
    decay_mult: 1
  }
  convolution_param {
    num_output: 512
    bias_term: false
    kernel_size: 1
    weight_filler {
      type: "msra"
    }
  }
}
layer {
  name: "conv6/bn"
  type: "BatchNorm"
  bottom: "conv6"
  top: "conv6"
}
layer {
  name: "conv6/scale"
  type: "Scale"
  bottom: "conv6"
  top: "conv6"
  param {
    lr_mult: 1
    decay_mult: 0
  }
  param {
    lr_mult: 2
    decay_mult: 0
  }
  scale_param {
    filler {
      value: 1
    }
    bias_term: true
    bias_filler {
      value: 0
    }
  }
}
layer {
  name: "conv6/relu"
  type: "ReLU"
  bottom: "conv6"
  top: "conv6"
}
layer {
  name: "conv7/dw"
  type: "Convolution"
  bottom: "conv6"
  top: "conv7/dw"
  param {
    lr_mult: 1
    decay_mult: 1
  }
  convolution_param {
    num_output: 512
    bias_term: false
    pad: 1
    kernel_size: 3
    group: 512
    weight_filler {
      type: "msra"
    }
    engine: CAFFE
  }
}
layer {
  name: "conv7/dw/bn"
  type: "BatchNorm"
  bottom: "conv7/dw"
  top: "conv7/dw"
}
layer {
  name: "conv7/dw/scale"
  type: "Scale"
  bottom: "conv7/dw"
  top: "conv7/dw"
  param {
    lr_mult: 1
    decay_mult: 0
  }
  param {
    lr_mult: 2
    decay_mult: 0
  }
  scale_param {
    filler {
      value: 1
    }
    bias_term: true
    bias_filler {
      value: 0
    }
  }
}
layer {
  name: "conv7/dw/relu"
  type: "ReLU"
  bottom: "conv7/dw"
  top: "conv7/dw"
}
layer {
  name: "conv7"
  type: "Convolution"
  bottom: "conv7/dw"
  top: "conv7"
  param {
    lr_mult: 1
    decay_mult: 1
  }
  convolution_param {
    num_output: 512
    bias_term: false
    kernel_size: 1
    weight_filler {
      type: "msra"
    }
  }
}
layer {
  name: "conv7/bn"
  type: "BatchNorm"
  bottom: "conv7"
  top: "conv7"
}
layer {
  name: "conv7/scale"
  type: "Scale"
  bottom: "conv7"
  top: "conv7"
  param {
    lr_mult: 1
    decay_mult: 0
  }
  param {
    lr_mult: 2
    decay_mult: 0
  }
  scale_param {
    filler {
      value: 1
    }
    bias_term: true
    bias_filler {
      value: 0
    }
  }
}
layer {
  name: "conv7/relu"
  type: "ReLU"
  bottom: "conv7"
  top: "conv7"
}
layer {
  name: "conv8/dw"
  type: "Convolution"
  bottom: "conv7"
  top: "conv8/dw"
  param {
    lr_mult: 1
    decay_mult: 1
  }
  convolution_param {
    num_output: 512
    bias_term: false
    pad: 1
    kernel_size: 3
    group: 512
    weight_filler {
      type: "msra"
    }
    engine: CAFFE
  }
}
layer {
  name: "conv8/dw/bn"
  type: "BatchNorm"
  bottom: "conv8/dw"
  top: "conv8/dw"
}
layer {
  name: "conv8/dw/scale"
  type: "Scale"
  bottom: "conv8/dw"
  top: "conv8/dw"
  param {
    lr_mult: 1
    decay_mult: 0
  }
  param {
    lr_mult: 2
    decay_mult: 0
  }
  scale_param {
    filler {
      value: 1
    }
    bias_term: true
    bias_filler {
      value: 0
    }
  }
}
layer {
  name: "conv8/dw/relu"
  type: "ReLU"
  bottom: "conv8/dw"
  top: "conv8/dw"
}
layer {
  name: "conv8"
  type: "Convolution"
  bottom: "conv8/dw"
  top: "conv8"
  param {
    lr_mult: 1
    decay_mult: 1
  }
  convolution_param {
    num_output: 512
    bias_term: false
    kernel_size: 1
    weight_filler {
      type: "msra"
    }
  }
}
layer {
  name: "conv8/bn"
  type: "BatchNorm"
  bottom: "conv8"
  top: "conv8"
}
layer {
  name: "conv8/scale"
  type: "Scale"
  bottom: "conv8"
  top: "conv8"
  param {
    lr_mult: 1
    decay_mult: 0
  }
  param {
    lr_mult: 2
    decay_mult: 0
  }
  scale_param {
    filler {
      value: 1
    }
    bias_term: true
    bias_filler {
      value: 0
    }
  }
}
layer {
  name: "conv8/relu"
  type: "ReLU"
  bottom: "conv8"
  top: "conv8"
}
layer {
  name: "conv9/dw"
  type: "Convolution"
  bottom: "conv8"
  top: "conv9/dw"
  param {
    lr_mult: 1
    decay_mult: 1
  }
  convolution_param {
    num_output: 512
    bias_term: false
    pad: 1
    kernel_size: 3
    group: 512
    weight_filler {
      type: "msra"
    }
    engine: CAFFE
  }
}
layer {
  name: "conv9/dw/bn"
  type: "BatchNorm"
  bottom: "conv9/dw"
  top: "conv9/dw"
}
layer {
  name: "conv9/dw/scale"
  type: "Scale"
  bottom: "conv9/dw"
  top: "conv9/dw"
  param {
    lr_mult: 1
    decay_mult: 0
  }
  param {
    lr_mult: 2
    decay_mult: 0
  }
  scale_param {
    filler {
      value: 1
    }
    bias_term: true
    bias_filler {
      value: 0
    }
  }
}
layer {
  name: "conv9/dw/relu"
  type: "ReLU"
  bottom: "conv9/dw"
  top: "conv9/dw"
}
layer {
  name: "conv9"
  type: "Convolution"
  bottom: "conv9/dw"
  top: "conv9"
  param {
    lr_mult: 1
    decay_mult: 1
  }
  convolution_param {
    num_output: 512
    bias_term: false
    kernel_size: 1
    weight_filler {
      type: "msra"
    }
  }
}
layer {
  name: "conv9/bn"
  type: "BatchNorm"
  bottom: "conv9"
  top: "conv9"
}
layer {
  name: "conv9/scale"
  type: "Scale"
  bottom: "conv9"
  top: "conv9"
  param {
    lr_mult: 1
    decay_mult: 0
  }
  param {
    lr_mult: 2
    decay_mult: 0
  }
  scale_param {
    filler {
      value: 1
    }
    bias_term: true
    bias_filler {
      value: 0
    }
  }
}
…
I1014 20:25:29.520922  8556 net.cpp:165] Memory required for data: 1282281504
I1014 20:25:29.520927  8556 layer_factory.hpp:77] Creating layer conv14_1/scale
I1014 20:25:29.520932  8556 net.cpp:100] Creating Layer conv14_1/scale
I1014 20:25:29.520936  8556 net.cpp:434] conv14_1/scale <- conv14_1
I1014 20:25:29.520939  8556 net.cpp:395] conv14_1/scale -> conv14_1 (in-place)
I1014 20:25:29.520967  8556 layer_factory.hpp:77] Creating layer conv14_1/scale
I1014 20:25:29.521039  8556 net.cpp:150] Setting up conv14_1/scale
I1014 20:25:29.521044  8556 net.cpp:157] Top shape: 8 256 10 10 (204800)
I1014 20:25:29.521049  8556 net.cpp:165] Memory required for data: 1283100704
I1014 20:25:29.521052  8556 layer_factory.hpp:77] Creating layer conv14_1/relu
I1014 20:25:29.521059  8556 net.cpp:100] Creating Layer conv14_1/relu
I1014 20:25:29.521061  8556 net.cpp:434] conv14_1/relu <- conv14_1
I1014 20:25:29.521064  8556 net.cpp:395] conv14_1/relu -> conv14_1 (in-place)
I1014 20:25:29.521379  8556 net.cpp:150] Setting up conv14_1/relu
I1014 20:25:29.521386  8556 net.cpp:157] Top shape: 8 256 10 10 (204800)
I1014 20:25:29.521390  8556 net.cpp:165] Memory required for data: 1283919904
I1014 20:25:29.521394  8556 layer_factory.hpp:77] Creating layer conv14_2
I1014 20:25:29.521401  8556 net.cpp:100] Creating Layer conv14_2
I1014 20:25:29.521404  8556 net.cpp:434] conv14_2 <- conv14_1
I1014 20:25:29.521410  8556 net.cpp:408] conv14_2 -> conv14_2
I1014 20:25:29.532941  8556 net.cpp:150] Setting up conv14_2
I1014 20:25:29.532960  8556 net.cpp:157] Top shape: 8 512 5 5 (102400)
I1014 20:25:29.532966  8556 net.cpp:165] Memory required for data: 1284329504
I1014 20:25:29.532972  8556 layer_factory.hpp:77] Creating layer conv14_2/bn
I1014 20:25:29.532980  8556 net.cpp:100] Creating Layer conv14_2/bn
I1014 20:25:29.532985  8556 net.cpp:434] conv14_2/bn <- conv14_2
I1014 20:25:29.532991  8556 net.cpp:395] conv14_2/bn -> conv14_2 (in-place)
I1014 20:25:29.533136  8556 net.cpp:150] Setting up conv14_2/bn
I1014 20:25:29.533143  8556 net.cpp:157] Top shape: 8 512 5 5 (102400)
I1014 20:25:29.533146  8556 net.cpp:165] Memory required for data: 1284739104
I1014 20:25:29.533150  8556 layer_factory.hpp:77] Creating layer conv14_2/scale
I1014 20:25:29.533157  8556 net.cpp:100] Creating Layer conv14_2/scale
I1014 20:25:29.533160  8556 net.cpp:434] conv14_2/scale <- conv14_2
I1014 20:25:29.533164  8556 net.cpp:395] conv14_2/scale -> conv14_2 (in-place)
I1014 20:25:29.533195  8556 layer_factory.hpp:77] Creating layer conv14_2/scale
I1014 20:25:29.533268  8556 net.cpp:150] Setting up conv14_2/scale
I1014 20:25:29.533273  8556 net.cpp:157] Top shape: 8 512 5 5 (102400)
I1014 20:25:29.533277  8556 net.cpp:165] Memory required for data: 1285148704
I1014 20:25:29.533280  8556 layer_factory.hpp:77] Creating layer conv14_2/relu
I1014 20:25:29.533285  8556 net.cpp:100] Creating Layer conv14_2/relu
I1014 20:25:29.533288  8556 net.cpp:434] conv14_2/relu <- conv14_2
I1014 20:25:29.533293  8556 net.cpp:395] conv14_2/relu -> conv14_2 (in-place)
I1014 20:25:29.533718  8556 net.cpp:150] Setting up conv14_2/relu
I1014 20:25:29.533726  8556 net.cpp:157] Top shape: 8 512 5 5 (102400)
I1014 20:25:29.533730  8556 net.cpp:165] Memory required for data: 1285558304
I1014 20:25:29.533753  8556 layer_factory.hpp:77] Creating layer conv14_2_conv14_2/relu_0_split
I1014 20:25:29.533761  8556 net.cpp:100] Creating Layer conv14_2_conv14_2/relu_0_split
I1014 20:25:29.533764  8556 net.cpp:434] conv14_2_conv14_2/relu_0_split <- conv14_2
I1014 20:25:29.533769  8556 net.cpp:408] conv14_2_conv14_2/relu_0_split -> conv14_2_conv14_2/relu_0_split_0
I1014 20:25:29.533776  8556 net.cpp:408] conv14_2_conv14_2/relu_0_split -> conv14_2_conv14_2/relu_0_split_1
I1014 20:25:29.533780  8556 net.cpp:408] conv14_2_conv14_2/relu_0_split -> conv14_2_conv14_2/relu_0_split_2
I1014 20:25:29.533784  8556 net.cpp:408] conv14_2_conv14_2/relu_0_split -> conv14_2_conv14_2/relu_0_split_3
I1014 20:25:29.533830  8556 net.cpp:150] Setting up conv14_2_conv14_2/relu_0_split
I1014 20:25:29.533835  8556 net.cpp:157] Top shape: 8 512 5 5 (102400)
I1014 20:25:29.533839  8556 net.cpp:157] Top shape: 8 512 5 5 (102400)
I1014 20:25:29.533843  8556 net.cpp:157] Top shape: 8 512 5 5 (102400)
I1014 20:25:29.533845  8556 net.cpp:157] Top shape: 8 512 5 5 (102400)
I1014 20:25:29.533849  8556 net.cpp:165] Memory required for data: 1287196704
I1014 20:25:29.533851  8556 layer_factory.hpp:77] Creating layer conv15_1
I1014 20:25:29.533859  8556 net.cpp:100] Creating Layer conv15_1
I1014 20:25:29.533862  8556 net.cpp:434] conv15_1 <- conv14_2_conv14_2/relu_0_split_0
I1014 20:25:29.533869  8556 net.cpp:408] conv15_1 -> conv15_1
I1014 20:25:29.535773  8556 net.cpp:150] Setting up conv15_1
I1014 20:25:29.535782  8556 net.cpp:157] Top shape: 8 128 5 5 (25600)
I1014 20:25:29.535787  8556 net.cpp:165] Memory required for data: 1287299104
I1014 20:25:29.535792  8556 layer_factory.hpp:77] Creating layer conv15_1/bn
I1014 20:25:29.535799  8556 net.cpp:100] Creating Layer conv15_1/bn
I1014 20:25:29.535802  8556 net.cpp:434] conv15_1/bn <- conv15_1
I1014 20:25:29.535805  8556 net.cpp:395] conv15_1/bn -> conv15_1 (in-place)
I1014 20:25:29.535933  8556 net.cpp:150] Setting up conv15_1/bn
I1014 20:25:29.535939  8556 net.cpp:157] Top shape: 8 128 5 5 (25600)
I1014 20:25:29.535943  8556 net.cpp:165] Memory required for data: 1287401504
I1014 20:25:29.535948  8556 layer_factory.hpp:77] Creating layer conv15_1/scale
I1014 20:25:29.535953  8556 net.cpp:100] Creating Layer conv15_1/scale
I1014 20:25:29.535956  8556 net.cpp:434] conv15_1/scale <- conv15_1
I1014 20:25:29.535960  8556 net.cpp:395] conv15_1/scale -> conv15_1 (in-place)
I1014 20:25:29.535987  8556 layer_factory.hpp:77] Creating layer conv15_1/scale
I1014 20:25:29.536059  8556 net.cpp:150] Setting up conv15_1/scale
I1014 20:25:29.536063  8556 net.cpp:157] Top shape: 8 128 5 5 (25600)
I1014 20:25:29.536067  8556 net.cpp:165] Memory required for data: 1287503904
I1014 20:25:29.536072  8556 layer_factory.hpp:77] Creating layer conv15_1/relu
I1014 20:25:29.536075  8556 net.cpp:100] Creating Layer conv15_1/relu
I1014 20:25:29.536078  8556 net.cpp:434] conv15_1/relu <- conv15_1
I1014 20:25:29.536083  8556 net.cpp:395] conv15_1/relu -> conv15_1 (in-place)
I1014 20:25:29.537289  8556 net.cpp:150] Setting up conv15_1/relu
I1014 20:25:29.537297  8556 net.cpp:157] Top shape: 8 128 5 5 (25600)
I1014 20:25:29.537302  8556 net.cpp:165] Memory required for data: 1287606304
I1014 20:25:29.537304  8556 layer_factory.hpp:77] Creating layer conv15_2
I1014 20:25:29.537312  8556 net.cpp:100] Creating Layer conv15_2
I1014 20:25:29.537317  8556 net.cpp:434] conv15_2 <- conv15_1
I1014 20:25:29.537320  8556 net.cpp:408] conv15_2 -> conv15_2
I1014 20:25:29.542346  8556 net.cpp:150] Setting up conv15_2
I1014 20:25:29.542368  8556 net.cpp:157] Top shape: 8 256 3 3 (18432)
I1014 20:25:29.542376  8556 net.cpp:165] Memory required for data: 1287680032
I1014 20:25:29.542384  8556 layer_factory.hpp:77] Creating layer conv15_2/bn
I1014 20:25:29.542394  8556 net.cpp:100] Creating Layer conv15_2/bn
I1014 20:25:29.542399  8556 net.cpp:434] conv15_2/bn <- conv15_2
I1014 20:25:29.542404  8556 net.cpp:395] conv15_2/bn -> conv15_2 (in-place)
I1014 20:25:29.542562  8556 net.cpp:150] Setting up conv15_2/bn
I1014 20:25:29.542582  8556 net.cpp:157] Top shape: 8 256 3 3 (18432)
I1014 20:25:29.542585  8556 net.cpp:165] Memory required for data: 1287753760
I1014 20:25:29.542590  8556 layer_factory.hpp:77] Creating layer conv15_2/scale
I1014 20:25:29.542598  8556 net.cpp:100] Creating Layer conv15_2/scale
I1014 20:25:29.542600  8556 net.cpp:434] conv15_2/scale <- conv15_2
I1014 20:25:29.542604  8556 net.cpp:395] conv15_2/scale -> conv15_2 (in-place)
I1014 20:25:29.542634  8556 layer_factory.hpp:77] Creating layer conv15_2/scale
I1014 20:25:29.542706  8556 net.cpp:150] Setting up conv15_2/scale
I1014 20:25:29.542711  8556 net.cpp:157] Top shape: 8 256 3 3 (18432)
I1014 20:25:29.542714  8556 net.cpp:165] Memory required for data: 1287827488
I1014 20:25:29.542718  8556 layer_factory.hpp:77] Creating layer conv15_2/relu
I1014 20:25:29.542727  8556 net.cpp:100] Creating Layer conv15_2/relu
I1014 20:25:29.542731  8556 net.cpp:434] conv15_2/relu <- conv15_2
I1014 20:25:29.542734  8556 net.cpp:395] conv15_2/relu -> conv15_2 (in-place)
I1014 20:25:29.543185  8556 net.cpp:150] Setting up conv15_2/relu
I1014 20:25:29.543193  8556 net.cpp:157] Top shape: 8 256 3 3 (18432)
I1014 20:25:29.543198  8556 net.cpp:165] Memory required for data: 1287901216
I1014 20:25:29.543202  8556 layer_factory.hpp:77] Creating layer conv15_2_conv15_2/relu_0_split
I1014 20:25:29.543210  8556 net.cpp:100] Creating Layer conv15_2_conv15_2/relu_0_split
I1014 20:25:29.543212  8556 net.cpp:434] conv15_2_conv15_2/relu_0_split <- conv15_2
I1014 20:25:29.543216  8556 net.cpp:408] conv15_2_conv15_2/relu_0_split -> conv15_2_conv15_2/relu_0_split_0
I1014 20:25:29.543222  8556 net.cpp:408] conv15_2_conv15_2/relu_0_split -> conv15_2_conv15_2/relu_0_split_1
I1014 20:25:29.543227  8556 net.cpp:408] conv15_2_conv15_2/relu_0_split -> conv15_2_conv15_2/relu_0_split_2
I1014 20:25:29.543231  8556 net.cpp:408] conv15_2_conv15_2/relu_0_split -> conv15_2_conv15_2/relu_0_split_3
I1014 20:25:29.543277  8556 net.cpp:150] Setting up conv15_2_conv15_2/relu_0_split
I1014 20:25:29.543282  8556 net.cpp:157] Top shape: 8 256 3 3 (18432)
I1014 20:25:29.543285  8556 net.cpp:157] Top shape: 8 256 3 3 (18432)
I1014 20:25:29.543288  8556 net.cpp:157] Top shape: 8 256 3 3 (18432)
I1014 20:25:29.543292  8556 net.cpp:157] Top shape: 8 256 3 3 (18432)
I1014 20:25:29.543294  8556 net.cpp:165] Memory required for data: 1288196128
I1014 20:25:29.543298  8556 layer_factory.hpp:77] Creating layer conv16_1
I1014 20:25:29.543303  8556 net.cpp:100] Creating Layer conv16_1
I1014 20:25:29.543306  8556 net.cpp:434] conv16_1 <- conv15_2_conv15_2/relu_0_split_0
I1014 20:25:29.543311  8556 net.cpp:408] conv16_1 -> conv16_1
I1014 20:25:29.544855  8556 net.cpp:150] Setting up conv16_1
I1014 20:25:29.544867  8556 net.cpp:157] Top shape: 8 128 3 3 (9216)
I1014 20:25:29.544872  8556 net.cpp:165] Memory required for data: 1288232992
I1014 20:25:29.544878  8556 layer_factory.hpp:77] Creating layer conv16_1/bn
I1014 20:25:29.544883  8556 net.cpp:100] Creating Layer conv16_1/bn
I1014 20:25:29.544885  8556 net.cpp:434] conv16_1/bn <- conv16_1
I1014 20:25:29.544890  8556 net.cpp:395] conv16_1/bn -> conv16_1 (in-place)
I1014 20:25:29.545022  8556 net.cpp:150] Setting up conv16_1/bn
I1014 20:25:29.545027  8556 net.cpp:157] Top shape: 8 128 3 3 (9216)
I1014 20:25:29.545029  8556 net.cpp:165] Memory required for data: 1288269856
I1014 20:25:29.545034  8556 layer_factory.hpp:77] Creating layer conv16_1/scale
I1014 20:25:29.545042  8556 net.cpp:100] Creating Layer conv16_1/scale
I1014 20:25:29.545044  8556 net.cpp:434] conv16_1/scale <- conv16_1
I1014 20:25:29.545047  8556 net.cpp:395] conv16_1/scale -> conv16_1 (in-place)
I1014 20:25:29.545078  8556 layer_factory.hpp:77] Creating layer conv16_1/scale
I1014 20:25:29.545150  8556 net.cpp:150] Setting up conv16_1/scale
I1014 20:25:29.545156  8556 net.cpp:157] Top shape: 8 128 3 3 (9216)
I1014 20:25:29.545159  8556 net.cpp:165] Memory required for data: 1288306720
I1014 20:25:29.545163  8556 layer_factory.hpp:77] Creating layer conv16_1/relu
I1014 20:25:29.545169  8556 net.cpp:100] Creating Layer conv16_1/relu
I1014 20:25:29.545186  8556 net.cpp:434] conv16_1/relu <- conv16_1
I1014 20:25:29.545189  8556 net.cpp:395] conv16_1/relu -> conv16_1 (in-place)
I1014 20:25:29.545632  8556 net.cpp:150] Setting up conv16_1/relu
I1014 20:25:29.545640  8556 net.cpp:157] Top shape: 8 128 3 3 (9216)
I1014 20:25:29.545645  8556 net.cpp:165] Memory required for data: 1288343584
I1014 20:25:29.545648  8556 layer_factory.hpp:77] Creating layer conv16_2
I1014 20:25:29.545657  8556 net.cpp:100] Creating Layer conv16_2
I1014 20:25:29.545661  8556 net.cpp:434] conv16_2 <- conv16_1
I1014 20:25:29.545665  8556 net.cpp:408] conv16_2 -> conv16_2
I1014 20:25:29.549631  8556 net.cpp:150] Setting up conv16_2
I1014 20:25:29.549645  8556 net.cpp:157] Top shape: 8 256 2 2 (8192)
I1014 20:25:29.549651  8556 net.cpp:165] Memory required for data: 1288376352
I1014 20:25:29.549657  8556 layer_factory.hpp:77] Creating layer conv16_2/bn
I1014 20:25:29.549664  8556 net.cpp:100] Creating Layer conv16_2/bn
I1014 20:25:29.549667  8556 net.cpp:434] conv16_2/bn <- conv16_2
I1014 20:25:29.549672  8556 net.cpp:395] conv16_2/bn -> conv16_2 (in-place)
I1014 20:25:29.549803  8556 net.cpp:150] Setting up conv16_2/bn
I1014 20:25:29.549808  8556 net.cpp:157] Top shape: 8 256 2 2 (8192)
I1014 20:25:29.549813  8556 net.cpp:165] Memory required for data: 1288409120
I1014 20:25:29.549816  8556 layer_factory.hpp:77] Creating layer conv16_2/scale
I1014 20:25:29.549823  8556 net.cpp:100] Creating Layer conv16_2/scale
I1014 20:25:29.549825  8556 net.cpp:434] conv16_2/scale <- conv16_2
I1014 20:25:29.549830  8556 net.cpp:395] conv16_2/scale -> conv16_2 (in-place)
I1014 20:25:29.549860  8556 layer_factory.hpp:77] Creating layer conv16_2/scale
I1014 20:25:29.549930  8556 net.cpp:150] Setting up conv16_2/scale
I1014 20:25:29.549937  8556 net.cpp:157] Top shape: 8 256 2 2 (8192)
I1014 20:25:29.549939  8556 net.cpp:165] Memory required for data: 1288441888
I1014 20:25:29.549943  8556 layer_factory.hpp:77] Creating layer conv16_2/relu
I1014 20:25:29.549948  8556 net.cpp:100] Creating Layer conv16_2/relu
I1014 20:25:29.549954  8556 net.cpp:434] conv16_2/relu <- conv16_2
I1014 20:25:29.549957  8556 net.cpp:395] conv16_2/relu -> conv16_2 (in-place)
I1014 20:25:29.550272  8556 net.cpp:150] Setting up conv16_2/relu
I1014 20:25:29.550279  8556 net.cpp:157] Top shape: 8 256 2 2 (8192)
I1014 20:25:29.550283  8556 net.cpp:165] Memory required for data: 1288474656
I1014 20:25:29.550287  8556 layer_factory.hpp:77] Creating layer conv16_2_conv16_2/relu_0_split
I1014 20:25:29.550292  8556 net.cpp:100] Creating Layer conv16_2_conv16_2/relu_0_split
I1014 20:25:29.550295  8556 net.cpp:434] conv16_2_conv16_2/relu_0_split <- conv16_2
I1014 20:25:29.550300  8556 net.cpp:408] conv16_2_conv16_2/relu_0_split -> conv16_2_conv16_2/relu_0_split_0
I1014 20:25:29.550307  8556 net.cpp:408] conv16_2_conv16_2/relu_0_split -> conv16_2_conv16_2/relu_0_split_1
I1014 20:25:29.550312  8556 net.cpp:408] conv16_2_conv16_2/relu_0_split -> conv16_2_conv16_2/relu_0_split_2
I1014 20:25:29.550315  8556 net.cpp:408] conv16_2_conv16_2/relu_0_split -> conv16_2_conv16_2/relu_0_split_3
I1014 20:25:29.550359  8556 net.cpp:150] Setting up conv16_2_conv16_2/relu_0_split
I1014 20:25:29.550364  8556 net.cpp:157] Top shape: 8 256 2 2 (8192)
I1014 20:25:29.550369  8556 net.cpp:157] Top shape: 8 256 2 2 (8192)
I1014 20:25:29.550371  8556 net.cpp:157] Top shape: 8 256 2 2 (8192)
I1014 20:25:29.550374  8556 net.cpp:157] Top shape: 8 256 2 2 (8192)
I1014 20:25:29.550377  8556 net.cpp:165] Memory required for data: 1288605728
I1014 20:25:29.550380  8556 layer_factory.hpp:77] Creating layer conv17_1
I1014 20:25:29.550386  8556 net.cpp:100] Creating Layer conv17_1
I1014 20:25:29.550390  8556 net.cpp:434] conv17_1 <- conv16_2_conv16_2/relu_0_split_0
I1014 20:25:29.550393  8556 net.cpp:408] conv17_1 -> conv17_1
I1014 20:25:29.553084  8556 net.cpp:150] Setting up conv17_1
I1014 20:25:29.553100  8556 net.cpp:157] Top shape: 8 64 2 2 (2048)
I1014 20:25:29.553107  8556 net.cpp:165] Memory required for data: 1288613920
I1014 20:25:29.553146  8556 layer_factory.hpp:77] Creating layer conv17_1/bn
I1014 20:25:29.553155  8556 net.cpp:100] Creating Layer conv17_1/bn
I1014 20:25:29.553159  8556 net.cpp:434] conv17_1/bn <- conv17_1
I1014 20:25:29.553164  8556 net.cpp:395] conv17_1/bn -> conv17_1 (in-place)
I1014 20:25:29.553310  8556 net.cpp:150] Setting up conv17_1/bn
I1014 20:25:29.553315  8556 net.cpp:157] Top shape: 8 64 2 2 (2048)
I1014 20:25:29.553319  8556 net.cpp:165] Memory required for data: 1288622112
I1014 20:25:29.553324  8556 layer_factory.hpp:77] Creating layer conv17_1/scale
I1014 20:25:29.553330  8556 net.cpp:100] Creating Layer conv17_1/scale
I1014 20:25:29.553333  8556 net.cpp:434] conv17_1/scale <- conv17_1
I1014 20:25:29.553337  8556 net.cpp:395] conv17_1/scale -> conv17_1 (in-place)
I1014 20:25:29.553367  8556 layer_factory.hpp:77] Creating layer conv17_1/scale
I1014 20:25:29.553444  8556 net.cpp:150] Setting up conv17_1/scale
I1014 20:25:29.553448  8556 net.cpp:157] Top shape: 8 64 2 2 (2048)
I1014 20:25:29.553452  8556 net.cpp:165] Memory required for data: 1288630304
I1014 20:25:29.553455  8556 layer_factory.hpp:77] Creating layer conv17_1/relu
I1014 20:25:29.553462  8556 net.cpp:100] Creating Layer conv17_1/relu
I1014 20:25:29.553464  8556 net.cpp:434] conv17_1/relu <- conv17_1
I1014 20:25:29.553467  8556 net.cpp:395] conv17_1/relu -> conv17_1 (in-place)
I1014 20:25:29.553903  8556 net.cpp:150] Setting up conv17_1/relu
I1014 20:25:29.553911  8556 net.cpp:157] Top shape: 8 64 2 2 (2048)
I1014 20:25:29.553915  8556 net.cpp:165] Memory required for data: 1288638496
I1014 20:25:29.553917  8556 layer_factory.hpp:77] Creating layer conv17_2
I1014 20:25:29.553925  8556 net.cpp:100] Creating Layer conv17_2
I1014 20:25:29.553928  8556 net.cpp:434] conv17_2 <- conv17_1
I1014 20:25:29.553933  8556 net.cpp:408] conv17_2 -> conv17_2
I1014 20:25:29.555732  8556 net.cpp:150] Setting up conv17_2
I1014 20:25:29.555742  8556 net.cpp:157] Top shape: 8 128 1 1 (1024)
I1014 20:25:29.555747  8556 net.cpp:165] Memory required for data: 1288642592
I1014 20:25:29.555750  8556 layer_factory.hpp:77] Creating layer conv17_2/bn
I1014 20:25:29.555757  8556 net.cpp:100] Creating Layer conv17_2/bn
I1014 20:25:29.555761  8556 net.cpp:434] conv17_2/bn <- conv17_2
I1014 20:25:29.555765  8556 net.cpp:395] conv17_2/bn -> conv17_2 (in-place)
I1014 20:25:29.555892  8556 net.cpp:150] Setting up conv17_2/bn
I1014 20:25:29.555897  8556 net.cpp:157] Top shape: 8 128 1 1 (1024)
I1014 20:25:29.555900  8556 net.cpp:165] Memory required for data: 1288646688
I1014 20:25:29.555905  8556 layer_factory.hpp:77] Creating layer conv17_2/scale
I1014 20:25:29.555912  8556 net.cpp:100] Creating Layer conv17_2/scale
I1014 20:25:29.555914  8556 net.cpp:434] conv17_2/scale <- conv17_2
I1014 20:25:29.555918  8556 net.cpp:395] conv17_2/scale -> conv17_2 (in-place)
I1014 20:25:29.555944  8556 layer_factory.hpp:77] Creating layer conv17_2/scale
I1014 20:25:29.556013  8556 net.cpp:150] Setting up conv17_2/scale
I1014 20:25:29.556018  8556 net.cpp:157] Top shape: 8 128 1 1 (1024)
I1014 20:25:29.556022  8556 net.cpp:165] Memory required for data: 1288650784
I1014 20:25:29.556026  8556 layer_factory.hpp:77] Creating layer conv17_2/relu
I1014 20:25:29.556030  8556 net.cpp:100] Creating Layer conv17_2/relu
I1014 20:25:29.556033  8556 net.cpp:434] conv17_2/relu <- conv17_2
I1014 20:25:29.556038  8556 net.cpp:395] conv17_2/relu -> conv17_2 (in-place)
I1014 20:25:29.556463  8556 net.cpp:150] Setting up conv17_2/relu
I1014 20:25:29.556470  8556 net.cpp:157] Top shape: 8 128 1 1 (1024)
I1014 20:25:29.556474  8556 net.cpp:165] Memory required for data: 1288654880
I1014 20:25:29.556478  8556 layer_factory.hpp:77] Creating layer conv17_2_conv17_2/relu_0_split
I1014 20:25:29.556484  8556 net.cpp:100] Creating Layer conv17_2_conv17_2/relu_0_split
I1014 20:25:29.556488  8556 net.cpp:434] conv17_2_conv17_2/relu_0_split <- conv17_2
I1014 20:25:29.556491  8556 net.cpp:408] conv17_2_conv17_2/relu_0_split -> conv17_2_conv17_2/relu_0_split_0
I1014 20:25:29.556502  8556 net.cpp:408] conv17_2_conv17_2/relu_0_split -> conv17_2_conv17_2/relu_0_split_1
I1014 20:25:29.556520  8556 net.cpp:408] conv17_2_conv17_2/relu_0_split -> conv17_2_conv17_2/relu_0_split_2
I1014 20:25:29.556560  8556 net.cpp:150] Setting up conv17_2_conv17_2/relu_0_split
I1014 20:25:29.556565  8556 net.cpp:157] Top shape: 8 128 1 1 (1024)
I1014 20:25:29.556568  8556 net.cpp:157] Top shape: 8 128 1 1 (1024)
I1014 20:25:29.556571  8556 net.cpp:157] Top shape: 8 128 1 1 (1024)
I1014 20:25:29.556574  8556 net.cpp:165] Memory required for data: 1288667168
I1014 20:25:29.556576  8556 layer_factory.hpp:77] Creating layer conv11_mbox_loc
I1014 20:25:29.556584  8556 net.cpp:100] Creating Layer conv11_mbox_loc
I1014 20:25:29.556587  8556 net.cpp:434] conv11_mbox_loc <- conv11_conv11/relu_0_split_1
I1014 20:25:29.556592  8556 net.cpp:408] conv11_mbox_loc -> conv11_mbox_loc
I1014 20:25:29.559186  8556 net.cpp:150] Setting up conv11_mbox_loc
I1014 20:25:29.559199  8556 net.cpp:157] Top shape: 8 12 19 19 (34656)
I1014 20:25:29.559206  8556 net.cpp:165] Memory required for data: 1288805792
I1014 20:25:29.559212  8556 layer_factory.hpp:77] Creating layer conv11_mbox_loc_perm
I1014 20:25:29.559221  8556 net.cpp:100] Creating Layer conv11_mbox_loc_perm
I1014 20:25:29.559226  8556 net.cpp:434] conv11_mbox_loc_perm <- conv11_mbox_loc
I1014 20:25:29.559231  8556 net.cpp:408] conv11_mbox_loc_perm -> conv11_mbox_loc_perm
I1014 20:25:29.559310  8556 net.cpp:150] Setting up conv11_mbox_loc_perm
I1014 20:25:29.559315  8556 net.cpp:157] Top shape: 8 19 19 12 (34656)
I1014 20:25:29.559319  8556 net.cpp:165] Memory required for data: 1288944416
I1014 20:25:29.559321  8556 layer_factory.hpp:77] Creating layer conv11_mbox_loc_flat
I1014 20:25:29.559327  8556 net.cpp:100] Creating Layer conv11_mbox_loc_flat
I1014 20:25:29.559330  8556 net.cpp:434] conv11_mbox_loc_flat <- conv11_mbox_loc_perm
I1014 20:25:29.559334  8556 net.cpp:408] conv11_mbox_loc_flat -> conv11_mbox_loc_flat
I1014 20:25:29.559350  8556 net.cpp:150] Setting up conv11_mbox_loc_flat
I1014 20:25:29.559355  8556 net.cpp:157] Top shape: 8 4332 (34656)
I1014 20:25:29.559358  8556 net.cpp:165] Memory required for data: 1289083040
I1014 20:25:29.559361  8556 layer_factory.hpp:77] Creating layer conv11_mbox_conf_new
I1014 20:25:29.559368  8556 net.cpp:100] Creating Layer conv11_mbox_conf_new
I1014 20:25:29.559381  8556 net.cpp:434] conv11_mbox_conf_new <- conv11_conv11/relu_0_split_2
I1014 20:25:29.559386  8556 net.cpp:408] conv11_mbox_conf_new -> conv11_mbox_conf
I1014 20:25:29.560873  8556 net.cpp:150] Setting up conv11_mbox_conf_new
I1014 20:25:29.560883  8556 net.cpp:157] Top shape: 8 6 19 19 (17328)
I1014 20:25:29.560887  8556 net.cpp:165] Memory required for data: 1289152352
I1014 20:25:29.560892  8556 layer_factory.hpp:77] Creating layer conv11_mbox_conf_perm
I1014 20:25:29.560899  8556 net.cpp:100] Creating Layer conv11_mbox_conf_perm
I1014 20:25:29.560902  8556 net.cpp:434] conv11_mbox_conf_perm <- conv11_mbox_conf
I1014 20:25:29.560906  8556 net.cpp:408] conv11_mbox_conf_perm -> conv11_mbox_conf_perm
I1014 20:25:29.560976  8556 net.cpp:150] Setting up conv11_mbox_conf_perm
I1014 20:25:29.560981  8556 net.cpp:157] Top shape: 8 19 19 6 (17328)
I1014 20:25:29.560986  8556 net.cpp:165] Memory required for data: 1289221664
I1014 20:25:29.560987  8556 layer_factory.hpp:77] Creating layer conv11_mbox_conf_flat
I1014 20:25:29.560992  8556 net.cpp:100] Creating Layer conv11_mbox_conf_flat
I1014 20:25:29.560995  8556 net.cpp:434] conv11_mbox_conf_flat <- conv11_mbox_conf_perm
I1014 20:25:29.560998  8556 net.cpp:408] conv11_mbox_conf_flat -> conv11_mbox_conf_flat
I1014 20:25:29.561015  8556 net.cpp:150] Setting up conv11_mbox_conf_flat
I1014 20:25:29.561018  8556 net.cpp:157] Top shape: 8 2166 (17328)
I1014 20:25:29.561022  8556 net.cpp:165] Memory required for data: 1289290976
I1014 20:25:29.561024  8556 layer_factory.hpp:77] Creating layer conv11_mbox_priorbox
I1014 20:25:29.561029  8556 net.cpp:100] Creating Layer conv11_mbox_priorbox
I1014 20:25:29.561033  8556 net.cpp:434] conv11_mbox_priorbox <- conv11_conv11/relu_0_split_3
I1014 20:25:29.561053  8556 net.cpp:434] conv11_mbox_priorbox <- data_data_0_split_1
I1014 20:25:29.561058  8556 net.cpp:408] conv11_mbox_priorbox -> conv11_mbox_priorbox
I1014 20:25:29.561081  8556 net.cpp:150] Setting up conv11_mbox_priorbox
I1014 20:25:29.561086  8556 net.cpp:157] Top shape: 1 2 4332 (8664)
I1014 20:25:29.561089  8556 net.cpp:165] Memory required for data: 1289325632
I1014 20:25:29.561092  8556 layer_factory.hpp:77] Creating layer conv13_mbox_loc
I1014 20:25:29.561100  8556 net.cpp:100] Creating Layer conv13_mbox_loc
I1014 20:25:29.561103  8556 net.cpp:434] conv13_mbox_loc <- conv13_conv13/relu_0_split_1
I1014 20:25:29.561108  8556 net.cpp:408] conv13_mbox_loc -> conv13_mbox_loc
I1014 20:25:29.562609  8556 net.cpp:150] Setting up conv13_mbox_loc
I1014 20:25:29.562618  8556 net.cpp:157] Top shape: 8 24 10 10 (19200)
I1014 20:25:29.562623  8556 net.cpp:165] Memory required for data: 1289402432
I1014 20:25:29.562628  8556 layer_factory.hpp:77] Creating layer conv13_mbox_loc_perm
I1014 20:25:29.562634  8556 net.cpp:100] Creating Layer conv13_mbox_loc_perm
I1014 20:25:29.562638  8556 net.cpp:434] conv13_mbox_loc_perm <- conv13_mbox_loc
I1014 20:25:29.562642  8556 net.cpp:408] conv13_mbox_loc_perm -> conv13_mbox_loc_perm
I1014 20:25:29.562711  8556 net.cpp:150] Setting up conv13_mbox_loc_perm
I1014 20:25:29.562716  8556 net.cpp:157] Top shape: 8 10 10 24 (19200)
I1014 20:25:29.562721  8556 net.cpp:165] Memory required for data: 1289479232
I1014 20:25:29.562723  8556 layer_factory.hpp:77] Creating layer conv13_mbox_loc_flat
I1014 20:25:29.562727  8556 net.cpp:100] Creating Layer conv13_mbox_loc_flat
I1014 20:25:29.562731  8556 net.cpp:434] conv13_mbox_loc_flat <- conv13_mbox_loc_perm
I1014 20:25:29.562736  8556 net.cpp:408] conv13_mbox_loc_flat -> conv13_mbox_loc_flat
I1014 20:25:29.562752  8556 net.cpp:150] Setting up conv13_mbox_loc_flat
I1014 20:25:29.562757  8556 net.cpp:157] Top shape: 8 2400 (19200)
I1014 20:25:29.562762  8556 net.cpp:165] Memory required for data: 1289556032
I1014 20:25:29.562763  8556 layer_factory.hpp:77] Creating layer conv13_mbox_conf_new
I1014 20:25:29.562770  8556 net.cpp:100] Creating Layer conv13_mbox_conf_new
I1014 20:25:29.562774  8556 net.cpp:434] conv13_mbox_conf_new <- conv13_conv13/relu_0_split_2
I1014 20:25:29.562778  8556 net.cpp:408] conv13_mbox_conf_new -> conv13_mbox_conf
I1014 20:25:29.565459  8556 net.cpp:150] Setting up conv13_mbox_conf_new
I1014 20:25:29.565472  8556 net.cpp:157] Top shape: 8 12 10 10 (9600)
I1014 20:25:29.565477  8556 net.cpp:165] Memory required for data: 1289594432
I1014 20:25:29.565485  8556 layer_factory.hpp:77] Creating layer conv13_mbox_conf_perm
I1014 20:25:29.565490  8556 net.cpp:100] Creating Layer conv13_mbox_conf_perm
I1014 20:25:29.565495  8556 net.cpp:434] conv13_mbox_conf_perm <- conv13_mbox_conf
I1014 20:25:29.565501  8556 net.cpp:408] conv13_mbox_conf_perm -> conv13_mbox_conf_perm
I1014 20:25:29.565573  8556 net.cpp:150] Setting up conv13_mbox_conf_perm
I1014 20:25:29.565578  8556 net.cpp:157] Top shape: 8 10 10 12 (9600)
I1014 20:25:29.565582  8556 net.cpp:165] Memory required for data: 1289632832
I1014 20:25:29.565584  8556 layer_factory.hpp:77] Creating layer conv13_mbox_conf_flat
I1014 20:25:29.565590  8556 net.cpp:100] Creating Layer conv13_mbox_conf_flat
I1014 20:25:29.565593  8556 net.cpp:434] conv13_mbox_conf_flat <- conv13_mbox_conf_perm
I1014 20:25:29.565598  8556 net.cpp:408] conv13_mbox_conf_flat -> conv13_mbox_conf_flat
I1014 20:25:29.565613  8556 net.cpp:150] Setting up conv13_mbox_conf_flat
I1014 20:25:29.565616  8556 net.cpp:157] Top shape: 8 1200 (9600)
I1014 20:25:29.565619  8556 net.cpp:165] Memory required for data: 1289671232
I1014 20:25:29.565621  8556 layer_factory.hpp:77] Creating layer conv13_mbox_priorbox
I1014 20:25:29.565629  8556 net.cpp:100] Creating Layer conv13_mbox_priorbox
I1014 20:25:29.565631  8556 net.cpp:434] conv13_mbox_priorbox <- conv13_conv13/relu_0_split_3
I1014 20:25:29.565635  8556 net.cpp:434] conv13_mbox_priorbox <- data_data_0_split_2
I1014 20:25:29.565639  8556 net.cpp:408] conv13_mbox_priorbox -> conv13_mbox_priorbox
I1014 20:25:29.565675  8556 net.cpp:150] Setting up conv13_mbox_priorbox
I1014 20:25:29.565678  8556 net.cpp:157] Top shape: 1 2 2400 (4800)
I1014 20:25:29.565682  8556 net.cpp:165] Memory required for data: 1289690432
I1014 20:25:29.565685  8556 layer_factory.hpp:77] Creating layer conv14_2_mbox_loc
I1014 20:25:29.565695  8556 net.cpp:100] Creating Layer conv14_2_mbox_loc
I1014 20:25:29.565698  8556 net.cpp:434] conv14_2_mbox_loc <- conv14_2_conv14_2/relu_0_split_1
I1014 20:25:29.565702  8556 net.cpp:408] conv14_2_mbox_loc -> conv14_2_mbox_loc
I1014 20:25:29.567147  8556 net.cpp:150] Setting up conv14_2_mbox_loc
I1014 20:25:29.567157  8556 net.cpp:157] Top shape: 8 24 5 5 (4800)
I1014 20:25:29.567160  8556 net.cpp:165] Memory required for data: 1289709632
I1014 20:25:29.567165  8556 layer_factory.hpp:77] Creating layer conv14_2_mbox_loc_perm
I1014 20:25:29.567170  8556 net.cpp:100] Creating Layer conv14_2_mbox_loc_perm
I1014 20:25:29.567174  8556 net.cpp:434] conv14_2_mbox_loc_perm <- conv14_2_mbox_loc
I1014 20:25:29.567178  8556 net.cpp:408] conv14_2_mbox_loc_perm -> conv14_2_mbox_loc_perm
I1014 20:25:29.567251  8556 net.cpp:150] Setting up conv14_2_mbox_loc_perm
I1014 20:25:29.567257  8556 net.cpp:157] Top shape: 8 5 5 24 (4800)
I1014 20:25:29.567260  8556 net.cpp:165] Memory required for data: 1289728832
I1014 20:25:29.567263  8556 layer_factory.hpp:77] Creating layer conv14_2_mbox_loc_flat
I1014 20:25:29.567270  8556 net.cpp:100] Creating Layer conv14_2_mbox_loc_flat
I1014 20:25:29.567275  8556 net.cpp:434] conv14_2_mbox_loc_flat <- conv14_2_mbox_loc_perm
I1014 20:25:29.567277  8556 net.cpp:408] conv14_2_mbox_loc_flat -> conv14_2_mbox_loc_flat
I1014 20:25:29.567293  8556 net.cpp:150] Setting up conv14_2_mbox_loc_flat
I1014 20:25:29.567298  8556 net.cpp:157] Top shape: 8 600 (4800)
I1014 20:25:29.567301  8556 net.cpp:165] Memory required for data: 1289748032
I1014 20:25:29.567303  8556 layer_factory.hpp:77] Creating layer conv14_2_mbox_conf_new
I1014 20:25:29.567310  8556 net.cpp:100] Creating Layer conv14_2_mbox_conf_new
I1014 20:25:29.567314  8556 net.cpp:434] conv14_2_mbox_conf_new <- conv14_2_conv14_2/relu_0_split_2
I1014 20:25:29.567319  8556 net.cpp:408] conv14_2_mbox_conf_new -> conv14_2_mbox_conf
I1014 20:25:29.568698  8556 net.cpp:150] Setting up conv14_2_mbox_conf_new
I1014 20:25:29.568707  8556 net.cpp:157] Top shape: 8 12 5 5 (2400)
I1014 20:25:29.568712  8556 net.cpp:165] Memory required for data: 1289757632
I1014 20:25:29.568717  8556 layer_factory.hpp:77] Creating layer conv14_2_mbox_conf_perm
I1014 20:25:29.568722  8556 net.cpp:100] Creating Layer conv14_2_mbox_conf_perm
I1014 20:25:29.568729  8556 net.cpp:434] conv14_2_mbox_conf_perm <- conv14_2_mbox_conf
I1014 20:25:29.568733  8556 net.cpp:408] conv14_2_mbox_conf_perm -> conv14_2_mbox_conf_perm
I1014 20:25:29.568802  8556 net.cpp:150] Setting up conv14_2_mbox_conf_perm
I1014 20:25:29.568806  8556 net.cpp:157] Top shape: 8 5 5 12 (2400)
I1014 20:25:29.568810  8556 net.cpp:165] Memory required for data: 1289767232
I1014 20:25:29.568812  8556 layer_factory.hpp:77] Creating layer conv14_2_mbox_conf_flat
I1014 20:25:29.568817  8556 net.cpp:100] Creating Layer conv14_2_mbox_conf_flat
I1014 20:25:29.568820  8556 net.cpp:434] conv14_2_mbox_conf_flat <- conv14_2_mbox_conf_perm
I1014 20:25:29.568825  8556 net.cpp:408] conv14_2_mbox_conf_flat -> conv14_2_mbox_conf_flat
I1014 20:25:29.568840  8556 net.cpp:150] Setting up conv14_2_mbox_conf_flat
I1014 20:25:29.568843  8556 net.cpp:157] Top shape: 8 300 (2400)
I1014 20:25:29.568846  8556 net.cpp:165] Memory required for data: 1289776832
I1014 20:25:29.568848  8556 layer_factory.hpp:77] Creating layer conv14_2_mbox_priorbox
I1014 20:25:29.568855  8556 net.cpp:100] Creating Layer conv14_2_mbox_priorbox
I1014 20:25:29.568857  8556 net.cpp:434] conv14_2_mbox_priorbox <- conv14_2_conv14_2/relu_0_split_3
I1014 20:25:29.568861  8556 net.cpp:434] conv14_2_mbox_priorbox <- data_data_0_split_3
I1014 20:25:29.568866  8556 net.cpp:408] conv14_2_mbox_priorbox -> conv14_2_mbox_priorbox
I1014 20:25:29.568899  8556 net.cpp:150] Setting up conv14_2_mbox_priorbox
I1014 20:25:29.568902  8556 net.cpp:157] Top shape: 1 2 600 (1200)
I1014 20:25:29.568907  8556 net.cpp:165] Memory required for data: 1289781632
I1014 20:25:29.568908  8556 layer_factory.hpp:77] Creating layer conv15_2_mbox_loc
I1014 20:25:29.568915  8556 net.cpp:100] Creating Layer conv15_2_mbox_loc
I1014 20:25:29.568920  8556 net.cpp:434] conv15_2_mbox_loc <- conv15_2_conv15_2/relu_0_split_1
I1014 20:25:29.568926  8556 net.cpp:408] conv15_2_mbox_loc -> conv15_2_mbox_loc
I1014 20:25:29.570420  8556 net.cpp:150] Setting up conv15_2_mbox_loc
I1014 20:25:29.570428  8556 net.cpp:157] Top shape: 8 24 3 3 (1728)
I1014 20:25:29.570432  8556 net.cpp:165] Memory required for data: 1289788544
I1014 20:25:29.570437  8556 layer_factory.hpp:77] Creating layer conv15_2_mbox_loc_perm
I1014 20:25:29.570446  8556 net.cpp:100] Creating Layer conv15_2_mbox_loc_perm
I1014 20:25:29.570449  8556 net.cpp:434] conv15_2_mbox_loc_perm <- conv15_2_mbox_loc
I1014 20:25:29.570454  8556 net.cpp:408] conv15_2_mbox_loc_perm -> conv15_2_mbox_loc_perm
I1014 20:25:29.570531  8556 net.cpp:150] Setting up conv15_2_mbox_loc_perm
I1014 20:25:29.570535  8556 net.cpp:157] Top shape: 8 3 3 24 (1728)
I1014 20:25:29.570539  8556 net.cpp:165] Memory required for data: 1289795456
I1014 20:25:29.570541  8556 layer_factory.hpp:77] Creating layer conv15_2_mbox_loc_flat
I1014 20:25:29.570547  8556 net.cpp:100] Creating Layer conv15_2_mbox_loc_flat
I1014 20:25:29.570550  8556 net.cpp:434] conv15_2_mbox_loc_flat <- conv15_2_mbox_loc_perm
I1014 20:25:29.570554  8556 net.cpp:408] conv15_2_mbox_loc_flat -> conv15_2_mbox_loc_flat
I1014 20:25:29.570570  8556 net.cpp:150] Setting up conv15_2_mbox_loc_flat
I1014 20:25:29.570575  8556 net.cpp:157] Top shape: 8 216 (1728)
I1014 20:25:29.570578  8556 net.cpp:165] Memory required for data: 1289802368
I1014 20:25:29.570580  8556 layer_factory.hpp:77] Creating layer conv15_2_mbox_conf_new
I1014 20:25:29.570588  8556 net.cpp:100] Creating Layer conv15_2_mbox_conf_new
I1014 20:25:29.570592  8556 net.cpp:434] conv15_2_mbox_conf_new <- conv15_2_conv15_2/relu_0_split_2
I1014 20:25:29.570598  8556 net.cpp:408] conv15_2_mbox_conf_new -> conv15_2_mbox_conf
I1014 20:25:29.573125  8556 net.cpp:150] Setting up conv15_2_mbox_conf_new
I1014 20:25:29.573138  8556 net.cpp:157] Top shape: 8 12 3 3 (864)
I1014 20:25:29.573143  8556 net.cpp:165] Memory required for data: 1289805824
I1014 20:25:29.573148  8556 layer_factory.hpp:77] Creating layer conv15_2_mbox_conf_perm
I1014 20:25:29.573156  8556 net.cpp:100] Creating Layer conv15_2_mbox_conf_perm
I1014 20:25:29.573159  8556 net.cpp:434] conv15_2_mbox_conf_perm <- conv15_2_mbox_conf
I1014 20:25:29.573164  8556 net.cpp:408] conv15_2_mbox_conf_perm -> conv15_2_mbox_conf_perm
I1014 20:25:29.573237  8556 net.cpp:150] Setting up conv15_2_mbox_conf_perm
I1014 20:25:29.573242  8556 net.cpp:157] Top shape: 8 3 3 12 (864)
I1014 20:25:29.573246  8556 net.cpp:165] Memory required for data: 1289809280
I1014 20:25:29.573248  8556 layer_factory.hpp:77] Creating layer conv15_2_mbox_conf_flat
I1014 20:25:29.573254  8556 net.cpp:100] Creating Layer conv15_2_mbox_conf_flat
I1014 20:25:29.573257  8556 net.cpp:434] conv15_2_mbox_conf_flat <- conv15_2_mbox_conf_perm
I1014 20:25:29.573261  8556 net.cpp:408] conv15_2_mbox_conf_flat -> conv15_2_mbox_conf_flat
I1014 20:25:29.573278  8556 net.cpp:150] Setting up conv15_2_mbox_conf_flat
I1014 20:25:29.573282  8556 net.cpp:157] Top shape: 8 108 (864)
I1014 20:25:29.573284  8556 net.cpp:165] Memory required for data: 1289812736
I1014 20:25:29.573287  8556 layer_factory.hpp:77] Creating layer conv15_2_mbox_priorbox
I1014 20:25:29.573293  8556 net.cpp:100] Creating Layer conv15_2_mbox_priorbox
I1014 20:25:29.573297  8556 net.cpp:434] conv15_2_mbox_priorbox <- conv15_2_conv15_2/relu_0_split_3
I1014 20:25:29.573300  8556 net.cpp:434] conv15_2_mbox_priorbox <- data_data_0_split_4
I1014 20:25:29.573305  8556 net.cpp:408] conv15_2_mbox_priorbox -> conv15_2_mbox_priorbox
I1014 20:25:29.573325  8556 net.cpp:150] Setting up conv15_2_mbox_priorbox
I1014 20:25:29.573343  8556 net.cpp:157] Top shape: 1 2 216 (432)
I1014 20:25:29.573346  8556 net.cpp:165] Memory required for data: 1289814464
I1014 20:25:29.573348  8556 layer_factory.hpp:77] Creating layer conv16_2_mbox_loc
I1014 20:25:29.573359  8556 net.cpp:100] Creating Layer conv16_2_mbox_loc
I1014 20:25:29.573361  8556 net.cpp:434] conv16_2_mbox_loc <- conv16_2_conv16_2/relu_0_split_1
I1014 20:25:29.573366  8556 net.cpp:408] conv16_2_mbox_loc -> conv16_2_mbox_loc
I1014 20:25:29.574864  8556 net.cpp:150] Setting up conv16_2_mbox_loc
I1014 20:25:29.574873  8556 net.cpp:157] Top shape: 8 24 2 2 (768)
I1014 20:25:29.574877  8556 net.cpp:165] Memory required for data: 1289817536
I1014 20:25:29.574882  8556 layer_factory.hpp:77] Creating layer conv16_2_mbox_loc_perm
I1014 20:25:29.574888  8556 net.cpp:100] Creating Layer conv16_2_mbox_loc_perm
I1014 20:25:29.574892  8556 net.cpp:434] conv16_2_mbox_loc_perm <- conv16_2_mbox_loc
I1014 20:25:29.574898  8556 net.cpp:408] conv16_2_mbox_loc_perm -> conv16_2_mbox_loc_perm
I1014 20:25:29.574966  8556 net.cpp:150] Setting up conv16_2_mbox_loc_perm
I1014 20:25:29.574971  8556 net.cpp:157] Top shape: 8 2 2 24 (768)
I1014 20:25:29.574975  8556 net.cpp:165] Memory required for data: 1289820608
I1014 20:25:29.574977  8556 layer_factory.hpp:77] Creating layer conv16_2_mbox_loc_flat
I1014 20:25:29.574983  8556 net.cpp:100] Creating Layer conv16_2_mbox_loc_flat
I1014 20:25:29.574987  8556 net.cpp:434] conv16_2_mbox_loc_flat <- conv16_2_mbox_loc_perm
I1014 20:25:29.574990  8556 net.cpp:408] conv16_2_mbox_loc_flat -> conv16_2_mbox_loc_flat
I1014 20:25:29.575011  8556 net.cpp:150] Setting up conv16_2_mbox_loc_flat
I1014 20:25:29.575016  8556 net.cpp:157] Top shape: 8 96 (768)
I1014 20:25:29.575019  8556 net.cpp:165] Memory required for data: 1289823680
I1014 20:25:29.575021  8556 layer_factory.hpp:77] Creating layer conv16_2_mbox_conf_new
I1014 20:25:29.575028  8556 net.cpp:100] Creating Layer conv16_2_mbox_conf_new
I1014 20:25:29.575032  8556 net.cpp:434] conv16_2_mbox_conf_new <- conv16_2_conv16_2/relu_0_split_2
I1014 20:25:29.575037  8556 net.cpp:408] conv16_2_mbox_conf_new -> conv16_2_mbox_conf
I1014 20:25:29.576443  8556 net.cpp:150] Setting up conv16_2_mbox_conf_new
I1014 20:25:29.576454  8556 net.cpp:157] Top shape: 8 12 2 2 (384)
I1014 20:25:29.576458  8556 net.cpp:165] Memory required for data: 1289825216
I1014 20:25:29.576463  8556 layer_factory.hpp:77] Creating layer conv16_2_mbox_conf_perm
I1014 20:25:29.576469  8556 net.cpp:100] Creating Layer conv16_2_mbox_conf_perm
I1014 20:25:29.576474  8556 net.cpp:434] conv16_2_mbox_conf_perm <- conv16_2_mbox_conf
I1014 20:25:29.576478  8556 net.cpp:408] conv16_2_mbox_conf_perm -> conv16_2_mbox_conf_perm
I1014 20:25:29.576550  8556 net.cpp:150] Setting up conv16_2_mbox_conf_perm
I1014 20:25:29.576555  8556 net.cpp:157] Top shape: 8 2 2 12 (384)
I1014 20:25:29.576558  8556 net.cpp:165] Memory required for data: 1289826752
I1014 20:25:29.576560  8556 layer_factory.hpp:77] Creating layer conv16_2_mbox_conf_flat
I1014 20:25:29.576567  8556 net.cpp:100] Creating Layer conv16_2_mbox_conf_flat
I1014 20:25:29.576570  8556 net.cpp:434] conv16_2_mbox_conf_flat <- conv16_2_mbox_conf_perm
I1014 20:25:29.576575  8556 net.cpp:408] conv16_2_mbox_conf_flat -> conv16_2_mbox_conf_flat
I1014 20:25:29.576591  8556 net.cpp:150] Setting up conv16_2_mbox_conf_flat
I1014 20:25:29.576593  8556 net.cpp:157] Top shape: 8 48 (384)
I1014 20:25:29.576596  8556 net.cpp:165] Memory required for data: 1289828288
I1014 20:25:29.576599  8556 layer_factory.hpp:77] Creating layer conv16_2_mbox_priorbox
I1014 20:25:29.576606  8556 net.cpp:100] Creating Layer conv16_2_mbox_priorbox
I1014 20:25:29.576608  8556 net.cpp:434] conv16_2_mbox_priorbox <- conv16_2_conv16_2/relu_0_split_3
I1014 20:25:29.576612  8556 net.cpp:434] conv16_2_mbox_priorbox <- data_data_0_split_5
I1014 20:25:29.576617  8556 net.cpp:408] conv16_2_mbox_priorbox -> conv16_2_mbox_priorbox
I1014 20:25:29.576634  8556 net.cpp:150] Setting up conv16_2_mbox_priorbox
I1014 20:25:29.576650  8556 net.cpp:157] Top shape: 1 2 96 (192)
I1014 20:25:29.576654  8556 net.cpp:165] Memory required for data: 1289829056
I1014 20:25:29.576658  8556 layer_factory.hpp:77] Creating layer conv17_2_mbox_loc
I1014 20:25:29.576664  8556 net.cpp:100] Creating Layer conv17_2_mbox_loc
I1014 20:25:29.576668  8556 net.cpp:434] conv17_2_mbox_loc <- conv17_2_conv17_2/relu_0_split_0
I1014 20:25:29.576673  8556 net.cpp:408] conv17_2_mbox_loc -> conv17_2_mbox_loc
I1014 20:25:29.579468  8556 net.cpp:150] Setting up conv17_2_mbox_loc
I1014 20:25:29.579483  8556 net.cpp:157] Top shape: 8 24 1 1 (192)
I1014 20:25:29.579486  8556 net.cpp:165] Memory required for data: 1289829824
I1014 20:25:29.579494  8556 layer_factory.hpp:77] Creating layer conv17_2_mbox_loc_perm
I1014 20:25:29.579504  8556 net.cpp:100] Creating Layer conv17_2_mbox_loc_perm
I1014 20:25:29.579507  8556 net.cpp:434] conv17_2_mbox_loc_perm <- conv17_2_mbox_loc
I1014 20:25:29.579514  8556 net.cpp:408] conv17_2_mbox_loc_perm -> conv17_2_mbox_loc_perm
I1014 20:25:29.579583  8556 net.cpp:150] Setting up conv17_2_mbox_loc_perm
I1014 20:25:29.579589  8556 net.cpp:157] Top shape: 8 1 1 24 (192)
I1014 20:25:29.579592  8556 net.cpp:165] Memory required for data: 1289830592
I1014 20:25:29.579596  8556 layer_factory.hpp:77] Creating layer conv17_2_mbox_loc_flat
I1014 20:25:29.579602  8556 net.cpp:100] Creating Layer conv17_2_mbox_loc_flat
I1014 20:25:29.579604  8556 net.cpp:434] conv17_2_mbox_loc_flat <- conv17_2_mbox_loc_perm
I1014 20:25:29.579608  8556 net.cpp:408] conv17_2_mbox_loc_flat -> conv17_2_mbox_loc_flat
I1014 20:25:29.579625  8556 net.cpp:150] Setting up conv17_2_mbox_loc_flat
I1014 20:25:29.579630  8556 net.cpp:157] Top shape: 8 24 (192)
I1014 20:25:29.579633  8556 net.cpp:165] Memory required for data: 1289831360
I1014 20:25:29.579635  8556 layer_factory.hpp:77] Creating layer conv17_2_mbox_conf_new
I1014 20:25:29.579644  8556 net.cpp:100] Creating Layer conv17_2_mbox_conf_new
I1014 20:25:29.579648  8556 net.cpp:434] conv17_2_mbox_conf_new <- conv17_2_conv17_2/relu_0_split_1
I1014 20:25:29.579653  8556 net.cpp:408] conv17_2_mbox_conf_new -> conv17_2_mbox_conf
I1014 20:25:29.581636  8556 net.cpp:150] Setting up conv17_2_mbox_conf_new
I1014 20:25:29.581645  8556 net.cpp:157] Top shape: 8 12 1 1 (96)
I1014 20:25:29.581650  8556 net.cpp:165] Memory required for data: 1289831744
I1014 20:25:29.581655  8556 layer_factory.hpp:77] Creating layer conv17_2_mbox_conf_perm
I1014 20:25:29.581661  8556 net.cpp:100] Creating Layer conv17_2_mbox_conf_perm
I1014 20:25:29.581666  8556 net.cpp:434] conv17_2_mbox_conf_perm <- conv17_2_mbox_conf
I1014 20:25:29.581671  8556 net.cpp:408] conv17_2_mbox_conf_perm -> conv17_2_mbox_conf_perm
I1014 20:25:29.581743  8556 net.cpp:150] Setting up conv17_2_mbox_conf_perm
I1014 20:25:29.581748  8556 net.cpp:157] Top shape: 8 1 1 12 (96)
I1014 20:25:29.581751  8556 net.cpp:165] Memory required for data: 1289832128
I1014 20:25:29.581753  8556 layer_factory.hpp:77] Creating layer conv17_2_mbox_conf_flat
I1014 20:25:29.581758  8556 net.cpp:100] Creating Layer conv17_2_mbox_conf_flat
I1014 20:25:29.581761  8556 net.cpp:434] conv17_2_mbox_conf_flat <- conv17_2_mbox_conf_perm
I1014 20:25:29.581766  8556 net.cpp:408] conv17_2_mbox_conf_flat -> conv17_2_mbox_conf_flat
I1014 20:25:29.581782  8556 net.cpp:150] Setting up conv17_2_mbox_conf_flat
I1014 20:25:29.581787  8556 net.cpp:157] Top shape: 8 12 (96)
I1014 20:25:29.581790  8556 net.cpp:165] Memory required for data: 1289832512
I1014 20:25:29.581794  8556 layer_factory.hpp:77] Creating layer conv17_2_mbox_priorbox
I1014 20:25:29.581799  8556 net.cpp:100] Creating Layer conv17_2_mbox_priorbox
I1014 20:25:29.581801  8556 net.cpp:434] conv17_2_mbox_priorbox <- conv17_2_conv17_2/relu_0_split_2
I1014 20:25:29.581805  8556 net.cpp:434] conv17_2_mbox_priorbox <- data_data_0_split_6
I1014 20:25:29.581810  8556 net.cpp:408] conv17_2_mbox_priorbox -> conv17_2_mbox_priorbox
I1014 20:25:29.581831  8556 net.cpp:150] Setting up conv17_2_mbox_priorbox
I1014 20:25:29.581835  8556 net.cpp:157] Top shape: 1 2 24 (48)
I1014 20:25:29.581851  8556 net.cpp:165] Memory required for data: 1289832704
I1014 20:25:29.581854  8556 layer_factory.hpp:77] Creating layer mbox_loc
I1014 20:25:29.581859  8556 net.cpp:100] Creating Layer mbox_loc
I1014 20:25:29.581862  8556 net.cpp:434] mbox_loc <- conv11_mbox_loc_flat
I1014 20:25:29.581867  8556 net.cpp:434] mbox_loc <- conv13_mbox_loc_flat
I1014 20:25:29.581871  8556 net.cpp:434] mbox_loc <- conv14_2_mbox_loc_flat
I1014 20:25:29.581876  8556 net.cpp:434] mbox_loc <- conv15_2_mbox_loc_flat
I1014 20:25:29.581878  8556 net.cpp:434] mbox_loc <- conv16_2_mbox_loc_flat
I1014 20:25:29.581881  8556 net.cpp:434] mbox_loc <- conv17_2_mbox_loc_flat
I1014 20:25:29.581887  8556 net.cpp:408] mbox_loc -> mbox_loc
I1014 20:25:29.581907  8556 net.cpp:150] Setting up mbox_loc
I1014 20:25:29.581912  8556 net.cpp:157] Top shape: 8 7668 (61344)
I1014 20:25:29.581915  8556 net.cpp:165] Memory required for data: 1290078080
I1014 20:25:29.581918  8556 layer_factory.hpp:77] Creating layer mbox_conf
I1014 20:25:29.581923  8556 net.cpp:100] Creating Layer mbox_conf
I1014 20:25:29.581925  8556 net.cpp:434] mbox_conf <- conv11_mbox_conf_flat
I1014 20:25:29.581928  8556 net.cpp:434] mbox_conf <- conv13_mbox_conf_flat
I1014 20:25:29.581933  8556 net.cpp:434] mbox_conf <- conv14_2_mbox_conf_flat
I1014 20:25:29.581935  8556 net.cpp:434] mbox_conf <- conv15_2_mbox_conf_flat
I1014 20:25:29.581938  8556 net.cpp:434] mbox_conf <- conv16_2_mbox_conf_flat
I1014 20:25:29.581941  8556 net.cpp:434] mbox_conf <- conv17_2_mbox_conf_flat
I1014 20:25:29.581946  8556 net.cpp:408] mbox_conf -> mbox_conf
I1014 20:25:29.581962  8556 net.cpp:150] Setting up mbox_conf
I1014 20:25:29.581967  8556 net.cpp:157] Top shape: 8 3834 (30672)
I1014 20:25:29.581970  8556 net.cpp:165] Memory required for data: 1290200768
I1014 20:25:29.581972  8556 layer_factory.hpp:77] Creating layer mbox_priorbox
I1014 20:25:29.581976  8556 net.cpp:100] Creating Layer mbox_priorbox
I1014 20:25:29.581979  8556 net.cpp:434] mbox_priorbox <- conv11_mbox_priorbox
I1014 20:25:29.581982  8556 net.cpp:434] mbox_priorbox <- conv13_mbox_priorbox
I1014 20:25:29.581986  8556 net.cpp:434] mbox_priorbox <- conv14_2_mbox_priorbox
I1014 20:25:29.581990  8556 net.cpp:434] mbox_priorbox <- conv15_2_mbox_priorbox
I1014 20:25:29.581991  8556 net.cpp:434] mbox_priorbox <- conv16_2_mbox_priorbox
I1014 20:25:29.581995  8556 net.cpp:434] mbox_priorbox <- conv17_2_mbox_priorbox
I1014 20:25:29.581998  8556 net.cpp:408] mbox_priorbox -> mbox_priorbox
I1014 20:25:29.582015  8556 net.cpp:150] Setting up mbox_priorbox
I1014 20:25:29.582018  8556 net.cpp:157] Top shape: 1 2 7668 (15336)
I1014 20:25:29.582022  8556 net.cpp:165] Memory required for data: 1290262112
I1014 20:25:29.582024  8556 layer_factory.hpp:77] Creating layer mbox_conf_reshape
I1014 20:25:29.582031  8556 net.cpp:100] Creating Layer mbox_conf_reshape
I1014 20:25:29.582034  8556 net.cpp:434] mbox_conf_reshape <- mbox_conf
I1014 20:25:29.582038  8556 net.cpp:408] mbox_conf_reshape -> mbox_conf_reshape
I1014 20:25:29.582314  8556 net.cpp:150] Setting up mbox_conf_reshape
I1014 20:25:29.582324  8556 net.cpp:157] Top shape: 8 1917 2 (30672)
I1014 20:25:29.582329  8556 net.cpp:165] Memory required for data: 1290384800
I1014 20:25:29.582331  8556 layer_factory.hpp:77] Creating layer mbox_conf_softmax
I1014 20:25:29.582336  8556 net.cpp:100] Creating Layer mbox_conf_softmax
I1014 20:25:29.582340  8556 net.cpp:434] mbox_conf_softmax <- mbox_conf_reshape
I1014 20:25:29.582345  8556 net.cpp:408] mbox_conf_softmax -> mbox_conf_softmax
I1014 20:25:29.582844  8556 net.cpp:150] Setting up mbox_conf_softmax
I1014 20:25:29.582852  8556 net.cpp:157] Top shape: 8 1917 2 (30672)
I1014 20:25:29.582856  8556 net.cpp:165] Memory required for data: 1290507488
I1014 20:25:29.582859  8556 layer_factory.hpp:77] Creating layer mbox_conf_flatten
I1014 20:25:29.582865  8556 net.cpp:100] Creating Layer mbox_conf_flatten
I1014 20:25:29.582868  8556 net.cpp:434] mbox_conf_flatten <- mbox_conf_softmax
I1014 20:25:29.582872  8556 net.cpp:408] mbox_conf_flatten -> mbox_conf_flatten
I1014 20:25:29.582902  8556 net.cpp:150] Setting up mbox_conf_flatten
I1014 20:25:29.582908  8556 net.cpp:157] Top shape: 8 3834 (30672)
I1014 20:25:29.582912  8556 net.cpp:165] Memory required for data: 1290630176
I1014 20:25:29.582914  8556 layer_factory.hpp:77] Creating layer detection_out
I1014 20:25:29.582924  8556 net.cpp:100] Creating Layer detection_out
I1014 20:25:29.582928  8556 net.cpp:434] detection_out <- mbox_loc
I1014 20:25:29.582932  8556 net.cpp:434] detection_out <- mbox_conf_flatten
I1014 20:25:29.582935  8556 net.cpp:434] detection_out <- mbox_priorbox
I1014 20:25:29.582938  8556 net.cpp:408] detection_out -> detection_out
I1014 20:25:29.582983  8556 net.cpp:150] Setting up detection_out
I1014 20:25:29.582986  8556 net.cpp:157] Top shape: 1 1 1 7 (7)
I1014 20:25:29.582989  8556 net.cpp:165] Memory required for data: 1290630204
I1014 20:25:29.582993  8556 layer_factory.hpp:77] Creating layer detection_eval
I1014 20:25:29.582998  8556 net.cpp:100] Creating Layer detection_eval
I1014 20:25:29.583000  8556 net.cpp:434] detection_eval <- detection_out
I1014 20:25:29.583003  8556 net.cpp:434] detection_eval <- label
I1014 20:25:29.583007  8556 net.cpp:408] detection_eval -> detection_eval
I1014 20:25:29.583039  8556 net.cpp:150] Setting up detection_eval
I1014 20:25:29.583043  8556 net.cpp:157] Top shape: 1 1 2 5 (10)
I1014 20:25:29.583047  8556 net.cpp:165] Memory required for data: 1290630244
I1014 20:25:29.583050  8556 net.cpp:228] detection_eval does not need backward computation.
I1014 20:25:29.583053  8556 net.cpp:228] detection_out does not need backward computation.
I1014 20:25:29.583057  8556 net.cpp:228] mbox_conf_flatten does not need backward computation.
I1014 20:25:29.583060  8556 net.cpp:228] mbox_conf_softmax does not need backward computation.
…
