…
      brightness_prob: 0.5
      brightness_delta: 32
      contrast_prob: 0.5
      contrast_lower: 0.5
      contrast_upper: 1.5
      hue_prob: 0.5
      hue_delta: 18
      saturation_prob: 0.5
      saturation_lower: 0.5
      saturation_upper: 1.5
      random_order_prob: 0
    }
    expand_param {
      prob: 0.5
      max_expand_ratio: 4
    }
  }
  data_param {
    source: "trainval_lmdb"
    batch_size: 20
    backend: LMDB
  }
  annotated_data_param {
    label_map_file: "labelmap.prototxt"
    yolo_data_type: 1
    yolo_data_jitter: 0.7
  }
}
layer {
  name: "conv1"
  type: "Convolution"
  bottom: "data"
  top: "conv1"
  convolution_param {
    num_output: 32
    bias_term: false
    pad: 1
    kernel_size: 3
    group: 1
    stride: 2
    weight_filler {
      type: "msra"
    }
    dilation: 1
  }
}
layer {
  name: "batch_norm1"
  type: "BatchNorm"
  bottom: "conv1"
  top: "conv1"
  batch_norm_param {
    eps: 1e-05
  }
}
layer {
  name: "bn_scale1"
  type: "Scale"
  bottom: "conv1"
  top: "conv1"
  scale_param {
    bias_term: true
  }
}
layer {
  name: "relu1"
  type: "ReLU"
  bottom: "conv1"
  top: "conv1"
}
layer {
  name: "conv2"
  type: "DepthwiseConvolution"
  bottom: "conv1"
  top: "conv2"
  convolution_param {
    num_output: 32
    bias_term: false
    pad: 1
    kernel_size: 3
    group: 32
    stride: 1
    weight_filler {
      type: "msra"
    }
    dilation: 1
  }
}
layer {
  name: "batch_norm2"
  type: "BatchNorm"
  bottom: "conv2"
  top: "conv2"
  batch_norm_param {
    eps: 1e-05
  }
}
layer {
  name: "bn_scale2"
  type: "Scale"
  bottom: "conv2"
  top: "conv2"
  scale_param {
    bias_term: true
  }
}
layer {
  name: "relu2"
  type: "ReLU"
  bottom: "conv2"
  top: "conv2"
}
layer {
  name: "conv3"
  type: "Convolution"
  bottom: "conv2"
  top: "conv3"
  convolution_param {
    num_output: 15
    bias_term: false
    pad: 0
    kernel_size: 1
    group: 1
    stride: 1
    weight_filler {
      type: "msra"
    }
    dilation: 1
  }
}
layer {
  name: "batch_norm3"
  type: "BatchNorm"
  bottom: "conv3"
  top: "conv3"
  batch_norm_param {
    eps: 1e-05
  }
}
layer {
  name: "bn_scale3"
  type: "Scale"
  bottom: "conv3"
  top: "conv3"
  scale_param {
    bias_term: true
  }
}
layer {
  name: "conv4"
  type: "Convolution"
  bottom: "conv3"
  top: "conv4"
  convolution_param {
    num_output: 87
    bias_term: false
    pad: 0
    kernel_size: 1
    group: 1
    stride: 1
    weight_filler {
      type: "msra"
    }
    dilation: 1
  }
}
layer {
  name: "batch_norm4"
  type: "BatchNorm"
  bottom: "conv4"
  top: "conv4"
  batch_norm_param {
    eps: 1e-05
  }
}
layer {
  name: "bn_scale4"
  type: "Scale"
  bottom: "conv4"
  top: "conv4"
  scale_param {
    bias_term: true
  }
}
layer {
  name: "relu3"
  type: "ReLU"
  bottom: "conv4"
  top: "conv4"
}
layer {
  name: "conv5"
  type: "DepthwiseConvolution"
  bottom: "conv4"
  top: "conv5"
  convolution_param {
    num_output: 87
    bias_term: false
    pad: 1
    kernel_size: 3
    group: 87
    stride: 2
    weight_filler {
      type: "msra"
    }
    dilation: 1
  }
}
layer {
  name: "batch_norm5"
  type: "BatchNorm"
  bottom: "conv5"
  top: "conv5"
  batch_norm_param {
    eps: 1e-05
  }
}
layer {
  name: "bn_scale5"
  type: "Scale"
  bottom: "conv5"
  top: "conv5"
  scale_param {
    bias_term: true
  }
}
layer {
  name: "relu4"
  type: "ReLU"
  bottom: "conv5"
  top: "conv5"
}
layer {
  name: "conv6"
  type: "Convolution"
  bottom: "conv5"
  top: "conv6"
  convolution_param {
    num_output: 22
    bias_term: false
    pad: 0
    kernel_size: 1
    group: 1
    stride: 1
    weight_filler {
      type: "msra"
    }
    dilation: 1
  }
}
layer {
  name: "batch_norm6"
  type: "BatchNorm"
  bottom: "conv6"
  top: "conv6"
  batch_norm_param {
    eps: 1e-05
  }
}
layer {
  name: "bn_scale6"
  type: "Scale"
  bottom: "conv6"
  top: "conv6"
  scale_param {
    bias_term: true
  }
}
layer {
  name: "conv7"
  type: "Convolution"
  bottom: "conv6"
  top: "conv7"
  convolution_param {
    num_output: 130
    bias_term: false
    pad: 0
    kernel_size: 1
    group: 1
    stride: 1
    weight_filler {
      type: "msra"
    }
    dilation: 1
  }
}
layer {
  name: "batch_norm7"
  type: "BatchNorm"
  bottom: "conv7"
  top: "conv7"
  batch_norm_param {
    eps: 1e-05
  }
}
layer {
  name: "bn_scale7"
  type: "Scale"
  bottom: "conv7"
  top: "conv7"
  scale_param {
    bias_term: true
  }
}
layer {
  name: "relu5"
  type: "ReLU"
  bottom: "conv7"
  top: "conv7"
}
layer {
  name: "conv8"
  type: "DepthwiseConvolution"
  bottom: "conv7"
  top: "conv8"
  convolution_param {
    num_output: 130
    bias_term: false
    pad: 1
    kernel_size: 3
    group: 130
    stride: 1
    weight_filler {
      type: "msra"
    }
    dilation: 1
  }
}
layer {
  name: "batch_norm8"
  type: "BatchNorm"
  bottom: "conv8"
  top: "conv8"
  batch_norm_param {
    eps: 1e-05
  }
}
layer {
  name: "bn_scale8"
  type: "Scale"
  bottom: "conv8"
  top: "conv8"
  scale_param {
    bias_term: true
  }
}
layer {
  name: "relu6"
  type: "ReLU"
  bottom: "conv8"
  top: "conv8"
}
layer {
  name: "conv9"
  type: "Convolution"
  bottom: "conv8"
  top: "conv9"
  convolution_param {
    num_output: 22
    bias_term: false
    pad: 0
    kernel_size: 1
    group: 1
    stride: 1
    weight_filler {
      type: "msra"
    }
    dilation: 1
  }
}
layer {
  name: "batch_norm9"
  type: "BatchNorm"
  bottom: "conv9"
  top: "conv9"
  batch_norm_param {
    eps: 1e-05
  }
}
layer {
  name: "bn_scale9"
  type: "Scale"
  bottom: "conv9"
  top: "conv9"
  scale_param {
    bias_term: true
  }
}
layer {
  name: "add1"
  type: "Eltwise"
  bottom: "conv6"
  bottom: "conv9"
  top: "add1"
  eltwise_param {
    operation: SUM
  }
}
layer {
  name: "conv10"
  type: "Convolution"
  bottom: "add1"
  top: "conv10"
  convolution_param {
    num_output: 130
    bias_term: false
    pad: 0
    kernel_size: 1
    group: 1
    stride: 1
    weight_filler {
      type: "msra"
    }
    dilation: 1
  }
}
layer {
  name: "batch_norm10"
  type: "BatchNorm"
  bottom: "conv10"
  top: "conv10"
  batch_norm_param {
    eps: 1e-05
  }
}
layer {
  name: "bn_scale10"
  type: "Scale"
  bottom: "conv10"
  top: "conv10"
  scale_param {
    bias_term: true
  }
}
layer {
  name: "relu7"
  type: "ReLU"
  bottom: "conv10"
  top: "conv10"
}
layer {
  name: "conv11"
  type: "DepthwiseConvolution"
  bottom: "conv10"
  top: "conv11"
  convolution_param {
    num_output: 130
    bias_term: false
    pad: 1
    kernel_size: 3
    group: 130
    stride: 2
    weight_filler {
      type: "msra"
    }
    dilation: 1
  }
}
layer {
  name: "batch_norm11"
  type: "BatchNorm"
  bottom: "conv11"
  top: "conv11"
  batch_norm_param {
    eps: 1e-05
  }
}
layer {
  name: "bn_scale11"
  type: "Scale"
  bottom: "conv11"
  top: "conv11"
  scale_param {
    bias_term: true
  }
}
layer {
  name: "relu8"
  type: "ReLU"
  bottom: "conv11"
  top: "conv11"
}
layer {
  name: "conv12"
  type: "Convolution"
  bottom: "conv11"
  top: "conv12"
  convolution_param {
    num_output: 32
    bias_term: false
    pad: 0
    kernel_size: 1
    group: 1
    stride: 1
    weight_filler {
      type: "msra"
    }
    dilation: 1
  }
}
layer {
  name: "batch_norm12"
  type: "BatchNorm"
  bottom: "conv12"
  top: "conv12"
  batch_norm_param {
    eps: 1e-05
  }
}
layer {
  name: "bn_scale12"
  type: "Scale"
  bottom: "conv12"
  top: "conv12"
  scale_param {
    bias_term: true
  }
}
layer {
  name: "conv13"
  type: "Convolution"
  bottom: "conv12"
  top: "conv13"
  convolution_param {
    num_output: 173
    bias_term: false
    pad: 0
    kernel_size: 1
    group: 1
    stride: 1
    weight_filler {
      type: "msra"
    }
    dilation: 1
  }
}
layer {
  name: "batch_norm13"
  type: "BatchNorm"
  bottom: "conv13"
  top: "conv13"
  batch_norm_param {
    eps: 1e-05
  }
}
layer {
  name: "bn_scale13"
  type: "Scale"
  bottom: "conv13"
  top: "conv13"
  scale_param {
    bias_term: true
  }
}
layer {
  name: "relu9"
  type: "ReLU"
  bottom: "conv13"
  top: "conv13"
}
layer {
  name: "conv14"
  type: "DepthwiseConvolution"
  bottom: "conv13"
  top: "conv14"
  convolution_param {
    num_output: 173
    bias_term: false
    pad: 1
    kernel_size: 3
    group: 173
    stride: 1
    weight_filler {
      type: "msra"
    }
    dilation: 1
  }
}
layer {
  name: "batch_norm14"
  type: "BatchNorm"
  bottom: "conv14"
  top: "conv14"
  batch_norm_param {
    eps: 1e-05
  }
}
layer {
  name: "bn_scale14"
  type: "Scale"
  bottom: "conv14"
  top: "conv14"
  scale_param {
    bias_term: true
  }
}
layer {
  name: "relu10"
  type: "ReLU"
  bottom: "conv14"
  top: "conv14"
}
layer {
  name: "conv15"
  type: "Convolution"
  bottom: "conv14"
  top: "conv15"
  convolution_param {
    num_output: 32
    bias_term: false
    pad: 0
    kernel_size: 1
    group: 1
    stride: 1
    weight_filler {
      type: "msra"
    }
    dilation: 1
  }
}
layer {
  name: "batch_norm15"
  type: "BatchNorm"
  bottom: "conv15"
  top: "conv15"
  batch_norm_param {
    eps: 1e-05
  }
}
layer {
  name: "bn_scale15"
  type: "Scale"
  bottom: "conv15"
  top: "conv15"
  scale_param {
    bias_term: true
  }
}
layer {
  name: "add2"
  type: "Eltwise"
  bottom: "conv12"
  bottom: "conv15"
  top: "add2"
  eltwise_param {
    operation: SUM
  }
}
layer {
  name: "conv16"
  type: "Convolution"
  bottom: "add2"
  top: "conv16"
  convolution_param {
    num_output: 173
    bias_term: false
    pad: 0
    kernel_size: 1
    group: 1
    stride: 1
    weight_filler {
      type: "msra"
    }
    dilation: 1
  }
}
layer {
  name: "batch_norm16"
  type: "BatchNorm"
  bottom: "conv16"
  top: "conv16"
  batch_norm_param {
    eps: 1e-05
  }
}
layer {
  name: "bn_scale16"
  type: "Scale"
  bottom: "conv16"
  top: "conv16"
  scale_param {
    bias_term: true
  }
}
layer {
  name: "relu11"
  type: "ReLU"
  bottom: "conv16"
  top: "conv16"
}
layer {
  name: "conv17"
  type: "DepthwiseConvolution"
  bottom: "conv16"
  top: "conv17"
  convolution_param {
    num_output: 173
    bias_term: false
    pad: 1
    kernel_size: 3
    group: 173
    stride: 1
    weight_filler {
      type: "msra"
    }
    dilation: 1
  }
}
layer {
  name: "batch_norm17"
  type: "BatchNorm"
  bottom: "conv17"
  top: "conv17"
  batch_norm_param {
    eps: 1e-05
  }
}
layer {
  name: "bn_scale17"
  type: "Scale"
  bottom: "conv17"
  top: "conv17"
  scale_param {
    bias_term: true
  }
}
layer {
  name: "relu12"
  type: "ReLU"
  bottom: "conv17"
  top: "conv17"
}
layer {
  name: "conv18"
  type: "Convolution"
  bottom: "conv17"
  top: "conv18"
  convolution_param {
    num_output: 32
    bias_term: false
    pad: 0
    kernel_size: 1
    group: 1
    stride: 1
    weight_filler {
      type: "msra"
    }
    dilation: 1
  }
}
layer {
  name: "batch_norm18"
  type: "BatchNorm"
  bottom: "conv18"
  top: "conv18"
  batch_norm_param {
    eps: 1e-05
  }
}
layer {
  name: "bn_scale18"
  type: "Scale"
  bottom: "conv18"
  top: "conv18"
  scale_param {
    bias_term: true
  }
}
layer {
  name: "add3"
  type: "Eltwise"
  bottom: "add2"
  bottom: "conv18"
  top: "add3"
  eltwise_param {
    operation: SUM
  }
}
layer {
  name: "conv19"
  type: "Convolution"
  bottom: "add3"
  top: "conv19"
  convolution_param {
    num_output: 173
    bias_term: false
    pad: 0
    kernel_size: 1
    group: 1
    stride: 1
    weight_filler {
      type: "msra"
    }
    dilation: 1
  }
}
layer {
  name: "batch_norm19"
  type: "BatchNorm"
  bottom: "conv19"
  top: "conv19"
  batch_norm_param {
    eps: 1e-05
  }
}
layer {
  name: "bn_scale19"
  type: "Scale"
  bottom: "conv19"
  top: "conv19"
  scale_param {
    bias_term: true
  }
}
layer {
  name: "relu13"
  type: "ReLU"
  bottom: "conv19"
  top: "conv19"
}
layer {
  name: "conv20"
  type: "DepthwiseConvolution"
  bottom: "conv19"
  top: "conv20"
  convolution_param {
    num_output: 173
    bias_term: false
    pad: 1
    kernel_size: 3
    group: 173
    stride: 2
    weight_filler {
      type: "msra"
    }
    dilation: 1
  }
}
layer {
  name: "batch_norm20"
  type: "BatchNorm"
  bottom: "conv20"
  top: "conv20"
  batch_norm_param {
    eps: 1e-05
  }
}
layer {
  name: "bn_scale20"
  type: "Scale"
  bottom: "conv20"
  top: "conv20"
  scale_param {
    bias_term: true
  }
}
layer {
  name: "relu14"
  type: "ReLU"
  bottom: "conv20"
  top: "conv20"
}
layer {
  name: "conv21"
  type: "Convolution"
  bottom: "conv20"
  top: "conv21"
  convolution_param {
    num_output: 64
    bias_term: false
    pad: 0
    kernel_size: 1
    group: 1
    stride: 1
    weight_filler {
      type: "msra"
    }
    dilation: 1
  }
}
layer {
  name: "batch_norm21"
  type: "BatchNorm"
  bottom: "conv21"
  top: "conv21"
  batch_norm_param {
    eps: 1e-05
  }
}
layer {
  name: "bn_scale21"
  type: "Scale"
  bottom: "conv21"
  top: "conv21"
  scale_param {
    bias_term: true
  }
}
layer {
  name: "conv22"
  type: "Convolution"
  bottom: "conv21"
  top: "conv22"
  convolution_param {
    num_output: 346
    bias_term: false
    pad: 0
    kernel_size: 1
    group: 1
    stride: 1
    weight_filler {
      type: "msra"
    }
    dilation: 1
  }
}
layer {
  name: "batch_norm22"
  type: "BatchNorm"
  bottom: "conv22"
  top: "conv22"
  batch_norm_param {
    eps: 1e-05
  }
}
layer {
  name: "bn_scale22"
  type: "Scale"
  bottom: "conv22"
  top: "conv22"
  scale_param {
    bias_term: true
  }
}
layer {
  name: "relu15"
  type: "ReLU"
  bottom: "conv22"
  top: "conv22"
}
layer {
  name: "conv23"
  type: "DepthwiseConvolution"
  bottom: "conv22"
  top: "conv23"
  convolution_param {
    num_output: 346
    bias_term: false
    pad: 1
    kernel_size: 3
    group: 346
    stride: 1
    weight_filler {
      type: "msra"
    }
    dilation: 1
  }
}
layer {
  name: "batch_norm23"
  type: "BatchNorm"
  bottom: "conv23"
  top: "conv23"
  batch_norm_param {
    eps: 1e-05
  }
}
layer {
  name: "bn_scale23"
  type: "Scale"
  bottom: "conv23"
  top: "conv23"
  scale_param {
    bias_term: true
  }
}
layer {
  name: "relu16"
  type: "ReLU"
  bottom: "conv23"
  top: "conv23"
}
layer {
  name: "conv24"
  type: "Convolution"
  bottom: "conv23"
  top: "conv24"
  convolution_param {
    num_output: 64
    bias_term: false
    pad: 0
    kernel_size: 1
    group: 1
    stride: 1
    weight_filler {
      type: "msra"
    }
    dilation: 1
  }
}
layer {
  name: "batch_norm24"
  type: "BatchNorm"
  bottom: "conv24"
  top: "conv24"
  batch_norm_param {
    eps: 1e-05
  }
}
layer {
  name: "bn_scale24"
  type: "Scale"
  bottom: "conv24"
  top: "conv24"
  scale_param {
    bias_term: true
  }
}
layer {
  name: "add4"
  type: "Eltwise"
  bottom: "conv21"
  bottom: "conv24"
  top: "add4"
  eltwise_param {
    operation: SUM
  }
}
layer {
  name: "conv25"
  type: "Convolution"
  bottom: "add4"
  top: "conv25"
  convolution_param {
    num_output: 327
    bias_term: false
    pad: 0
    kernel_size: 1
    group: 1
    stride: 1
    weight_filler {
      type: "msra"
    }
    dilation: 1
  }
}
layer {
  name: "batch_norm25"
  type: "BatchNorm"
  bottom: "conv25"
  top: "conv25"
  batch_norm_param {
    eps: 1e-05
  }
}
layer {
  name: "bn_scale25"
  type: "Scale"
  bottom: "conv25"
  top: "conv25"
  scale_param {
    bias_term: true
  }
}
layer {
  name: "relu17"
  type: "ReLU"
  bottom: "conv25"
  top: "conv25"
}
layer {
  name: "conv26"
  type: "DepthwiseConvolution"
  bottom: "conv25"
  top: "conv26"
  convolution_param {
    num_output: 327
    bias_term: false
    pad: 1
    kernel_size: 3
    group: 327
    stride: 1
    weight_filler {
      type: "msra"
    }
    dilation: 1
  }
}
layer {
  name: "batch_norm26"
  type: "BatchNorm"
  bottom: "conv26"
  top: "conv26"
  batch_norm_param {
    eps: 1e-05
  }
}
layer {
  name: "bn_scale26"
  type: "Scale"
  bottom: "conv26"
  top: "conv26"
  scale_param {
    bias_term: true
  }
}
layer {
  name: "relu18"
  type: "ReLU"
  bottom: "conv26"
  top: "conv26"
}
layer {
  name: "conv27"
  type: "Convolution"
  bottom: "conv26"
  top: "conv27"
  convolution_param {
    num_output: 64
    bias_term: false
    pad: 0
    kernel_size: 1
    group: 1
    stride: 1
    weight_filler {
      type: "msra"
    }
    dilation: 1
  }
}
layer {
  name: "batch_norm27"
  type: "BatchNorm"
  bottom: "conv27"
  top: "conv27"
  batch_norm_param {
    eps: 1e-05
  }
}
layer {
  name: "bn_scale27"
  type: "Scale"
  bottom: "conv27"
  top: "conv27"
  scale_param {
    bias_term: true
  }
}
layer {
  name: "add5"
  type: "Eltwise"
  bottom: "add4"
  bottom: "conv27"
  top: "add5"
  eltwise_param {
    operation: SUM
  }
}
layer {
  name: "conv28"
  type: "Convolution"
  bottom: "add5"
  top: "conv28"
  convolution_param {
    num_output: 327
    bias_term: false
    pad: 0
    kernel_size: 1
    group: 1
    stride: 1
    weight_filler {
      type: "msra"
    }
    dilation: 1
  }
}
layer {
  name: "batch_norm28"
  type: "BatchNorm"
  bottom: "conv28"
  top: "conv28"
  batch_norm_param {
    eps: 1e-05
  }
}
layer {
  name: "bn_scale28"
  type: "Scale"
  bottom: "conv28"
  top: "conv28"
  scale_param {
    bias_term: true
  }
}
layer {
  name: "relu19"
  type: "ReLU"
  bottom: "conv28"
  top: "conv28"
}
layer {
  name: "conv29"
  type: "DepthwiseConvolution"
  bottom: "conv28"
  top: "conv29"
  convolution_param {
    num_output: 327
    bias_term: false
    pad: 1
    kernel_size: 3
    group: 327
    stride: 1
    weight_filler {
      type: "msra"
    }
    dilation: 1
  }
}
layer {
  name: "batch_norm29"
  type: "BatchNorm"
  bottom: "conv29"
  top: "conv29"
  batch_norm_param {
    eps: 1e-05
  }
}
layer {
  name: "bn_scale29"
  type: "Scale"
  bottom: "conv29"
  top: "conv29"
  scale_param {
    bias_term: true
  }
}
layer {
  name: "relu20"
  type: "ReLU"
  bottom: "conv29"
  top: "conv29"
}
layer {
  name: "conv30"
  type: "Convolution"
  bottom: "conv29"
  top: "conv30"
  convolution_param {
    num_output: 64
    bias_term: false
    pad: 0
    kernel_size: 1
    group: 1
    stride: 1
    weight_filler {
      type: "msra"
    }
    dilation: 1
  }
}
layer {
  name: "batch_norm30"
  type: "BatchNorm"
  bottom: "conv30"
  top: "conv30"
  batch_norm_param {
    eps: 1e-05
  }
}
layer {
  name: "bn_scale30"
  type: "Scale"
  bottom: "conv30"
  top: "conv30"
  scale_param {
    bias_term: true
  }
}
layer {
  name: "add6"
  type: "Eltwise"
  bottom: "add5"
  bottom: "conv30"
  top: "add6"
  eltwise_param {
    operation: SUM
  }
}
layer {
  name: "conv31"
  type: "Convolution"
  bottom: "add6"
  top: "conv31"
  convolution_param {
    num_output: 327
    bias_term: false
    pad: 0
    kernel_size: 1
    group: 1
    stride: 1
    weight_filler {
      type: "msra"
    }
    dilation: 1
  }
}
layer {
  name: "batch_norm31"
  type: "BatchNorm"
  bottom: "conv31"
  top: "conv31"
  batch_norm_param {
    eps: 1e-05
  }
}
layer {
  name: "bn_scale31"
  type: "Scale"
  bottom: "conv31"
  top: "conv31"
  scale_param {
    bias_term: true
  }
}
layer {
  name: "relu21"
  type: "ReLU"
  bottom: "conv31"
  top: "conv31"
}
layer {
  name: "conv32"
  type: "DepthwiseConvolution"
  bottom: "conv31"
  top: "conv32"
  convolution_param {
    num_output: 327
    bias_term: false
    pad: 1
    kernel_size: 3
    group: 327
    stride: 1
    weight_filler {
      type: "msra"
    }
    dilation: 1
  }
}
layer {
  name: "batch_norm32"
  type: "BatchNorm"
  bottom: "conv32"
  top: "conv32"
  batch_norm_param {
    eps: 1e-05
  }
}
layer {
  name: "bn_scale32"
  type: "Scale"
  bottom: "conv32"
  top: "conv32"
  scale_param {
    bias_term: true
  }
}
layer {
  name: "relu22"
  type: "ReLU"
  bottom: "conv32"
  top: "conv32"
}
layer {
  name: "conv33"
  type: "Convolution"
  bottom: "conv32"
  top: "conv33"
  convolution_param {
    num_output: 87
    bias_term: false
    pad: 0
    kernel_size: 1
    group: 1
    stride: 1
    weight_filler {
      type: "msra"
    }
    dilation: 1
  }
}
layer {
  name: "batch_norm33"
  type: "BatchNorm"
  bottom: "conv33"
  top: "conv33"
  batch_norm_param {
    eps: 1e-05
  }
}
layer {
  name: "bn_scale33"
  type: "Scale"
  bottom: "conv33"
  top: "conv33"
  scale_param {
    bias_term: true
  }
}
layer {
  name: "conv34"
  type: "Convolution"
  bottom: "conv33"
  top: "conv34"
  convolution_param {
    num_output: 461
    bias_term: false
    pad: 0
    kernel_size: 1
    group: 1
    stride: 1
    weight_filler {
      type: "msra"
    }
    dilation: 1
  }
}
layer {
  name: "batch_norm34"
  type: "BatchNorm"
  bottom: "conv34"
  top: "conv34"
  batch_norm_param {
    eps: 1e-05
  }
}
layer {
  name: "bn_scale34"
  type: "Scale"
  bottom: "conv34"
  top: "conv34"
  scale_param {
    bias_term: true
  }
}
layer {
  name: "relu23"
  type: "ReLU"
  bottom: "conv34"
  top: "conv34"
}
layer {
  name: "conv35"
  type: "DepthwiseConvolution"
  bottom: "conv34"
  top: "conv35"
  convolution_param {
    num_output: 461
    bias_term: false
    pad: 1
    kernel_size: 3
    group: 461
    stride: 1
    weight_filler {
      type: "msra"
    }
    dilation: 1
  }
}
layer {
  name: "batch_norm35"
  type: "BatchNorm"
  bottom: "conv35"
  top: "conv35"
  batch_norm_param {
    eps: 1e-05
  }
}
layer {
  name: "bn_scale35"
  type: "Scale"
  bottom: "conv35"
  top: "conv35"
  scale_param {
    bias_term: true
  }
}
layer {
  name: "relu24"
  type: "ReLU"
  bottom: "conv35"
  top: "conv35"
}
layer {
  name: "conv36"
  type: "Convolution"
  bottom: "conv35"
  top: "conv36"
  convolution_param {
    num_output: 87
    bias_term: false
    pad: 0
    kernel_size: 1
    group: 1
    stride: 1
    weight_filler {
      type: "msra"
    }
    dilation: 1
  }
}
layer {
  name: "batch_norm36"
  type: "BatchNorm"
  bottom: "conv36"
  top: "conv36"
  batch_norm_param {
    eps: 1e-05
  }
}
layer {
  name: "bn_scale36"
  type: "Scale"
  bottom: "conv36"
  top: "conv36"
  scale_param {
    bias_term: true
  }
}
layer {
  name: "add7"
  type: "Eltwise"
  bottom: "conv33"
  bottom: "conv36"
  top: "add7"
  eltwise_param {
    operation: SUM
  }
}
layer {
  name: "conv37"
  type: "Convolution"
  bottom: "add7"
  top: "conv37"
  convolution_param {
    num_output: 461
    bias_term: false
    pad: 0
    kernel_size: 1
    group: 1
    stride: 1
    weight_filler {
      type: "msra"
    }
    dilation: 1
  }
}
layer {
  name: "batch_norm37"
  type: "BatchNorm"
  bottom: "conv37"
  top: "conv37"
  batch_norm_param {
    eps: 1e-05
  }
}
layer {
  name: "bn_scale37"
  type: "Scale"
  bottom: "conv37"
  top: "conv37"
  scale_param {
    bias_term: true
  }
}
layer {
  name: "relu25"
  type: "ReLU"
  bottom: "conv37"
  top: "conv37"
}
layer {
  name: "conv38"
  type: "DepthwiseConvolution"
  bottom: "conv37"
  top: "conv38"
  convolution_param {
    num_output: 461
    bias_term: false
    pad: 1
    kernel_size: 3
    group: 461
    stride: 1
    weight_filler {
      type: "msra"
    }
    dilation: 1
  }
}
layer {
  name: "batch_norm38"
  type: "BatchNorm"
  bottom: "conv38"
  top: "conv38"
  batch_norm_param {
    eps: 1e-05
  }
}
layer {
  name: "bn_scale38"
  type: "Scale"
  bottom: "conv38"
  top: "conv38"
  scale_param {
    bias_term: true
  }
}
layer {
  name: "relu26"
  type: "ReLU"
  bottom: "conv38"
  top: "conv38"
}
layer {
  name: "conv39"
  type: "Convolution"
  bottom: "conv38"
  top: "conv39"
  convolution_param {
    num_output: 87
    bias_term: false
    pad: 0
    kernel_size: 1
    group: 1
    stride: 1
    weight_filler {
      type: "msra"
    }
    dilation: 1
  }
}
layer {
  name: "batch_norm39"
  type: "BatchNorm"
  bottom: "conv39"
  top: "conv39"
  batch_norm_param {
    eps: 1e-05
  }
}
layer {
  name: "bn_scale39"
  type: "Scale"
  bottom: "conv39"
  top: "conv39"
  scale_param {
    bias_term: true
  }
}
layer {
  name: "add8"
  type: "Eltwise"
  bottom: "add7"
  bottom: "conv39"
  top: "add8"
  eltwise_param {
    operation: SUM
  }
}
layer {
  name: "conv40"
  type: "Convolution"
  bottom: "add8"
  top: "conv40"
  convolution_param {
    num_output: 576
    bias_term: false
    pad: 0
    kernel_size: 1
    group: 1
    stride: 1
    weight_filler {
      type: "msra"
    }
    dilation: 1
  }
}
layer {
  name: "batch_norm40"
  type: "BatchNorm"
  bottom: "conv40"
  top: "conv40"
  batch_norm_param {
    eps: 1e-05
  }
}
layer {
  name: "bn_scale40"
  type: "Scale"
  bottom: "conv40"
  top: "conv40"
  scale_param {
    bias_term: true
  }
}
layer {
  name: "relu27"
  type: "ReLU"
  bottom: "conv40"
  top: "conv40"
}
layer {
  name: "conv41"
  type: "DepthwiseConvolution"
  bottom: "conv40"
  top: "conv41"
  convolution_param {
    num_output: 576
    bias_term: false
    pad: 1
    kernel_size: 3
    group: 576
    stride: 2
    weight_filler {
      type: "msra"
    }
    dilation: 1
  }
}
layer {
  name: "batch_norm41"
  type: "BatchNorm"
  bottom: "conv41"
  top: "conv41"
  batch_norm_param {
    eps: 1e-05
  }
}
layer {
  name: "bn_scale41"
  type: "Scale"
  bottom: "conv41"
  top: "conv41"
  scale_param {
    bias_term: true
  }
}
layer {
  name: "relu28"
  type: "ReLU"
  bottom: "conv41"
  top: "conv41"
}
layer {
  name: "conv42"
  type: "Convolution"
  bottom: "conv41"
  top: "conv42"
  convolution_param {
    num_output: 128
    bias_term: false
    pad: 0
    kernel_size: 1
    group: 1
    stride: 1
    weight_filler {
      type: "msra"
    }
    dilation: 1
  }
}
layer {
  name: "batch_norm42"
  type: "BatchNorm"
  bottom: "conv42"
  top: "conv42"
  batch_norm_param {
    eps: 1e-05
  }
}
layer {
  name: "bn_scale42"
  type: "Scale"
  bottom: "conv42"
  top: "conv42"
  scale_param {
    bias_term: true
  }
}
layer {
  name: "conv43"
  type: "Convolution"
  bottom: "conv42"
  top: "conv43"
  convolution_param {
    num_output: 768
    bias_term: false
    pad: 0
    kernel_size: 1
    group: 1
    stride: 1
    weight_filler {
      type: "msra"
    }
    dilation: 1
  }
}
layer {
  name: "batch_norm43"
  type: "BatchNorm"
  bottom: "conv43"
  top: "conv43"
  batch_norm_param {
    eps: 1e-05
  }
}
layer {
  name: "bn_scale43"
  type: "Scale"
  bottom: "conv43"
  top: "conv43"
  scale_param {
    bias_term: true
  }
}
layer {
  name: "relu29"
  type: "ReLU"
  bottom: "conv43"
  top: "conv43"
}
layer {
  name: "conv44"
  type: "DepthwiseConvolution"
  bottom: "conv43"
  top: "conv44"
  convolution_param {
    num_output: 768
    bias_term: false
    pad: 1
    kernel_size: 3
    group: 768
    stride: 1
    weight_filler {
      type: "msra"
    }
    dilation: 1
  }
}
layer {
  name: "batch_norm44"
  type: "BatchNorm"
  bottom: "conv44"
  top: "conv44"
  batch_norm_param {
    eps: 1e-05
  }
}
layer {
  name: "bn_scale44"
  type: "Scale"
  bottom: "conv44"
  top: "conv44"
  scale_param {
    bias_term: true
  }
}
layer {
  name: "relu30"
  type: "ReLU"
  bottom: "conv44"
  top: "conv44"
}
layer {
  name: "conv45"
  type: "Convolution"
  bottom: "conv44"
  top: "conv45"
  convolution_param {
    num_output: 128
    bias_term: false
    pad: 0
    kernel_size: 1
    group: 1
    stride: 1
    weight_filler {
      type: "msra"
    }
    dilation: 1
  }
}
layer {
  name: "batch_norm45"
  type: "BatchNorm"
  bottom: "conv45"
  top: "conv45"
  batch_norm_param {
    eps: 1e-05
  }
}
layer {
  name: "bn_scale45"
  type: "Scale"
  bottom: "conv45"
  top: "conv45"
  scale_param {
    bias_term: true
  }
}
layer {
  name: "add9"
  type: "Eltwise"
  bottom: "conv42"
  bottom: "conv45"
  top: "add9"
  eltwise_param {
    operation: SUM
  }
}
layer {
  name: "conv46"
  type: "Convolution"
  bottom: "add9"
  top: "conv46"
  convolution_param {
    num_output: 768
    bias_term: false
    pad: 0
    kernel_size: 1
    group: 1
    stride: 1
    weight_filler {
      type: "msra"
    }
    dilation: 1
  }
}
layer {
  name: "batch_norm46"
  type: "BatchNorm"
  bottom: "conv46"
  top: "conv46"
  batch_norm_param {
    eps: 1e-05
  }
}
layer {
  name: "bn_scale46"
  type: "Scale"
  bottom: "conv46"
  top: "conv46"
  scale_param {
    bias_term: true
  }
}
layer {
  name: "relu31"
  type: "ReLU"
  bottom: "conv46"
  top: "conv46"
}
layer {
  name: "conv47"
  type: "DepthwiseConvolution"
  bottom: "conv46"
  top: "conv47"
  convolution_param {
    num_output: 768
    bias_term: false
    pad: 1
    kernel_size: 3
    group: 768
    stride: 1
    weight_filler {
      type: "msra"
    }
    dilation: 1
  }
}
layer {
  name: "batch_norm47"
  type: "BatchNorm"
  bottom: "conv47"
  top: "conv47"
  batch_norm_param {
    eps: 1e-05
  }
}
layer {
  name: "bn_scale47"
  type: "Scale"
  bottom: "conv47"
  top: "conv47"
  scale_param {
    bias_term: true
  }
}
layer {
  name: "relu32"
  type: "ReLU"
  bottom: "conv47"
  top: "con
I1011 15:06:38.729333 38966 layer_factory.hpp:77] Creating layer data
I1011 15:06:38.729547 38966 net.cpp:86] Creating Layer data
I1011 15:06:38.729564 38966 net.cpp:382] data -> data
I1011 15:06:38.729643 38966 net.cpp:382] data -> label
I1011 15:06:38.731667 38972 db_lmdb.cpp:35] Opened lmdb trainval_lmdb
I1011 15:06:38.735411 38966 annotated_data_layer.cpp:78] output data size: 20,3,416,416
I1011 15:06:38.844326 38966 net.cpp:124] Setting up data
I1011 15:06:38.844382 38966 net.cpp:131] Top shape: 20 3 416 416 (10383360)
I1011 15:06:38.844388 38966 net.cpp:131] Top shape: 20 1 300 5 (30000)
I1011 15:06:38.844391 38966 net.cpp:139] Memory required for data: 41653440
I1011 15:06:38.844405 38966 layer_factory.hpp:77] Creating layer label_data_1_split
I1011 15:06:38.844420 38966 net.cpp:86] Creating Layer label_data_1_split
I1011 15:06:38.844429 38966 net.cpp:408] label_data_1_split <- label
I1011 15:06:38.844456 38966 net.cpp:382] label_data_1_split -> label_data_1_split_0
I1011 15:06:38.844470 38966 net.cpp:382] label_data_1_split -> label_data_1_split_1
I1011 15:06:38.844518 38966 net.cpp:124] Setting up label_data_1_split
I1011 15:06:38.844527 38966 net.cpp:131] Top shape: 20 1 300 5 (30000)
I1011 15:06:38.844532 38966 net.cpp:131] Top shape: 20 1 300 5 (30000)
I1011 15:06:38.844535 38966 net.cpp:139] Memory required for data: 41893440
I1011 15:06:38.844538 38966 layer_factory.hpp:77] Creating layer conv1
I1011 15:06:38.844559 38966 net.cpp:86] Creating Layer conv1
I1011 15:06:38.844565 38966 net.cpp:408] conv1 <- data
I1011 15:06:38.844597 38966 net.cpp:382] conv1 -> conv1
I1011 15:06:38.844944 38966 net.cpp:124] Setting up conv1
I1011 15:06:38.844955 38966 net.cpp:131] Top shape: 20 32 208 208 (27688960)
I1011 15:06:38.844971 38966 net.cpp:139] Memory required for data: 152649280
I1011 15:06:38.844990 38966 layer_factory.hpp:77] Creating layer batch_norm1
I1011 15:06:38.844997 38966 net.cpp:86] Creating Layer batch_norm1
I1011 15:06:38.845002 38966 net.cpp:408] batch_norm1 <- conv1
I1011 15:06:38.845007 38966 net.cpp:369] batch_norm1 -> conv1 (in-place)
I1011 15:06:38.845284 38966 net.cpp:124] Setting up batch_norm1
I1011 15:06:38.845293 38966 net.cpp:131] Top shape: 20 32 208 208 (27688960)
I1011 15:06:38.845296 38966 net.cpp:139] Memory required for data: 263405120
I1011 15:06:38.845315 38966 layer_factory.hpp:77] Creating layer bn_scale1
I1011 15:06:38.845332 38966 net.cpp:86] Creating Layer bn_scale1
I1011 15:06:38.845336 38966 net.cpp:408] bn_scale1 <- conv1
I1011 15:06:38.845346 38966 net.cpp:369] bn_scale1 -> conv1 (in-place)
I1011 15:06:38.845398 38966 layer_factory.hpp:77] Creating layer bn_scale1
I1011 15:06:38.845592 38966 net.cpp:124] Setting up bn_scale1
I1011 15:06:38.845602 38966 net.cpp:131] Top shape: 20 32 208 208 (27688960)
I1011 15:06:38.845604 38966 net.cpp:139] Memory required for data: 374160960
I1011 15:06:38.845613 38966 layer_factory.hpp:77] Creating layer relu1
I1011 15:06:38.845619 38966 net.cpp:86] Creating Layer relu1
I1011 15:06:38.845623 38966 net.cpp:408] relu1 <- conv1
I1011 15:06:38.845628 38966 net.cpp:369] relu1 -> conv1 (in-place)
I1011 15:06:38.845634 38966 net.cpp:124] Setting up relu1
I1011 15:06:38.845638 38966 net.cpp:131] Top shape: 20 32 208 208 (27688960)
I1011 15:06:38.845641 38966 net.cpp:139] Memory required for data: 484916800
I1011 15:06:38.845644 38966 layer_factory.hpp:77] Creating layer conv2
I1011 15:06:38.845654 38966 net.cpp:86] Creating Layer conv2
I1011 15:06:38.845657 38966 net.cpp:408] conv2 <- conv1
I1011 15:06:38.845664 38966 net.cpp:382] conv2 -> conv2
I1011 15:06:38.845795 38966 net.cpp:124] Setting up conv2
I1011 15:06:38.845803 38966 net.cpp:131] Top shape: 20 32 208 208 (27688960)
I1011 15:06:38.845806 38966 net.cpp:139] Memory required for data: 595672640
I1011 15:06:38.845811 38966 layer_factory.hpp:77] Creating layer batch_norm2
I1011 15:06:38.845818 38966 net.cpp:86] Creating Layer batch_norm2
I1011 15:06:38.845821 38966 net.cpp:408] batch_norm2 <- conv2
I1011 15:06:38.845827 38966 net.cpp:369] batch_norm2 -> conv2 (in-place)
I1011 15:06:38.845990 38966 net.cpp:124] Setting up batch_norm2
I1011 15:06:38.845999 38966 net.cpp:131] Top shape: 20 32 208 208 (27688960)
I1011 15:06:38.846001 38966 net.cpp:139] Memory required for data: 706428480
I1011 15:06:38.846010 38966 layer_factory.hpp:77] Creating layer bn_scale2
I1011 15:06:38.846019 38966 net.cpp:86] Creating Layer bn_scale2
I1011 15:06:38.846022 38966 net.cpp:408] bn_scale2 <- conv2
I1011 15:06:38.846027 38966 net.cpp:369] bn_scale2 -> conv2 (in-place)
I1011 15:06:38.846058 38966 layer_factory.hpp:77] Creating layer bn_scale2
I1011 15:06:38.846208 38966 net.cpp:124] Setting up bn_scale2
I1011 15:06:38.846217 38966 net.cpp:131] Top shape: 20 32 208 208 (27688960)
I1011 15:06:38.846220 38966 net.cpp:139] Memory required for data: 817184320
I1011 15:06:38.846226 38966 layer_factory.hpp:77] Creating layer relu2
I1011 15:06:38.846232 38966 net.cpp:86] Creating Layer relu2
I1011 15:06:38.846236 38966 net.cpp:408] relu2 <- conv2
I1011 15:06:38.846241 38966 net.cpp:369] relu2 -> conv2 (in-place)
I1011 15:06:38.846246 38966 net.cpp:124] Setting up relu2
I1011 15:06:38.846251 38966 net.cpp:131] Top shape: 20 32 208 208 (27688960)
I1011 15:06:38.846253 38966 net.cpp:139] Memory required for data: 927940160
I1011 15:06:38.846256 38966 layer_factory.hpp:77] Creating layer conv3
I1011 15:06:38.846264 38966 net.cpp:86] Creating Layer conv3
I1011 15:06:38.846268 38966 net.cpp:408] conv3 <- conv2
I1011 15:06:38.846274 38966 net.cpp:382] conv3 -> conv3
I1011 15:06:38.846421 38966 net.cpp:124] Setting up conv3
I1011 15:06:38.846441 38966 net.cpp:131] Top shape: 20 15 208 208 (12979200)
I1011 15:06:38.846443 38966 net.cpp:139] Memory required for data: 979856960
I1011 15:06:38.846448 38966 layer_factory.hpp:77] Creating layer batch_norm3
I1011 15:06:38.846455 38966 net.cpp:86] Creating Layer batch_norm3
I1011 15:06:38.846458 38966 net.cpp:408] batch_norm3 <- conv3
I1011 15:06:38.846463 38966 net.cpp:369] batch_norm3 -> conv3 (in-place)
I1011 15:06:38.846653 38966 net.cpp:124] Setting up batch_norm3
I1011 15:06:38.846662 38966 net.cpp:131] Top shape: 20 15 208 208 (12979200)
I1011 15:06:38.846664 38966 net.cpp:139] Memory required for data: 1031773760
I1011 15:06:38.846670 38966 layer_factory.hpp:77] Creating layer bn_scale3
I1011 15:06:38.846676 38966 net.cpp:86] Creating Layer bn_scale3
I1011 15:06:38.846680 38966 net.cpp:408] bn_scale3 <- conv3
I1011 15:06:38.846685 38966 net.cpp:369] bn_scale3 -> conv3 (in-place)
I1011 15:06:38.846714 38966 layer_factory.hpp:77] Creating layer bn_scale3
I1011 15:06:38.847991 38966 net.cpp:124] Setting up bn_scale3
I1011 15:06:38.848017 38966 net.cpp:131] Top shape: 20 15 208 208 (12979200)
I1011 15:06:38.848021 38966 net.cpp:139] Memory required for data: 1083690560
I1011 15:06:38.848031 38966 layer_factory.hpp:77] Creating layer conv4
I1011 15:06:38.848040 38966 net.cpp:86] Creating Layer conv4
I1011 15:06:38.848044 38966 net.cpp:408] conv4 <- conv3
I1011 15:06:38.848052 38966 net.cpp:382] conv4 -> conv4
I1011 15:06:38.848237 38966 net.cpp:124] Setting up conv4
I1011 15:06:38.848245 38966 net.cpp:131] Top shape: 20 87 208 208 (75279360)
I1011 15:06:38.848249 38966 net.cpp:139] Memory required for data: 1384808000
I1011 15:06:38.848254 38966 layer_factory.hpp:77] Creating layer batch_norm4
I1011 15:06:38.848260 38966 net.cpp:86] Creating Layer batch_norm4
I1011 15:06:38.848263 38966 net.cpp:408] batch_norm4 <- conv4
I1011 15:06:38.848268 38966 net.cpp:369] batch_norm4 -> conv4 (in-place)
I1011 15:06:38.848423 38966 net.cpp:124] Setting up batch_norm4
I1011 15:06:38.848431 38966 net.cpp:131] Top shape: 20 87 208 208 (75279360)
I1011 15:06:38.848435 38966 net.cpp:139] Memory required for data: 1685925440
I1011 15:06:38.848443 38966 layer_factory.hpp:77] Creating layer bn_scale4
I1011 15:06:38.848448 38966 net.cpp:86] Creating Layer bn_scale4
I1011 15:06:38.848451 38966 net.cpp:408] bn_scale4 <- conv4
I1011 15:06:38.848457 38966 net.cpp:369] bn_scale4 -> conv4 (in-place)
I1011 15:06:38.848487 38966 layer_factory.hpp:77] Creating layer bn_scale4
I1011 15:06:38.848611 38966 net.cpp:124] Setting up bn_scale4
I1011 15:06:38.848620 38966 net.cpp:131] Top shape: 20 87 208 208 (75279360)
I1011 15:06:38.848623 38966 net.cpp:139] Memory required for data: 1987042880
I1011 15:06:38.848628 38966 layer_factory.hpp:77] Creating layer relu3
I1011 15:06:38.848636 38966 net.cpp:86] Creating Layer relu3
I1011 15:06:38.848639 38966 net.cpp:408] relu3 <- conv4
I1011 15:06:38.848645 38966 net.cpp:369] relu3 -> conv4 (in-place)
I1011 15:06:38.848650 38966 net.cpp:124] Setting up relu3
I1011 15:06:38.848654 38966 net.cpp:131] Top shape: 20 87 208 208 (75279360)
I1011 15:06:38.848657 38966 net.cpp:139] Memory required for data: 2288160320
I1011 15:06:38.848660 38966 layer_factory.hpp:77] Creating layer conv5
I1011 15:06:38.848667 38966 net.cpp:86] Creating Layer conv5
I1011 15:06:38.848671 38966 net.cpp:408] conv5 <- conv4
I1011 15:06:38.848676 38966 net.cpp:382] conv5 -> conv5
I1011 15:06:38.848819 38966 net.cpp:124] Setting up conv5
I1011 15:06:38.848826 38966 net.cpp:131] Top shape: 20 87 104 104 (18819840)
I1011 15:06:38.848829 38966 net.cpp:139] Memory required for data: 2363439680
I1011 15:06:38.848834 38966 layer_factory.hpp:77] Creating layer batch_norm5
I1011 15:06:38.848840 38966 net.cpp:86] Creating Layer batch_norm5
I1011 15:06:38.848845 38966 net.cpp:408] batch_norm5 <- conv5
I1011 15:06:38.848850 38966 net.cpp:369] batch_norm5 -> conv5 (in-place)
I1011 15:06:38.848994 38966 net.cpp:124] Setting up batch_norm5
I1011 15:06:38.849002 38966 net.cpp:131] Top shape: 20 87 104 104 (18819840)
I1011 15:06:38.849018 38966 net.cpp:139] Memory required for data: 2438719040
I1011 15:06:38.849026 38966 layer_factory.hpp:77] Creating layer bn_scale5
I1011 15:06:38.849032 38966 net.cpp:86] Creating Layer bn_scale5
I1011 15:06:38.849035 38966 net.cpp:408] bn_scale5 <- conv5
I1011 15:06:38.849041 38966 net.cpp:369] bn_scale5 -> conv5 (in-place)
I1011 15:06:38.849084 38966 layer_factory.hpp:77] Creating layer bn_scale5
I1011 15:06:38.849182 38966 net.cpp:124] Setting up bn_scale5
I1011 15:06:38.849190 38966 net.cpp:131] Top shape: 20 87 104 104 (18819840)
I1011 15:06:38.849195 38966 net.cpp:139] Memory required for data: 2513998400
I1011 15:06:38.849200 38966 layer_factory.hpp:77] Creating layer relu4
I1011 15:06:38.849205 38966 net.cpp:86] Creating Layer relu4
I1011 15:06:38.849210 38966 net.cpp:408] relu4 <- conv5
I1011 15:06:38.849215 38966 net.cpp:369] relu4 -> conv5 (in-place)
I1011 15:06:38.849220 38966 net.cpp:124] Setting up relu4
I1011 15:06:38.849223 38966 net.cpp:131] Top shape: 20 87 104 104 (18819840)
I1011 15:06:38.849227 38966 net.cpp:139] Memory required for data: 2589277760
I1011 15:06:38.849231 38966 layer_factory.hpp:77] Creating layer conv6
I1011 15:06:38.849238 38966 net.cpp:86] Creating Layer conv6
I1011 15:06:38.849241 38966 net.cpp:408] conv6 <- conv5
I1011 15:06:38.849247 38966 net.cpp:382] conv6 -> conv6
I1011 15:06:38.849404 38966 net.cpp:124] Setting up conv6
I1011 15:06:38.849412 38966 net.cpp:131] Top shape: 20 22 104 104 (4759040)
I1011 15:06:38.849416 38966 net.cpp:139] Memory required for data: 2608313920
I1011 15:06:38.849421 38966 layer_factory.hpp:77] Creating layer batch_norm6
I1011 15:06:38.849426 38966 net.cpp:86] Creating Layer batch_norm6
I1011 15:06:38.849429 38966 net.cpp:408] batch_norm6 <- conv6
I1011 15:06:38.849436 38966 net.cpp:369] batch_norm6 -> conv6 (in-place)
I1011 15:06:38.849582 38966 net.cpp:124] Setting up batch_norm6
I1011 15:06:38.849591 38966 net.cpp:131] Top shape: 20 22 104 104 (4759040)
I1011 15:06:38.849594 38966 net.cpp:139] Memory required for data: 2627350080
I1011 15:06:38.849604 38966 layer_factory.hpp:77] Creating layer bn_scale6
I1011 15:06:38.849611 38966 net.cpp:86] Creating Layer bn_scale6
I1011 15:06:38.849613 38966 net.cpp:408] bn_scale6 <- conv6
I1011 15:06:38.849619 38966 net.cpp:369] bn_scale6 -> conv6 (in-place)
I1011 15:06:38.849649 38966 layer_factory.hpp:77] Creating layer bn_scale6
I1011 15:06:38.849750 38966 net.cpp:124] Setting up bn_scale6
I1011 15:06:38.849758 38966 net.cpp:131] Top shape: 20 22 104 104 (4759040)
I1011 15:06:38.849761 38966 net.cpp:139] Memory required for data: 2646386240
I1011 15:06:38.849767 38966 layer_factory.hpp:77] Creating layer conv6_bn_scale6_0_split
I1011 15:06:38.849773 38966 net.cpp:86] Creating Layer conv6_bn_scale6_0_split
I1011 15:06:38.849777 38966 net.cpp:408] conv6_bn_scale6_0_split <- conv6
I1011 15:06:38.849782 38966 net.cpp:382] conv6_bn_scale6_0_split -> conv6_bn_scale6_0_split_0
I1011 15:06:38.849789 38966 net.cpp:382] conv6_bn_scale6_0_split -> conv6_bn_scale6_0_split_1
I1011 15:06:38.849817 38966 net.cpp:124] Setting up conv6_bn_scale6_0_split
I1011 15:06:38.849824 38966 net.cpp:131] Top shape: 20 22 104 104 (4759040)
I1011 15:06:38.849829 38966 net.cpp:131] Top shape: 20 22 104 104 (4759040)
I1011 15:06:38.849833 38966 net.cpp:139] Memory required for data: 2684458560
I1011 15:06:38.849835 38966 layer_factory.hpp:77] Creating layer conv7
I1011 15:06:38.849843 38966 net.cpp:86] Creating Layer conv7
I1011 15:06:38.849848 38966 net.cpp:408] conv7 <- conv6_bn_scale6_0_split_0
I1011 15:06:38.849853 38966 net.cpp:382] conv7 -> conv7
I1011 15:06:38.850024 38966 net.cpp:124] Setting up conv7
I1011 15:06:38.850033 38966 net.cpp:131] Top shape: 20 130 104 104 (28121600)
I1011 15:06:38.850035 38966 net.cpp:139] Memory required for data: 2796944960
I1011 15:06:38.850040 38966 layer_factory.hpp:77] Creating layer batch_norm7
I1011 15:06:38.850049 38966 net.cpp:86] Creating Layer batch_norm7
I1011 15:06:38.850054 38966 net.cpp:408] batch_norm7 <- conv7
I1011 15:06:38.850059 38966 net.cpp:369] batch_norm7 -> conv7 (in-place)
I1011 15:06:38.850219 38966 net.cpp:124] Setting up batch_norm7
I1011 15:06:38.850227 38966 net.cpp:131] Top shape: 20 130 104 104 (28121600)
I1011 15:06:38.850230 38966 net.cpp:139] Memory required for data: 2909431360
I1011 15:06:38.850237 38966 layer_factory.hpp:77] Creating layer bn_scale7
I1011 15:06:38.850244 38966 net.cpp:86] Creating Layer bn_scale7
I1011 15:06:38.850247 38966 net.cpp:408] bn_scale7 <- conv7
I1011 15:06:38.850255 38966 net.cpp:369] bn_scale7 -> conv7 (in-place)
I1011 15:06:38.850283 38966 layer_factory.hpp:77] Creating layer bn_scale7
I1011 15:06:38.850389 38966 net.cpp:124] Setting up bn_scale7
I1011 15:06:38.850396 38966 net.cpp:131] Top shape: 20 130 104 104 (28121600)
I1011 15:06:38.850400 38966 net.cpp:139] Memory required for data: 3021917760
I1011 15:06:38.850405 38966 layer_factory.hpp:77] Creating layer relu5
I1011 15:06:38.850410 38966 net.cpp:86] Creating Layer relu5
I1011 15:06:38.850414 38966 net.cpp:408] relu5 <- conv7
I1011 15:06:38.850420 38966 net.cpp:369] relu5 -> conv7 (in-place)
I1011 15:06:38.850426 38966 net.cpp:124] Setting up relu5
I1011 15:06:38.850430 38966 net.cpp:131] Top shape: 20 130 104 104 (28121600)
I1011 15:06:38.850433 38966 net.cpp:139] Memory required for data: 3134404160
I1011 15:06:38.850436 38966 layer_factory.hpp:77] Creating layer conv8
I1011 15:06:38.850445 38966 net.cpp:86] Creating Layer conv8
I1011 15:06:38.850448 38966 net.cpp:408] conv8 <- conv7
I1011 15:06:38.850455 38966 net.cpp:382] conv8 -> conv8
I1011 15:06:38.850607 38966 net.cpp:124] Setting up conv8
I1011 15:06:38.850616 38966 net.cpp:131] Top shape: 20 130 104 104 (28121600)
I1011 15:06:38.850620 38966 net.cpp:139] Memory required for data: 3246890560
I1011 15:06:38.850625 38966 layer_factory.hpp:77] Creating layer batch_norm8
I1011 15:06:38.850630 38966 net.cpp:86] Creating Layer batch_norm8
I1011 15:06:38.850633 38966 net.cpp:408] batch_norm8 <- conv8
I1011 15:06:38.850637 38966 net.cpp:369] batch_norm8 -> conv8 (in-place)
I1011 15:06:38.850790 38966 net.cpp:124] Setting up batch_norm8
I1011 15:06:38.850797 38966 net.cpp:131] Top shape: 20 130 104 104 (28121600)
I1011 15:06:38.850800 38966 net.cpp:139] Memory required for data: 3359376960
I1011 15:06:38.850807 38966 layer_factory.hpp:77] Creating layer bn_scale8
I1011 15:06:38.850816 38966 net.cpp:86] Creating Layer bn_scale8
I1011 15:06:38.850818 38966 net.cpp:408] bn_scale8 <- conv8
I1011 15:06:38.850823 38966 net.cpp:369] bn_scale8 -> conv8 (in-place)
I1011 15:06:38.850857 38966 layer_factory.hpp:77] Creating layer bn_scale8
I1011 15:06:38.856454 38966 net.cpp:124] Setting up bn_scale8
I1011 15:06:38.856465 38966 net.cpp:131] Top shape: 20 130 104 104 (28121600)
I1011 15:06:38.856480 38966 net.cpp:139] Memory required for data: 3471863360
I1011 15:06:38.856487 38966 layer_factory.hpp:77] Creating layer relu6
I1011 15:06:38.856496 38966 net.cpp:86] Creating Layer relu6
I1011 15:06:38.856500 38966 net.cpp:408] relu6 <- conv8
I1011 15:06:38.856505 38966 net.cpp:369] relu6 -> conv8 (in-place)
I1011 15:06:38.856510 38966 net.cpp:124] Setting up relu6
I1011 15:06:38.856515 38966 net.cpp:131] Top shape: 20 130 104 104 (28121600)
I1011 15:06:38.856518 38966 net.cpp:139] Memory required for data: 3584349760
I1011 15:06:38.856521 38966 layer_factory.hpp:77] Creating layer conv9
I1011 15:06:38.856530 38966 net.cpp:86] Creating Layer conv9
I1011 15:06:38.856534 38966 net.cpp:408] conv9 <- conv8
I1011 15:06:38.856539 38966 net.cpp:382] conv9 -> conv9
I1011 15:06:38.856712 38966 net.cpp:124] Setting up conv9
I1011 15:06:38.856720 38966 net.cpp:131] Top shape: 20 22 104 104 (4759040)
I1011 15:06:38.856724 38966 net.cpp:139] Memory required for data: 3603385920
I1011 15:06:38.856729 38966 layer_factory.hpp:77] Creating layer batch_norm9
I1011 15:06:38.856734 38966 net.cpp:86] Creating Layer batch_norm9
I1011 15:06:38.856739 38966 net.cpp:408] batch_norm9 <- conv9
I1011 15:06:38.856742 38966 net.cpp:369] batch_norm9 -> conv9 (in-place)
I1011 15:06:38.856904 38966 net.cpp:124] Setting up batch_norm9
I1011 15:06:38.856911 38966 net.cpp:131] Top shape: 20 22 104 104 (4759040)
I1011 15:06:38.856925 38966 net.cpp:139] Memory required for data: 3622422080
I1011 15:06:38.856932 38966 layer_factory.hpp:77] Creating layer bn_scale9
I1011 15:06:38.856940 38966 net.cpp:86] Creating Layer bn_scale9
I1011 15:06:38.856943 38966 net.cpp:408] bn_scale9 <- conv9
I1011 15:06:38.856948 38966 net.cpp:369] bn_scale9 -> conv9 (in-place)
I1011 15:06:38.856981 38966 layer_factory.hpp:77] Creating layer bn_scale9
I1011 15:06:38.857081 38966 net.cpp:124] Setting up bn_scale9
I1011 15:06:38.857089 38966 net.cpp:131] Top shape: 20 22 104 104 (4759040)
I1011 15:06:38.857092 38966 net.cpp:139] Memory required for data: 3641458240
I1011 15:06:38.857098 38966 layer_factory.hpp:77] Creating layer add1
I1011 15:06:38.857107 38966 net.cpp:86] Creating Layer add1
I1011 15:06:38.857110 38966 net.cpp:408] add1 <- conv6_bn_scale6_0_split_1
I1011 15:06:38.857115 38966 net.cpp:408] add1 <- conv9
I1011 15:06:38.857120 38966 net.cpp:382] add1 -> add1
I1011 15:06:38.857144 38966 net.cpp:124] Setting up add1
I1011 15:06:38.857151 38966 net.cpp:131] Top shape: 20 22 104 104 (4759040)
I1011 15:06:38.857154 38966 net.cpp:139] Memory required for data: 3660494400
I1011 15:06:38.857157 38966 layer_factory.hpp:77] Creating layer conv10
I1011 15:06:38.857167 38966 net.cpp:86] Creating Layer conv10
I1011 15:06:38.857170 38966 net.cpp:408] conv10 <- add1
I1011 15:06:38.857177 38966 net.cpp:382] conv10 -> conv10
I1011 15:06:38.857343 38966 net.cpp:124] Setting up conv10
I1011 15:06:38.857352 38966 net.cpp:131] Top shape: 20 130 104 104 (28121600)
I1011 15:06:38.857355 38966 net.cpp:139] Memory required for data: 3772980800
I1011 15:06:38.857359 38966 layer_factory.hpp:77] Creating layer batch_norm10
I1011 15:06:38.857367 38966 net.cpp:86] Creating Layer batch_norm10
I1011 15:06:38.857369 38966 net.cpp:408] batch_norm10 <- conv10
I1011 15:06:38.857374 38966 net.cpp:369] batch_norm10 -> conv10 (in-place)
I1011 15:06:38.857525 38966 net.cpp:124] Setting up batch_norm10
I1011 15:06:38.857533 38966 net.cpp:131] Top shape: 20 130 104 104 (28121600)
I1011 15:06:38.857537 38966 net.cpp:139] Memory required for data: 3885467200
I1011 15:06:38.857542 38966 layer_factory.hpp:77] Creating layer bn_scale10
I1011 15:06:38.857551 38966 net.cpp:86] Creating Layer bn_scale10
I1011 15:06:38.857554 38966 net.cpp:408] bn_scale10 <- conv10
I1011 15:06:38.857559 38966 net.cpp:369] bn_scale10 -> conv10 (in-place)
I1011 15:06:38.857589 38966 layer_factory.hpp:77] Creating layer bn_scale10
I1011 15:06:38.857687 38966 net.cpp:124] Setting up bn_scale10
I1011 15:06:38.857695 38966 net.cpp:131] Top shape: 20 130 104 104 (28121600)
I1011 15:06:38.857699 38966 net.cpp:139] Memory required for data: 3997953600
I1011 15:06:38.857704 38966 layer_factory.hpp:77] Creating layer relu7
I1011 15:06:38.857712 38966 net.cpp:86] Creating Layer relu7
I1011 15:06:38.857715 38966 net.cpp:408] relu7 <- conv10
I1011 15:06:38.857719 38966 net.cpp:369] relu7 -> conv10 (in-place)
I1011 15:06:38.857726 38966 net.cpp:124] Setting up relu7
I1011 15:06:38.857730 38966 net.cpp:131] Top shape: 20 130 104 104 (28121600)
I1011 15:06:38.857733 38966 net.cpp:139] Memory required for data: 4110440000
I1011 15:06:38.857736 38966 layer_factory.hpp:77] Creating layer conv11
I1011 15:06:38.857743 38966 net.cpp:86] Creating Layer conv11
I1011 15:06:38.857745 38966 net.cpp:408] conv11 <- conv10
I1011 15:06:38.857753 38966 net.cpp:382] conv11 -> conv11
I1011 15:06:38.857899 38966 net.cpp:124] Setting up conv11
I1011 15:06:38.857908 38966 net.cpp:131] Top shape: 20 130 52 52 (7030400)
I1011 15:06:38.857910 38966 net.cpp:139] Memory required for data: 4138561600
I1011 15:06:38.857914 38966 layer_factory.hpp:77] Creating layer batch_norm11
I1011 15:06:38.857921 38966 net.cpp:86] Creating Layer batch_norm11
I1011 15:06:38.857925 38966 net.cpp:408] batch_norm11 <- conv11
I1011 15:06:38.857929 38966 net.cpp:369] batch_norm11 -> conv11 (in-place)
I1011 15:06:38.858074 38966 net.cpp:124] Setting up batch_norm11
I1011 15:06:38.858081 38966 net.cpp:131] Top shape: 20 130 52 52 (7030400)
I1011 15:06:38.858096 38966 net.cpp:139] Memory required for data: 4166683200
I1011 15:06:38.858103 38966 layer_factory.hpp:77] Creating layer bn_scale11
I1011 15:06:38.858109 38966 net.cpp:86] Creating Layer bn_scale11
I1011 15:06:38.858112 38966 net.cpp:408] bn_scale11 <- conv11
I1011 15:06:38.858119 38966 net.cpp:369] bn_scale11 -> conv11 (in-place)
I1011 15:06:38.858150 38966 layer_factory.hpp:77] Creating layer bn_scale11
I1011 15:06:38.858240 38966 net.cpp:124] Setting up bn_scale11
I1011 15:06:38.858249 38966 net.cpp:131] Top shape: 20 130 52 52 (7030400)
I1011 15:06:38.858253 38966 net.cpp:139] Memory required for data: 4194804800
I1011 15:06:38.858266 38966 layer_factory.hpp:77] Creating layer relu8
I1011 15:06:38.858274 38966 net.cpp:86] Creating Layer relu8
I1011 15:06:38.858278 38966 net.cpp:408] relu8 <- conv11
I1011 15:06:38.858283 38966 net.cpp:369] relu8 -> conv11 (in-place)
I1011 15:06:38.858287 38966 net.cpp:124] Setting up relu8
I1011 15:06:38.858291 38966 net.cpp:131] Top shape: 20 130 52 52 (7030400)
I1011 15:06:38.858294 38966 net.cpp:139] Memory required for data: 4222926400
I1011 15:06:38.858297 38966 layer_factory.hpp:77] Creating layer conv12
I1011 15:06:38.858304 38966 net.cpp:86] Creating Layer conv12
I1011 15:06:38.858309 38966 net.cpp:408] conv12 <- conv11
I1011 15:06:38.858314 38966 net.cpp:382] conv12 -> conv12
I1011 15:06:38.858494 38966 net.cpp:124] Setting up conv12
I1011 15:06:38.858501 38966 net.cpp:131] Top shape: 20 32 52 52 (1730560)
I1011 15:06:38.858505 38966 net.cpp:139] Memory required for data: 4229848640
I1011 15:06:38.858508 38966 layer_factory.hpp:77] Creating layer batch_norm12
I1011 15:06:38.858513 38966 net.cpp:86] Creating Layer batch_norm12
I1011 15:06:38.858517 38966 net.cpp:408] batch_norm12 <- conv12
I1011 15:06:38.858521 38966 net.cpp:369] batch_norm12 -> conv12 (in-place)
I1011 15:06:38.858670 38966 net.cpp:124] Setting up batch_norm12
I1011 15:06:38.858678 38966 net.cpp:131] Top shape: 20 32 52 52 (1730560)
I1011 15:06:38.858681 38966 net.cpp:139] Memory required for data: 4236770880
I1011 15:06:38.858687 38966 layer_factory.hpp:77] Creating layer bn_scale12
I1011 15:06:38.858692 38966 net.cpp:86] Creating Layer bn_scale12
I1011 15:06:38.858695 38966 net.cpp:408] bn_scale12 <- conv12
I1011 15:06:38.858700 38966 net.cpp:369] bn_scale12 -> conv12 (in-place)
I1011 15:06:38.858731 38966 layer_factory.hpp:77] Creating layer bn_scale12
I1011 15:06:38.858826 38966 net.cpp:124] Setting up bn_scale12
I1011 15:06:38.858834 38966 net.cpp:131] Top shape: 20 32 52 52 (1730560)
I1011 15:06:38.858837 38966 net.cpp:139] Memory required for data: 4243693120
I1011 15:06:38.858842 38966 layer_factory.hpp:77] Creating layer conv12_bn_scale12_0_split
I1011 15:06:38.858848 38966 net.cpp:86] Creating Layer conv12_bn_scale12_0_split
I1011 15:06:38.858851 38966 net.cpp:408] conv12_bn_scale12_0_split <- conv12
I1011 15:06:38.858858 38966 net.cpp:382] conv12_bn_scale12_0_split -> conv12_bn_scale12_0_split_0
I1011 15:06:38.858865 38966 net.cpp:382] conv12_bn_scale12_0_split -> conv12_bn_scale12_0_split_1
I1011 15:06:38.858892 38966 net.cpp:124] Setting up conv12_bn_scale12_0_split
I1011 15:06:38.858899 38966 net.cpp:131] Top shape: 20 32 52 52 (1730560)
I1011 15:06:38.858903 38966 net.cpp:131] Top shape: 20 32 52 52 (1730560)
I1011 15:06:38.858906 38966 net.cpp:139] Memory required for data: 4257537600
I1011 15:06:38.858909 38966 layer_factory.hpp:77] Creating layer conv13
I1011 15:06:38.858919 38966 net.cpp:86] Creating Layer conv13
I1011 15:06:38.858922 38966 net.cpp:408] conv13 <- conv12_bn_scale12_0_split_0
I1011 15:06:38.858928 38966 net.cpp:382] conv13 -> conv13
I1011 15:06:38.859113 38966 net.cpp:124] Setting up conv13
I1011 15:06:38.859122 38966 net.cpp:131] Top shape: 20 173 52 52 (9355840)
I1011 15:06:38.859124 38966 net.cpp:139] Memory required for data: 4294960960
I1011 15:06:38.859129 38966 layer_factory.hpp:77] Creating layer batch_norm13
I1011 15:06:38.859136 38966 net.cpp:86] Creating Layer batch_norm13
I1011 15:06:38.859139 38966 net.cpp:408] batch_norm13 <- conv13
I1011 15:06:38.859153 38966 net.cpp:369] batch_norm13 -> conv13 (in-place)
I1011 15:06:38.859311 38966 net.cpp:124] Setting up batch_norm13
I1011 15:06:38.859321 38966 net.cpp:131] Top shape: 20 173 52 52 (9355840)
I1011 15:06:38.859325 38966 net.cpp:139] Memory required for data: 4332384320
I1011 15:06:38.859331 38966 layer_factory.hpp:77] Creating layer bn_scale13
I1011 15:06:38.859336 38966 net.cpp:86] Creating Layer bn_scale13
I1011 15:06:38.859340 38966 net.cpp:408] bn_scale13 <- conv13
I1011 15:06:38.859346 38966 net.cpp:369] bn_scale13 -> conv13 (in-place)
I1011 15:06:38.859375 38966 layer_factory.hpp:77] Creating layer bn_scale13
I1011 15:06:38.859467 38966 net.cpp:124] Setting up bn_scale13
I1011 15:06:38.859475 38966 net.cpp:131] Top shape: 20 173 52 52 (9355840)
I1011 15:06:38.859478 38966 net.cpp:139] Memory required for data: 4369807680
I1011 15:06:38.859483 38966 layer_factory.hpp:77] Creating layer relu9
I1011 15:06:38.859488 38966 net.cpp:86] Creating Layer relu9
I1011 15:06:38.859493 38966 net.cpp:408] relu9 <- conv13
I1011 15:06:38.859498 38966 net.cpp:369] relu9 -> conv13 (in-place)
I1011 15:06:38.859503 38966 net.cpp:124] Setting up relu9
I1011 15:06:38.859508 38966 net.cpp:131] Top shape: 20 173 52 52 (9355840)
I1011 15:06:38.859510 38966 net.cpp:139] Memory required for data: 4407231040
I1011 15:06:38.859513 38966 layer_factory.hpp:77] Creating layer conv14
I1011 15:06:38.859521 38966 net.cpp:86] Creating Layer conv14
I1011 15:06:38.859524 38966 net.cpp:408] conv14 <- conv13
I1011 15:06:38.859529 38966 net.cpp:382] conv14 -> conv14
I1011 15:06:38.859686 38966 net.cpp:124] Setting up conv14
I1011 15:06:38.859694 38966 net.cpp:131] Top shape: 20 173 52 52 (9355840)
I1011 15:06:38.859697 38966 net.cpp:139] Memory required for data: 4444654400
I1011 15:06:38.859701 38966 layer_factory.hpp:77] Creating layer batch_norm14
I1011 15:06:38.859707 38966 net.cpp:86] Creating Layer batch_norm14
I1011 15:06:38.859710 38966 net.cpp:408] batch_norm14 <- conv14
I1011 15:06:38.859714 38966 net.cpp:369] batch_norm14 -> conv14 (in-place)
I1011 15:06:38.859869 38966 net.cpp:124] Setting up batch_norm14
I1011 15:06:38.859877 38966 net.cpp:131] Top shape: 20 173 52 52 (9355840)
I1011 15:06:38.859880 38966 net.cpp:139] Memory required for data: 4482077760
I1011 15:06:38.859887 38966 layer_factory.hpp:77] Creating layer bn_scale14
I1011 15:06:38.859894 38966 net.cpp:86] Creating Layer bn_scale14
I1011 15:06:38.859897 38966 net.cpp:408] bn_scale14 <- conv14
I1011 15:06:38.859901 38966 net.cpp:369] bn_scale14 -> conv14 (in-place)
I1011 15:06:38.859935 38966 layer_factory.hpp:77] Creating layer bn_scale14
I1011 15:06:38.860031 38966 net.cpp:124] Setting up bn_scale14
I1011 15:06:38.860040 38966 net.cpp:131] Top shape: 20 173 52 52 (9355840)
I1011 15:06:38.860044 38966 net.cpp:139] Memory required for data: 4519501120
I1011 15:06:38.860049 38966 layer_factory.hpp:77] Creating layer relu10
I1011 15:06:38.860055 38966 net.cpp:86] Creating Layer relu10
I1011 15:06:38.860059 38966 net.cpp:408] relu10 <- conv14
I1011 15:06:38.860069 38966 net.cpp:369] relu10 -> conv14 (in-place)
I1011 15:06:38.860074 38966 net.cpp:124] Setting up relu10
I1011 15:06:38.860077 38966 net.cpp:131] Top shape: 20 173 52 52 (9355840)
I1011 15:06:38.860080 38966 net.cpp:139] Memory required for data: 4556924480
I1011 15:06:38.860083 38966 layer_factory.hpp:77] Creating layer conv15
I1011 15:06:38.860090 38966 net.cpp:86] Creating Layer conv15
I1011 15:06:38.860093 38966 net.cpp:408] conv15 <- conv14
I1011 15:06:38.860100 38966 net.cpp:382] conv15 -> conv15
I1011 15:06:38.860297 38966 net.cpp:124] Setting up conv15
I1011 15:06:38.860304 38966 net.cpp:131] Top shape: 20 32 52 52 (1730560)
I1011 15:06:38.860308 38966 net.cpp:139] Memory required for data: 4563846720
I1011 15:06:38.860312 38966 layer_factory.hpp:77] Creating layer batch_norm15
I1011 15:06:38.860319 38966 net.cpp:86] Creating Layer batch_norm15
I1011 15:06:38.860323 38966 net.cpp:408] batch_norm15 <- conv15
I1011 15:06:38.860327 38966 net.cpp:369] batch_norm15 -> conv15 (in-place)
I1011 15:06:38.860569 38966 net.cpp:124] Setting up batch_norm15
I1011 15:06:38.860587 38966 net.cpp:131] Top shape: 20 32 52 52 (1730560)
I1011 15:06:38.860591 38966 net.cpp:139] Memory required for data: 4570768960
I1011 15:06:38.860599 38966 layer_factory.hpp:77] Creating layer bn_scale15
I1011 15:06:38.860605 38966 net.cpp:86] Creating Layer bn_scale15
I1011 15:06:38.860608 38966 net.cpp:408] bn_scale15 <- conv15
I1011 15:06:38.860617 38966 net.cpp:369] bn_scale15 -> conv15 (in-place)
I1011 15:06:38.860652 38966 layer_factory.hpp:77] Creating layer bn_scale15
I1011 15:06:38.860787 38966 net.cpp:124] Setting up bn_scale15
I1011 15:06:38.860838 38966 net.cpp:131] Top shape: 20 32 52 52 (1730560)
I1011 15:06:38.860844 38966 net.cpp:139] Memory required for data: 4577691200
I1011 15:06:38.860850 38966 layer_factory.hpp:77] Creating layer add2
I1011 15:06:38.860857 38966 net.cpp:86] Creating Layer add2
I1011 15:06:38.860862 38966 net.cpp:408] add2 <- conv12_bn_scale12_0_split_1
I1011 15:06:38.860865 38966 net.cpp:408] add2 <- conv15
I1011 15:06:38.860870 38966 net.cpp:382] add2 -> add2
I1011 15:06:38.860894 38966 net.cpp:124] Setting up add2
I1011 15:06:38.860901 38966 net.cpp:131] Top shape: 20 32 52 52 (1730560)
I1011 15:06:38.860905 38966 net.cpp:139] Memory required for data: 4584613440
I1011 15:06:38.860909 38966 layer_factory.hpp:77] Creating layer add2_add2_0_split
I1011 15:06:38.860918 38966 net.cpp:86] Creating Layer add2_add2_0_split
I1011 15:06:38.860921 38966 net.cpp:408] add2_add2_0_split <- add2
I1011 15:06:38.860927 38966 net.cpp:382] add2_add2_0_split -> add2_add2_0_split_0
I1011 15:06:38.860934 38966 net.cpp:382] add2_add2_0_split -> add2_add2_0_split_1
I1011 15:06:38.860977 38966 net.cpp:124] Setting up add2_add2_0_split
I1011 15:06:38.860985 38966 net.cpp:131] Top shape: 20 32 52 52 (1730560)
I1011 15:06:38.860990 38966 net.cpp:131] Top shape: 20 32 52 52 (1730560)
I1011 15:06:38.860992 38966 net.cpp:139] Memory required for data: 4598457920
I1011 15:06:38.860996 38966 layer_factory.hpp:77] Creating layer conv16
I1011 15:06:38.861052 38966 net.cpp:86] Creating Layer conv16
I1011 15:06:38.861059 38966 net.cpp:408] conv16 <- add2_add2_0_split_0
I1011 15:06:38.861065 38966 net.cpp:382] conv16 -> conv16
I1011 15:06:38.861330 38966 net.cpp:124] Setting up conv16
I1011 15:06:38.861340 38966 net.cpp:131] Top shape: 20 173 52 52 (9355840)
I1011 15:06:38.861343 38966 net.cpp:139] Memory required for data: 4635881280
I1011 15:06:38.861349 38966 layer_factory.hpp:77] Creating layer batch_norm16
I1011 15:06:38.861356 38966 net.cpp:86] Creating Layer batch_norm16
I1011 15:06:38.861359 38966 net.cpp:408] batch_norm16 <- conv16
I1011 15:06:38.861364 38966 net.cpp:369] batch_norm16 -> conv16 (in-place)
I1011 15:06:38.861627 38966 net.cpp:124] Setting up batch_norm16
I1011 15:06:38.861639 38966 net.cpp:131] Top shape: 20 173 52 52 (9355840)
I1011 15:06:38.861644 38966 net.cpp:139] Memory required for data: 4673304640
I1011 15:06:38.861651 38966 layer_factory.hpp:77] Creating layer bn_scale16
I1011 15:06:38.861726 38966 net.cpp:86] Creating Layer bn_scale16
I1011 15:06:38.861732 38966 net.cpp:408] bn_scale16 <- conv16
I1011 15:06:38.861740 38966 net.cpp:369] bn_scale16 -> conv16 (in-place)
I1011 15:06:38.861781 38966 layer_factory.hpp:77] Creating layer bn_scale16
I1011 15:06:38.862053 38966 net.cpp:124] Setting up bn_scale16
I1011 15:06:38.862079 38966 net.cpp:131] Top shape: 20 173 52 52 (9355840)
I1011 15:06:38.862087 38966 net.cpp:139] Memory required for data: 4710728000
I1011 15:06:38.862104 38966 layer_factory.hpp:77] Creating layer relu11
I1011 15:06:38.862121 38966 net.cpp:86] Creating Layer relu11
I1011 15:06:38.862130 38966 net.cpp:408] relu11 <- conv16
I1011 15:06:38.862155 38966 net.cpp:369] relu11 -> conv16 (in-place)
I1011 15:06:38.862170 38966 net.cpp:124] Setting up relu11
I1011 15:06:38.862182 38966 net.cpp:131] Top shape: 20 173 52 52 (9355840)
I1011 15:06:38.862190 38966 net.cpp:139] Memory required for data: 4748151360
I1011 15:06:38.862200 38966 layer_factory.hpp:77] Creating layer conv17
I1011 15:06:38.862215 38966 net.cpp:86] Creating Layer conv17
I1011 15:06:38.862246 38966 net.cpp:408] conv17 <- conv16
I1011 15:06:38.862262 38966 net.cpp:382] conv17 -> conv17
I1011 15:06:38.862763 38966 net.cpp:124] Setting up conv17
I1011 15:06:38.862787 38966 net.cpp:131] Top shape: 20 173 52 52 (9355840)
I1011 15:06:38.862795 38966 net.cpp:139] Memory required for data: 4785574720
I1011 15:06:38.862807 38966 layer_factory.hpp:77] Creating layer batch_norm17
I1011 15:06:38.862821 38966 net.cpp:86] Creating Layer batch_norm17
I1011 15:06:38.862830 38966 net.cpp:408] batch_norm17 <- conv17
I1011 15:06:38.862843 38966 net.cpp:369] batch_norm17 -> conv17 (in-place)
I1011 15:06:38.863435 38966 net.cpp:124] Setting up batch_norm17
I1011 15:06:38.863476 38966 net.cpp:131] Top shape: 20 173 52 52 (9355840)
I1011 15:06:38.863484 38966 net.cpp:139] Memory required for data: 4822998080
I1011 15:06:38.863504 38966 layer_factory.hpp:77] Creating layer bn_scale17
I1011 15:06:38.863588 38966 net.cpp:86] Creating Layer bn_scale17
I1011 15:06:38.863613 38966 net.cpp:408] bn_scale17 <- conv17
I1011 15:06:38.863667 38966 net.cpp:369] bn_scale17 -> conv17 (in-place)
I1011 15:06:38.863835 38966 layer_factory.hpp:77] Creating layer bn_scale17
I1011 15:06:38.864154 38966 net.cpp:124] Setting up bn_scale17
I1011 15:06:38.864185 38966 net.cpp:131] Top shape: 20 173 52 52 (9355840)
I1011 15:06:38.864198 38966 net.cpp:139] Memory required for data: 4860421440
I1011 15:06:38.864221 38966 layer_factory.hpp:77] Creating layer relu12
I1011 15:06:38.864249 38966 net.cpp:86] Creating Layer relu12
I1011 15:06:38.864266 38966 net.cpp:408] relu12 <- conv17
I1011 15:06:38.864285 38966 net.cpp:369] relu12 -> conv17 (in-place)
I1011 15:06:38.864373 38966 net.cpp:124] Setting up relu12
I1011 15:06:38.864456 38966 net.cpp:131] Top shape: 20 173 52 52 (9355840)
I1011 15:06:38.864513 38966 net.cpp:139] Memory required for data: 4897844800
I1011 15:06:38.864569 38966 layer_factory.hpp:77] Creating layer conv18
I1011 15:06:38.864642 38966 net.cpp:86] Creating Layer conv18
I1011 15:06:38.864703 38966 net.cpp:408] conv18 <- conv17
I1011 15:06:38.864782 38966 net.cpp:382] conv18 -> conv18
I1011 15:06:38.865361 38966 net.cpp:124] Setting up conv18
I1011 15:06:38.865393 38966 net.cpp:131] Top shape: 20 32 52 52 (1730560)
I1011 15:06:38.865407 38966 net.cpp:139] Memory required for data: 4904767040
I1011 15:06:38.865427 38966 layer_factory.hpp:77] Creating layer batch_norm18
I1011 15:06:38.865450 38966 net.cpp:86] Creating Layer batch_norm18
I1011 15:06:38.865466 38966 net.cpp:408] batch_norm18 <- conv18
I1011 15:06:38.865494 38966 net.cpp:369] batch_norm18 -> conv18 (in-place)
I1011 15:06:38.865916 38966 net.cpp:124] Setting up batch_norm18
I1011 15:06:38.865938 38966 net.cpp:131] Top shape: 20 32 52 52 (1730560)
I1011 15:06:38.865948 38966 net.cpp:139] Memory required for data: 4911689280
I1011 15:06:38.865978 38966 layer_factory.hpp:77] Creating layer bn_scale18
I1011 15:06:38.866003 38966 net.cpp:86] Creating Layer bn_scale18
I1011 15:06:38.866021 38966 net.cpp:408] bn_scale18 <- conv18
I1011 15:06:38.866048 38966 net.cpp:369] bn_scale18 -> conv18 (in-place)
I1011 15:06:38.866173 38966 layer_factory.hpp:77] Creating layer bn_scale18
I1011 15:06:38.866442 38966 net.cpp:124] Setting up bn_scale18
I1011 15:06:38.866469 38966 net.cpp:131] Top shape: 20 32 52 52 (1730560)
I1011 15:06:38.866482 38966 net.cpp:139] Memory required for data: 4918611520
I1011 15:06:38.866508 38966 layer_factory.hpp:77] Creating layer add3
I1011 15:06:38.866533 38966 net.cpp:86] Creating Layer add3
I1011 15:06:38.866554 38966 net.cpp:408] add3 <- add2_add2_0_split_1
I1011 15:06:38.866575 38966 net.cpp:408] add3 <- conv18
I1011 15:06:38.866601 38966 net.cpp:382] add3 -> add3
I1011 15:06:38.866694 38966 net.cpp:124] Setting up add3
I1011 15:06:38.866716 38966 net.cpp:131] Top shape: 20 32 52 52 (1730560)
I1011 15:06:38.866727 38966 net.cpp:139] Memory required for data: 4925533760
I1011 15:06:38.866745 38966 layer_factory.hpp:77] Creating layer conv19
I1011 15:06:38.866783 38966 net.cpp:86] Creating Layer conv19
I1011 15:06:38.866842 38966 net.cpp:408] conv19 <- add3
I1011 15:06:38.866881 38966 net.cpp:382] conv19 -> conv19
I1011 15:06:38.867432 38966 net.cpp:124] Setting up conv19
I1011 15:06:38.867458 38966 net.cpp:131] Top shape: 20 173 52 52 (9355840)
I1011 15:06:38.867471 38966 net.cpp:139] Memory required for data: 4962957120
I1011 15:06:38.867493 38966 layer_factory.hpp:77] Creating layer batch_norm19
I1011 15:06:38.867519 38966 net.cpp:86] Creating Layer batch_norm19
I1011 15:06:38.867537 38966 net.cpp:408] batch_norm19 <- conv19
I1011 15:06:38.867568 38966 net.cpp:369] batch_norm19 -> conv19 (in-place)
I1011 15:06:38.869827 38966 net.cpp:124] Setting up batch_norm19
I1011 15:06:38.869863 38966 net.cpp:131] Top shape: 20 173 52 52 (9355840)
I1011 15:06:38.869877 38966 net.cpp:139] Memory required for data: 5000380480
I1011 15:06:38.869907 38966 layer_factory.hpp:77] Creating layer bn_scale19
I1011 15:06:38.869937 38966 net.cpp:86] Creating Layer bn_scale19
I1011 15:06:38.870007 38966 net.cpp:408] bn_scale19 <- conv19
I1011 15:06:38.870077 38966 net.cpp:369] bn_scale19 -> conv19 (in-place)
I1011 15:06:38.870251 38966 layer_factory.hpp:77] Creating layer bn_scale19
I1011 15:06:38.870568 38966 net.cpp:124] Setting up bn_scale19
I1011 15:06:38.870596 38966 net.cpp:131] Top shape: 20 173 52 52 (9355840)
I1011 15:06:38.870610 38966 net.cpp:139] Memory required for data: 5037803840
I1011 15:06:38.870635 38966 layer_factory.hpp:77] Creating layer relu13
I1011 15:06:38.870707 38966 net.cpp:86] Creating Layer relu13
I1011 15:06:38.870769 38966 net.cpp:408] relu13 <- conv19
I1011 15:06:38.870841 38966 net.cpp:369] relu13 -> conv19 (in-place)
I1011 15:06:38.870913 38966 net.cpp:124] Setting up relu13
I1011 15:06:38.870980 38966 net.cpp:131] Top shape: 20 173 52 52 (9355840)
I1011 15:06:38.871029 38966 net.cpp:139] Memory required for data: 5075227200
I1011 15:06:38.871084 38966 layer_factory.hpp:77] Creating layer conv20
I1011 15:06:38.871134 38966 net.cpp:86] Creating Layer conv20
I1011 15:06:38.871156 38966 net.cpp:408] conv20 <- conv19
I1011 15:06:38.871186 38966 net.cpp:382] conv20 -> conv20
I1011 15:06:38.871660 38966 net.cpp:124] Setting up conv20
I1011 15:06:38.871687 38966 net.cpp:131] Top shape: 20 173 26 26 (2338960)
I1011 15:06:38.871695 38966 net.cpp:139] Memory required for data: 5084583040
I1011 15:06:38.871711 38966 layer_factory.hpp:77] Creating layer batch_norm20
I1011 15:06:38.871739 38966 net.cpp:86] Creating Layer batch_norm20
I1011 15:06:38.871759 38966 net.cpp:408] batch_norm20 <- conv20
I1011 15:06:38.871779 38966 net.cpp:369] batch_norm20 -> conv20 (in-place)
I1011 15:06:38.872205 38966 net.cpp:124] Setting up batch_norm20
I1011 15:06:38.872226 38966 net.cpp:131] Top shape: 20 173 26 26 (2338960)
I1011 15:06:38.872233 38966 net.cpp:139] Memory required for data: 5093938880
I1011 15:06:38.872261 38966 layer_factory.hpp:77] Creating layer bn_scale20
I1011 15:06:38.872283 38966 net.cpp:86] Creating Layer bn_scale20
I1011 15:06:38.872296 38966 net.cpp:408] bn_scale20 <- conv20
I1011 15:06:38.872323 38966 net.cpp:369] bn_scale20 -> conv20 (in-place)
I1011 15:06:38.872443 38966 layer_factory.hpp:77] Creating layer bn_scale20
I1011 15:06:38.872704 38966 net.cpp:124] Setting up bn_scale20
I1011 15:06:38.872726 38966 net.cpp:131] Top shape: 20 173 26 26 (2338960)
I1011 15:06:38.872740 38966 net.cpp:139] Memory required for data: 5103294720
I1011 15:06:38.872767 38966 layer_factory.hpp:77] Creating layer relu14
I1011 15:06:38.872790 38966 net.cpp:86] Creating Layer relu14
I1011 15:06:38.872808 38966 net.cpp:408] relu14 <- conv20
I1011 15:06:38.872838 38966 net.cpp:369] relu14 -> conv20 (in-place)
I1011 15:06:38.872866 38966 net.cpp:124] Setting up relu14
I1011 15:06:38.872889 38966 net.cpp:131] Top shape: 20 173 26 26 (2338960)
I1011 15:06:38.872906 38966 net.cpp:139] Memory required for data: 5112650560
I1011 15:06:38.872925 38966 layer_factory.hpp:77] Creating layer conv21
I1011 15:06:38.872962 38966 net.cpp:86] Creating Layer conv21
I1011 15:06:38.872983 38966 net.cpp:408] conv21 <- conv20
I1011 15:06:38.873011 38966 net.cpp:382] conv21 -> conv21
I1011 15:06:38.873698 38966 net.cpp:124] Setting up conv21
I1011 15:06:38.873723 38966 net.cpp:131] Top shape: 20 64 26 26 (865280)
I1011 15:06:38.873736 38966 net.cpp:139] Memory required for data: 5116111680
I1011 15:06:38.873759 38966 layer_factory.hpp:77] Creating layer batch_norm21
I1011 15:06:38.873791 38966 net.cpp:86] Creating Layer batch_norm21
I1011 15:06:38.873808 38966 net.cpp:408] batch_norm21 <- conv21
I1011 15:06:38.873832 38966 net.cpp:369] batch_norm21 -> conv21 (in-place)
I1011 15:06:38.874230 38966 net.cpp:124] Setting up batch_norm21
I1011 15:06:38.874251 38966 net.cpp:131] Top shape: 20 64 26 26 (865280)
I1011 15:06:38.874265 38966 net.cpp:139] Memory required for data: 5119572800
I1011 15:06:38.874298 38966 layer_factory.hpp:77] Creating layer bn_scale21
I1011 15:06:38.874328 38966 net.cpp:86] Creating Layer bn_scale21
I1011 15:06:38.874349 38966 net.cpp:408] bn_scale21 <- conv21
I1011 15:06:38.874372 38966 net.cpp:369] bn_scale21 -> conv21 (in-place)
I1011 15:06:38.874495 38966 layer_factory.hpp:77] Creating layer bn_scale21
I1011 15:06:38.874758 38966 net.cpp:124] Setting up bn_scale21
I1011 15:06:38.874780 38966 net.cpp:131] Top shape: 20 64 26 26 (865280)
I1011 15:06:38.874794 38966 net.cpp:139] Memory required for data: 5123033920
I1011 15:06:38.874819 38966 layer_factory.hpp:77] Creating layer conv21_bn_scale21_0_split
I1011 15:06:38.874855 38966 net.cpp:86] Creating Layer conv21_bn_scale21_0_split
I1011 15:06:38.874876 38966 net.cpp:408] conv21_bn_scale21_0_split <- conv21
I1011 15:06:38.874907 38966 net.cpp:382] conv21_bn_scale21_0_split -> conv21_bn_scale21_0_split_0
I1011 15:06:38.874945 38966 net.cpp:382] conv21_bn_scale21_0_split -> conv21_bn_scale21_0_split_1
I1011 15:06:38.875063 38966 net.cpp:124] Setting up conv21_bn_scale21_0_split
I1011 15:06:38.875083 38966 net.cpp:131] Top shape: 20 64 26 26 (865280)
I1011 15:06:38.875103 38966 net.cpp:131] Top shape: 20 64 26 26 (865280)
I1011 15:06:38.875118 38966 net.cpp:139] Memory required for data: 5129956160
I1011 15:06:38.875136 38966 layer_factory.hpp:77] Creating layer conv22
I1011 15:06:38.875169 38966 net.cpp:86] Creating Layer conv22
I1011 15:06:38.875188 38966 net.cpp:408] conv22 <- conv21_bn_scale21_0_split_0
I1011 15:06:38.875233 38966 net.cpp:382] conv22 -> conv22
I1011 15:06:38.875805 38966 net.cpp:124] Setting up conv22
I1011 15:06:38.875818 38966 net.cpp:131] Top shape: 20 346 26 26 (4677920)
I1011 15:06:38.875823 38966 net.cpp:139] Memory required for data: 5148667840
I1011 15:06:38.875829 38966 layer_factory.hpp:77] Creating layer batch_norm22
I1011 15:06:38.875847 38966 net.cpp:86] Creating Layer batch_norm22
I1011 15:06:38.875857 38966 net.cpp:408] batch_norm22 <- conv22
I1011 15:06:38.875867 38966 net.cpp:369] batch_norm22 -> conv22 (in-place)
I1011 15:06:38.876076 38966 net.cpp:124] Setting up batch_norm22
I1011 15:06:38.876087 38966 net.cpp:131] Top shape: 20 346 26 26 (4677920)
I1011 15:06:38.876091 38966 net.cpp:139] Memory required for data: 5167379520
I1011 15:06:38.876123 38966 layer_factory.hpp:77] Creating layer bn_scale22
I1011 15:06:38.876138 38966 net.cpp:86] Creating Layer bn_scale22
I1011 15:06:38.876148 38966 net.cpp:408] bn_scale22 <- conv22
I1011 15:06:38.876160 38966 net.cpp:369] bn_scale22 -> conv22 (in-place)
I1011 15:06:38.876225 38966 layer_factory.hpp:77] Creating layer bn_scale22
I1011 15:06:38.876360 38966 net.cpp:124] Setting up bn_scale22
I1011 15:06:38.876372 38966 net.cpp:131] Top shape: 20 346 26 26 (4677920)
I1011 15:06:38.876376 38966 net.cpp:139] Memory required for data: 5186091200
I1011 15:06:38.876386 38966 layer_factory.hpp:77] Creating layer relu15
I1011 15:06:38.876401 38966 net.cpp:86] Creating Layer relu15
I1011 15:06:38.876411 38966 net.cpp:408] relu15 <- conv22
I1011 15:06:38.876420 38966 net.cpp:369] relu15 -> conv22 (in-place)
I1011 15:06:38.876432 38966 net.cpp:124] Setting up relu15
I1011 15:06:38.876443 38966 net.cpp:131] Top shape: 20 346 26 26 (4677920)
I1011 15:06:38.876452 38966 net.cpp:139] Memory required for data: 5204802880
I1011 15:06:38.876459 38966 layer_factory.hpp:77] Creating layer conv23
I1011 15:06:38.876497 38966 net.cpp:86] Creating Layer conv23
I1011 15:06:38.876510 38966 net.cpp:408] conv23 <- conv22
I1011 15:06:38.876529 38966 net.cpp:382] conv23 -> conv23
I1011 15:06:38.876771 38966 net.cpp:124] Setting up conv23
I1011 15:06:38.876783 38966 net.cpp:131] Top shape: 20 346 26 26 (4677920)
I1011 15:06:38.876786 38966 net.cpp:139] Memory required for data: 5223514560
I1011 15:06:38.876794 38966 layer_factory.hpp:77] Creating layer batch_norm23
I1011 15:06:38.876806 38966 net.cpp:86] Creating Layer batch_norm23
I1011 15:06:38.876816 38966 net.cpp:408] batch_norm23 <- conv23
I1011 15:06:38.876829 38966 net.cpp:369] batch_norm23 -> conv23 (in-place)
I1011 15:06:38.877036 38966 net.cpp:124] Setting up batch_norm23
I1011 15:06:38.877048 38966 net.cpp:131] Top shape: 20 346 26 26 (4677920)
I1011 15:06:38.877051 38966 net.cpp:139] Memory required for data: 5242226240
I1011 15:06:38.877064 38966 layer_factory.hpp:77] Creating layer bn_scale23
I1011 15:06:38.877075 38966 net.cpp:86] Creating Layer bn_scale23
I1011 15:06:38.877085 38966 net.cpp:408] bn_scale23 <- conv23
I1011 15:06:38.877097 38966 net.cpp:369] bn_scale23 -> conv23 (in-place)
I1011 15:06:38.877163 38966 layer_factory.hpp:77] Creating layer bn_scale23
I1011 15:06:38.877291 38966 net.cpp:124] Setting up bn_scale23
I1011 15:06:38.877302 38966 net.cpp:131] Top shape: 20 346 26 26 (4677920)
I1011 15:06:38.877306 38966 net.cpp:139] Memory required for data: 5260937920
I1011 15:06:38.877316 38966 layer_factory.hpp:77] Creating layer relu16
I1011 15:06:38.877331 38966 net.cpp:86] Creating Layer relu16
I1011 15:06:38.877341 38966 net.cpp:408] relu16 <- conv23
I1011 15:06:38.877351 38966 net.cpp:369] relu16 -> conv23 (in-place)
I1011 15:06:38.877363 38966 net.cpp:124] Setting up relu16
I1011 15:06:38.877375 38966 net.cpp:131] Top shape: 20 346 26 26 (4677920)
I1011 15:06:38.877383 38966 net.cpp:139] Memory required for data: 5279649600
I1011 15:06:38.877389 38966 layer_factory.hpp:77] Creating layer conv24
I1011 15:06:38.877411 38966 net.cpp:86] Creating Layer conv24
I1011 15:06:38.877423 38966 net.cpp:408] conv24 <- conv23
I1011 15:06:38.877442 38966 net.cpp:382] conv24 -> conv24
I1011 15:06:38.877892 38966 net.cpp:124] Setting up conv24
I1011 15:06:38.877905 38966 net.cpp:131] Top shape: 20 64 26 26 (865280)
I1011 15:06:38.877909 38966 net.cpp:139] Memory required for data: 5283110720
I1011 15:06:38.877918 38966 layer_factory.hpp:77] Creating layer batch_norm24
I1011 15:06:38.877933 38966 net.cpp:86] Creating Layer batch_norm24
I1011 15:06:38.877943 38966 net.cpp:408] batch_norm24 <- conv24
I1011 15:06:38.877952 38966 net.cpp:369] batch_norm24 -> conv24 (in-place)
I1011 15:06:38.878160 38966 net.cpp:124] Setting up batch_norm24
I1011 15:06:38.878171 38966 net.cpp:131] Top shape: 20 64 26 26 (865280)
I1011 15:06:38.878175 38966 net.cpp:139] Memory required for data: 5286571840
I1011 15:06:38.878188 38966 layer_factory.hpp:77] Creating layer bn_scale24
I1011 15:06:38.878201 38966 net.cpp:86] Creating Layer bn_scale24
I1011 15:06:38.878209 38966 net.cpp:408] bn_scale24 <- conv24
I1011 15:06:38.878224 38966 net.cpp:369] bn_scale24 -> conv24 (in-place)
I1011 15:06:38.878288 38966 layer_factory.hpp:77] Creating layer bn_scale24
I1011 15:06:38.878422 38966 net.cpp:124] Setting up bn_scale24
I1011 15:06:38.878433 38966 net.cpp:131] Top shape: 20 64 26 26 (865280)
I1011 15:06:38.878437 38966 net.cpp:139] Memory required for data: 5290032960
I1011 15:06:38.878448 38966 layer_factory.hpp:77] Creating layer add4
I1011 15:06:38.878459 38966 net.cpp:86] Creating Layer add4
I1011 15:06:38.878469 38966 net.cpp:408] add4 <- conv21_bn_scale21_0_split_1
I1011 15:06:38.878479 38966 net.cpp:408] add4 <- conv24
I1011 15:06:38.878497 38966 net.cpp:382] add4 -> add4
I1011 15:06:38.878543 38966 net.cpp:124] Setting up add4
I1011 15:06:38.878553 38966 net.cpp:131] Top shape: 20 64 26 26 (865280)
I1011 15:06:38.878557 38966 net.cpp:139] Memory required for data: 5293494080
I1011 15:06:38.878562 38966 layer_factory.hpp:77] Creating layer add4_add4_0_split
I1011 15:06:38.878592 38966 net.cpp:86] Creating Layer add4_add4_0_split
I1011 15:06:38.878603 38966 net.cpp:408] add4_add4_0_split <- add4
I1011 15:06:38.878621 38966 net.cpp:382] add4_add4_0_split -> add4_add4_0_split_0
I1011 15:06:38.878638 38966 net.cpp:382] add4_add4_0_split -> add4_add4_0_split_1
I1011 15:06:38.878693 38966 net.cpp:124] Setting up add4_add4_0_split
I1011 15:06:38.878702 38966 net.cpp:131] Top shape: 20 64 26 26 (865280)
I1011 15:06:38.878707 38966 net.cpp:131] Top shape: 20 64 26 26 (865280)
I1011 15:06:38.878713 38966 net.cpp:139] Memory required for data: 5300416320
I1011 15:06:38.878722 38966 layer_factory.hpp:77] Creating layer conv25
I1011 15:06:38.878743 38966 net.cpp:86] Creating Layer conv25
I1011 15:06:38.878753 38966 net.cpp:408] conv25 <- add4_add4_0_split_0
I1011 15:06:38.878769 38966 net.cpp:382] conv25 -> conv25
I1011 15:06:38.879209 38966 net.cpp:124] Setting up conv25
I1011 15:06:38.879221 38966 net.cpp:131] Top shape: 20 327 26 26 (4421040)
I1011 15:06:38.879225 38966 net.cpp:139] Memory required for data: 5318100480
I1011 15:06:38.879230 38966 layer_factory.hpp:77] Creating layer batch_norm25
I1011 15:06:38.879240 38966 net.cpp:86] Creating Layer batch_norm25
I1011 15:06:38.879245 38966 net.cpp:408] batch_norm25 <- conv25
I1011 15:06:38.879257 38966 net.cpp:369] batch_norm25 -> conv25 (in-place)
I1011 15:06:38.879451 38966 net.cpp:124] Setting up batch_norm25
I1011 15:06:38.879462 38966 net.cpp:131] Top shape: 20 327 26 26 (4421040)
I1011 15:06:38.879464 38966 net.cpp:139] Memory required for data: 5335784640
I1011 15:06:38.879472 38966 layer_factory.hpp:77] Creating layer bn_scale25
I1011 15:06:38.879482 38966 net.cpp:86] Creating Layer bn_scale25
I1011 15:06:38.879487 38966 net.cpp:408] bn_scale25 <- conv25
I1011 15:06:38.879493 38966 net.cpp:369] bn_scale25 -> conv25 (in-place)
I1011 15:06:38.879530 38966 layer_factory.hpp:77] Creating layer bn_scale25
I1011 15:06:38.879647 38966 net.cpp:124] Setting up bn_scale25
I1011 15:06:38.879655 38966 net.cpp:131] Top shape: 20 327 26 26 (4421040)
I1011 15:06:38.879659 38966 net.cpp:139] Memory required for data: 5353468800
I1011 15:06:38.879665 38966 layer_factory.hpp:77] Creating layer relu17
I1011 15:06:38.879673 38966 net.cpp:86] Creating Layer relu17
I1011 15:06:38.879678 38966 net.cpp:408] relu17 <- conv25
I1011 15:06:38.879683 38966 net.cpp:369] relu17 -> conv25 (in-place)
I1011 15:06:38.879691 38966 net.cpp:124] Setting up relu17
I1011 15:06:38.879695 38966 net.cpp:131] Top shape: 20 327 26 26 (4421040)
I1011 15:06:38.879699 38966 net.cpp:139] Memory required for data: 5371152960
I1011 15:06:38.879703 38966 layer_factory.hpp:77] Creating layer conv26
I1011 15:06:38.879709 38966 net.cpp:86] Creating Layer conv26
I1011 15:06:38.879714 38966 net.cpp:408] conv26 <- conv25
I1011 15:06:38.879721 38966 net.cpp:382] conv26 -> conv26
I1011 15:06:38.879928 38966 net.cpp:124] Setting up conv26
I1011 15:06:38.879937 38966 net.cpp:131] Top shape: 20 327 26 26 (4421040)
I1011 15:06:38.879941 38966 net.cpp:139] Memory required for data: 5388837120
I1011 15:06:38.879946 38966 layer_factory.hpp:77] Creating layer batch_norm26
I1011 15:06:38.879956 38966 net.cpp:86] Creating Layer batch_norm26
I1011 15:06:38.879959 38966 net.cpp:408] batch_norm26 <- conv26
I1011 15:06:38.879964 38966 net.cpp:369] batch_norm26 -> conv26 (in-place)
I1011 15:06:38.880143 38966 net.cpp:124] Setting up batch_norm26
I1011 15:06:38.880151 38966 net.cpp:131] Top shape: 20 327 26 26 (4421040)
I1011 15:06:38.880156 38966 net.cpp:139] Memory required for data: 5406521280
I1011 15:06:38.880163 38966 layer_factory.hpp:77] Creating layer bn_scale26
I1011 15:06:38.880169 38966 net.cpp:86] Creating Layer bn_scale26
I1011 15:06:38.880173 38966 net.cpp:408] bn_scale26 <- conv26
I1011 15:06:38.880180 38966 net.cpp:369] bn_scale26 -> conv26 (in-place)
I1011 15:06:38.880214 38966 layer_factory.hpp:77] Creating layer bn_scale26
I1011 15:06:38.880323 38966 net.cpp:124] Setting up bn_scale26
I1011 15:06:38.880334 38966 net.cpp:131] Top shape: 20 327 26 26 (4421040)
I1011 15:06:38.880352 38966 net.cpp:139] Memory required for data: 5424205440
I1011 15:06:38.880358 38966 layer_factory.hpp:77] Creating layer relu18
I1011 15:06:38.880364 38966 net.cpp:86] Creating Layer relu18
I1011 15:06:38.880368 38966 net.cpp:408] relu18 <- conv26
I1011 15:06:38.880374 38966 net.cpp:369] relu18 -> conv26 (in-place)
I1011 15:06:38.880380 38966 net.cpp:124] Setting up relu18
I1011 15:06:38.880385 38966 net.cpp:131] Top shape: 20 327 26 26 (4421040)
I1011 15:06:38.880388 38966 net.cpp:139] Memory required for data: 5441889600
I1011 15:06:38.880393 38966 layer_factory.hpp:77] Creating layer conv27
I1011 15:06:38.880403 38966 net.cpp:86] Creating Layer conv27
I1011 15:06:38.880409 38966 net.cpp:408] conv27 <- conv26
I1011 15:06:38.880416 38966 net.cpp:382] conv27 -> conv27
I1011 15:06:38.880836 38966 net.cpp:124] Setting up conv27
I1011 15:06:38.880844 38966 net.cpp:131] Top shape: 20 64 26 26 (865280)
I1011 15:06:38.880848 38966 net.cpp:139] Memory required for data: 5445350720
I1011 15:06:38.880853 38966 layer_factory.hpp:77] Creating layer batch_norm27
I1011 15:06:38.880861 38966 net.cpp:86] Creating Layer batch_norm27
I1011 15:06:38.880864 38966 net.cpp:408] batch_norm27 <- conv27
I1011 15:06:38.880869 38966 net.cpp:369] batch_norm27 -> conv27 (in-place)
I1011 15:06:38.881057 38966 net.cpp:124] Setting up batch_norm27
I1011 15:06:38.881067 38966 net.cpp:131] Top shape: 20 64 26 26 (865280)
I1011 15:06:38.881070 38966 net.cpp:139] Memory required for data: 5448811840
I1011 15:06:38.881078 38966 layer_factory.hpp:77] Creating layer bn_scale27
I1011 15:06:38.881088 38966 net.cpp:86] Creating Layer bn_scale27
I1011 15:06:38.881093 38966 net.cpp:408] bn_scale27 <- conv27
I1011 15:06:38.881098 38966 net.cpp:369] bn_scale27 -> conv27 (in-place)
I1011 15:06:38.881139 38966 layer_factory.hpp:77] Creating layer bn_scale27
I1011 15:06:38.881253 38966 net.cpp:124] Setting up bn_scale27
I1011 15:06:38.881261 38966 net.cpp:131] Top shape: 20 64 26 26 (865280)
I1011 15:06:38.881264 38966 net.cpp:139] Memory required for data: 5452272960
I1011 15:06:38.881271 38966 layer_factory.hpp:77] Creating layer add5
I1011 15:06:38.881280 38966 net.cpp:86] Creating Layer add5
I1011 15:06:38.881284 38966 net.cpp:408] add5 <- add4_add4_0_split_1
I1011 15:06:38.881289 38966 net.cpp:408] add5 <- conv27
I1011 15:06:38.881294 38966 net.cpp:382] add5 -> add5
I1011 15:06:38.881319 38966 net.cpp:124] Setting up add5
I1011 15:06:38.881326 38966 net.cpp:131] Top shape: 20 64 26 26 (865280)
I1011 15:06:38.881330 38966 net.cpp:139] Memory required for data: 5455734080
I1011 15:06:38.881335 38966 layer_factory.hpp:77] Creating layer add5_add5_0_split
I1011 15:06:38.881340 38966 net.cpp:86] Creating Layer add5_add5_0_split
I1011 15:06:38.881345 38966 net.cpp:408] add5_add5_0_split <- add5
I1011 15:06:38.881352 38966 net.cpp:382] add5_add5_0_split -> add5_add5_0_split_0
I1011 15:06:38.881359 38966 net.cpp:382] add5_add5_0_split -> add5_add5_0_split_1
I1011 15:06:38.881394 38966 net.cpp:124] Setting up add5_add5_0_split
I1011 15:06:38.881402 38966 net.cpp:131] Top shape: 20 64 26 26 (865280)
I1011 15:06:38.881407 38966 net.cpp:131] Top shape: 20 64 26 26 (865280)
I1011 15:06:38.881410 38966 net.cpp:139] Memory required for data: 5462656320
I1011 15:06:38.881413 38966 layer_factory.hpp:77] Creating layer conv28
I1011 15:06:38.881422 38966 net.cpp:86] Creating Layer conv28
I1011 15:06:38.881426 38966 net.cpp:408] conv28 <- add5_add5_0_split_0
I1011 15:06:38.881433 38966 net.cpp:382] conv28 -> conv28
I1011 15:06:38.881850 38966 net.cpp:124] Setting up conv28
I1011 15:06:38.881860 38966 net.cpp:131] Top shape: 20 327 26 26 (4421040)
I1011 15:06:38.881862 38966 net.cpp:139] Memory required for data: 5480340480
I1011 15:06:38.881868 38966 layer_factory.hpp:77] Creating layer batch_norm28
I1011 15:06:38.881875 38966 net.cpp:86] Creating Layer batch_norm28
I1011 15:06:38.881878 38966 net.cpp:408] batch_norm28 <- conv28
I1011 15:06:38.881887 38966 net.cpp:369] batch_norm28 -> conv28 (in-place)
I1011 15:06:38.882072 38966 net.cpp:124] Setting up batch_norm28
I1011 15:06:38.882091 38966 net.cpp:131] Top shape: 20 327 26 26 (4421040)
I1011 15:06:38.882095 38966 net.cpp:139] Memory required for data: 5498024640
I1011 15:06:38.882103 38966 layer_factory.hpp:77] Creating layer bn_scale28
I1011 15:06:38.882109 38966 net.cpp:86] Creating Layer bn_scale28
I1011 15:06:38.882114 38966 net.cpp:408] bn_scale28 <- conv28
I1011 15:06:38.882119 38966 net.cpp:369] bn_scale28 -> conv28 (in-place)
I1011 15:06:38.882158 38966 layer_factory.hpp:77] Creating layer bn_scale28
I1011 15:06:38.882269 38966 net.cpp:124] Setting up bn_scale28
I1011 15:06:38.882277 38966 net.cpp:131] Top shape: 20 327 26 26 (4421040)
I1011 15:06:38.882282 38966 net.cpp:139] Memory required for data: 5515708800
I1011 15:06:38.882287 38966 layer_factory.hpp:77] Creating layer relu19
I1011 15:06:38.882293 38966 net.cpp:86] Creating Layer relu19
I1011 15:06:38.882297 38966 net.cpp:408] relu19 <- conv28
I1011 15:06:38.882304 38966 net.cpp:369] relu19 -> conv28 (in-place)
I1011 15:06:38.882310 38966 net.cpp:124] Setting up relu19
I1011 15:06:38.882315 38966 net.cpp:131] Top shape: 20 327 26 26 (4421040)
I1011 15:06:38.882319 38966 net.cpp:139] Memory required for data: 5533392960
I1011 15:06:38.882323 38966 layer_factory.hpp:77] Creating layer conv29
I1011 15:06:38.882333 38966 net.cpp:86] Creating Layer conv29
I1011 15:06:38.882339 38966 net.cpp:408] conv29 <- conv28
I1011 15:06:38.882344 38966 net.cpp:382] conv29 -> conv29
I1011 15:06:38.882562 38966 net.cpp:124] Setting up conv29
I1011 15:06:38.882571 38966 net.cpp:131] Top shape: 20 327 26 26 (4421040)
I1011 15:06:38.882575 38966 net.cpp:139] Memory required for data: 5551077120
I1011 15:06:38.882580 38966 layer_factory.hpp:77] Creating layer batch_norm29
I1011 15:06:38.882591 38966 net.cpp:86] Creating Layer batch_norm29
I1011 15:06:38.882597 38966 net.cpp:408] batch_norm29 <- conv29
I1011 15:06:38.882602 38966 net.cpp:369] batch_norm29 -> conv29 (in-place)
I1011 15:06:38.882782 38966 net.cpp:124] Setting up batch_norm29
I1011 15:06:38.882791 38966 net.cpp:131] Top shape: 20 327 26 26 (4421040)
I1011 15:06:38.882793 38966 net.cpp:139] Memory required for data: 5568761280
I1011 15:06:38.882802 38966 layer_factory.hpp:77] Creating layer bn_scale29
I1011 15:06:38.882807 38966 net.cpp:86] Creating Layer bn_scale29
I1011 15:06:38.882812 38966 net.cpp:408] bn_scale29 <- conv29
I1011 15:06:38.882818 38966 net.cpp:369] bn_scale29 -> conv29 (in-place)
I1011 15:06:38.882854 38966 layer_factory.hpp:77] Creating layer bn_scale29
I1011 15:06:38.882966 38966 net.cpp:124] Setting up bn_scale29
I1011 15:06:38.882974 38966 net.cpp:131] Top shape: 20 327 26 26 (4421040)
I1011 15:06:38.882978 38966 net.cpp:139] Memory required for data: 5586445440
I1011 15:06:38.882984 38966 layer_factory.hpp:77] Creating layer relu20
I1011 15:06:38.882990 38966 net.cpp:86] Creating Layer relu20
I1011 15:06:38.882994 38966 net.cpp:408] relu20 <- conv29
I1011 15:06:38.883002 38966 net.cpp:369] relu20 -> conv29 (in-place)
I1011 15:06:38.883008 38966 net.cpp:124] Setting up relu20
I1011 15:06:38.883013 38966 net.cpp:131] Top shape: 20 327 26 26 (4421040)
I1011 15:06:38.883015 38966 net.cpp:139] Memory required for data: 5604129600
I1011 15:06:38.883019 38966 layer_factory.hpp:77] Creating layer conv30
I1011 15:06:38.883029 38966 net.cpp:86] Creating Layer conv30
I1011 15:06:38.883034 38966 net.cpp:408] conv30 <- conv29
I1011 15:06:38.883041 38966 net.cpp:382] conv30 -> conv30
I1011 15:06:38.883461 38966 net.cpp:124] Setting up conv30
I1011 15:06:38.883472 38966 net.cpp:131] Top shape: 20 64 26 26 (865280)
I1011 15:06:38.883476 38966 net.cpp:139] Memory required for data: 5607590720
I1011 15:06:38.883486 38966 layer_factory.hpp:77] Creating layer batch_norm30
I1011 15:06:38.883492 38966 net.cpp:86] Creating Layer batch_norm30
I1011 15:06:38.883497 38966 net.cpp:408] batch_norm30 <- conv30
I1011 15:06:38.883502 38966 net.cpp:369] batch_norm30 -> conv30 (in-place)
I1011 15:06:38.883692 38966 net.cpp:124] Setting up batch_norm30
I1011 15:06:38.883704 38966 net.cpp:131] Top shape: 20 64 26 26 (865280)
I1011 15:06:38.883725 38966 net.cpp:139] Memory required for data: 5611051840
I1011 15:06:38.883740 38966 layer_factory.hpp:77] Creating layer bn_scale30
I1011 15:06:38.883751 38966 net.cpp:86] Creating Layer bn_scale30
I1011 15:06:38.883759 38966 net.cpp:408] bn_scale30 <- conv30
I1011 15:06:38.883769 38966 net.cpp:369] bn_scale30 -> conv30 (in-place)
I1011 15:06:38.883831 38966 layer_factory.hpp:77] Creating layer bn_scale30
I1011 15:06:38.883970 38966 net.cpp:124] Setting up bn_scale30
I1011 15:06:38.883983 38966 net.cpp:131] Top shape: 20 64 26 26 (865280)
I1011 15:06:38.883989 38966 net.cpp:139] Memory required for data: 5614512960
I1011 15:06:38.884001 38966 layer_factory.hpp:77] Creating layer add6
I1011 15:06:38.884011 38966 net.cpp:86] Creating Layer add6
I1011 15:06:38.884018 38966 net.cpp:408] add6 <- add5_add5_0_split_1
I1011 15:06:38.884027 38966 net.cpp:408] add6 <- conv30
I1011 15:06:38.884045 38966 net.cpp:382] add6 -> add6
I1011 15:06:38.884083 38966 net.cpp:124] Setting up add6
I1011 15:06:38.884093 38966 net.cpp:131] Top shape: 20 64 26 26 (865280)
I1011 15:06:38.884099 38966 net.cpp:139] Memory required for data: 5617974080
I1011 15:06:38.884106 38966 layer_factory.hpp:77] Creating layer conv31
I1011 15:06:38.884124 38966 net.cpp:86] Creating Layer conv31
I1011 15:06:38.884131 38966 net.cpp:408] conv31 <- add6
I1011 15:06:38.884142 38966 net.cpp:382] conv31 -> conv31
I1011 15:06:38.884582 38966 net.cpp:124] Setting up conv31
I1011 15:06:38.884594 38966 net.cpp:131] Top shape: 20 327 26 26 (4421040)
I1011 15:06:38.884603 38966 net.cpp:139] Memory required for data: 5635658240
I1011 15:06:38.884613 38966 layer_factory.hpp:77] Creating layer batch_norm31
I1011 15:06:38.884622 38966 net.cpp:86] Creating Layer batch_norm31
I1011 15:06:38.884629 38966 net.cpp:408] batch_norm31 <- conv31
I1011 15:06:38.884639 38966 net.cpp:369] batch_norm31 -> conv31 (in-place)
I1011 15:06:38.884842 38966 net.cpp:124] Setting up batch_norm31
I1011 15:06:38.884855 38966 net.cpp:131] Top shape: 20 327 26 26 (4421040)
I1011 15:06:38.884860 38966 net.cpp:139] Memory required for data: 5653342400
I1011 15:06:38.884873 38966 layer_factory.hpp:77] Creating layer bn_scale31
I1011 15:06:38.884893 38966 net.cpp:86] Creating Layer bn_scale31
I1011 15:06:38.884902 38966 net.cpp:408] bn_scale31 <- conv31
I1011 15:06:38.884912 38966 net.cpp:369] bn_scale31 -> conv31 (in-place)
I1011 15:06:38.884964 38966 layer_factory.hpp:77] Creating layer bn_scale31
I1011 15:06:38.885092 38966 net.cpp:124] Setting up bn_scale31
I1011 15:06:38.885103 38966 net.cpp:131] Top shape: 20 327 26 26 (4421040)
I1011 15:06:38.885110 38966 net.cpp:139] Memory required for data: 5671026560
I1011 15:06:38.885121 38966 layer_factory.hpp:77] Creating layer relu21
I1011 15:06:38.885141 38966 net.cpp:86] Creating Layer relu21
I1011 15:06:38.885149 38966 net.cpp:408] relu21 <- conv31
I1011 15:06:38.885162 38966 net.cpp:369] relu21 -> conv31 (in-place)
I1011 15:06:38.885174 38966 net.cpp:124] Setting up relu21
I1011 15:06:38.885186 38966 net.cpp:131] Top shape: 20 327 26 26 (4421040)
I1011 15:06:38.885196 38966 net.cpp:139] Memory required for data: 5688710720
I1011 15:06:38.885203 38966 layer_factory.hpp:77] Creating layer conv32
I1011 15:06:38.885223 38966 net.cpp:86] Creating Layer conv32
I1011 15:06:38.885231 38966 net.cpp:408] conv32 <- conv31
I1011 15:06:38.885242 38966 net.cpp:382] conv32 -> conv32
I1011 15:06:38.885468 38966 net.cpp:124] Setting up conv32
I1011 15:06:38.885481 38966 net.cpp:131] Top shape: 20 327 26 26 (4421040)
I1011 15:06:38.885488 38966 net.cpp:139] Memory required for data: 5706394880
I1011 15:06:38.885499 38966 layer_factory.hpp:77] Creating layer batch_norm32
I1011 15:06:38.885514 38966 net.cpp:86] Creating Layer batch_norm32
I1011 15:06:38.885522 38966 net.cpp:408] batch_norm32 <- conv32
I1011 15:06:38.885531 38966 net.cpp:369] batch_norm32 -> conv32 (in-place)
I1011 15:06:38.885731 38966 net.cpp:124] Setting up batch_norm32
I1011 15:06:38.885743 38966 net.cpp:131] Top shape: 20 327 26 26 (4421040)
I1011 15:06:38.885749 38966 net.cpp:139] Memory required for data: 5724079040
I1011 15:06:38.885782 38966 layer_factory.hpp:77] Creating layer bn_scale32
I1011 15:06:38.885799 38966 net.cpp:86] Creating Layer bn_scale32
I1011 15:06:38.885809 38966 net.cpp:408] bn_scale32 <- conv32
I1011 15:06:38.885819 38966 net.cpp:369] bn_scale32 -> conv32 (in-place)
I1011 15:06:38.885871 38966 layer_factory.hpp:77] Creating layer bn_scale32
I1011 15:06:38.886000 38966 net.cpp:124] Setting up bn_scale32
I1011 15:06:38.886013 38966 net.cpp:131] Top shape: 20 327 26 26 (4421040)
I1011 15:06:38.886018 38966 net.cpp:139] Memory required for data: 5741763200
I1011 15:06:38.886029 38966 layer_factory.hpp:77] Creating layer relu22
I1011 15:06:38.886042 38966 net.cpp:86] Creating Layer relu22
I1011 15:06:38.886050 38966 net.cpp:408] relu22 <- conv32
I1011 15:06:38.886059 38966 net.cpp:369] relu22 -> conv32 (in-place)
I1011 15:06:38.886072 38966 net.cpp:124] Setting up relu22
I1011 15:06:38.886082 38966 net.cpp:131] Top shape: 20 327 26 26 (4421040)
I1011 15:06:38.886088 38966 net.cpp:139] Memory required for data: 5759447360
I1011 15:06:38.886095 38966 layer_factory.hpp:77] Creating layer conv33
I1011 15:06:38.886107 38966 net.cpp:86] Creating Layer conv33
I1011 15:06:38.886113 38966 net.cpp:408] conv33 <- conv32
I1011 15:06:38.886132 38966 net.cpp:382] conv33 -> conv33
I1011 15:06:38.886660 38966 net.cpp:124] Setting up conv33
I1011 15:06:38.886674 38966 net.cpp:131] Top shape: 20 87 26 26 (1176240)
I1011 15:06:38.886680 38966 net.cpp:139] Memory required for data: 5764152320
I1011 15:06:38.886689 38966 layer_factory.hpp:77] Creating layer batch_norm33
I1011 15:06:38.886700 38966 net.cpp:86] Creating Layer batch_norm33
I1011 15:06:38.886708 38966 net.cpp:408] batch_norm33 <- conv33
I1011 15:06:38.886721 38966 net.cpp:369] batch_norm33 -> conv33 (in-place)
I1011 15:06:38.886926 38966 net.cpp:124] Setting up batch_norm33
I1011 15:06:38.886940 38966 net.cpp:131] Top shape: 20 87 26 26 (1176240)
I1011 15:06:38.886945 38966 net.cpp:139] Memory required for data: 5768857280
I1011 15:06:38.886958 38966 layer_factory.hpp:77] Creating layer bn_scale33
I1011 15:06:38.886970 38966 net.cpp:86] Creating Layer bn_scale33
I1011 15:06:38.886976 38966 net.cpp:408] bn_scale33 <- conv33
I1011 15:06:38.886989 38966 net.cpp:369] bn_scale33 -> conv33 (in-place)
I1011 15:06:38.887044 38966 layer_factory.hpp:77] Creating layer bn_scale33
I1011 15:06:38.887176 38966 net.cpp:124] Setting up bn_scale33
I1011 15:06:38.887197 38966 net.cpp:131] Top shape: 20 87 26 26 (1176240)
I1011 15:06:38.887207 38966 net.cpp:139] Memory required for data: 5773562240
I1011 15:06:38.887217 38966 layer_factory.hpp:77] Creating layer conv33_bn_scale33_0_split
I1011 15:06:38.887228 38966 net.cpp:86] Creating Layer conv33_bn_scale33_0_split
I1011 15:06:38.887234 38966 net.cpp:408] conv33_bn_scale33_0_split <- conv33
I1011 15:06:38.887244 38966 net.cpp:382] conv33_bn_scale33_0_split -> conv33_bn_scale33_0_split_0
I1011 15:06:38.887269 38966 net.cpp:382] conv33_bn_scale33_0_split -> conv33_bn_scale33_0_split_1
I1011 15:06:38.887320 38966 net.cpp:124] Setting up conv33_bn_scale33_0_split
I1011 15:06:38.887331 38966 net.cpp:131] Top shape: 20 87 26 26 (1176240)
I1011 15:06:38.887339 38966 net.cpp:131] Top shape: 20 87 26 26 (1176240)
I1011 15:06:38.887346 38966 net.cpp:139] Memory required for data: 5782972160
I1011 15:06:38.887354 38966 layer_factory.hpp:77] Creating layer conv34
I1011 15:06:38.887375 38966 net.cpp:86] Creating Layer conv34
I1011 15:06:38.887383 38966 net.cpp:408] conv34 <- conv33_bn_scale33_0_split_0
I1011 15:06:38.887396 38966 net.cpp:382] conv34 -> conv34
I1011 15:06:38.888058 38966 net.cpp:124] Setting up conv34
I1011 15:06:38.888072 38966 net.cpp:131] Top shape: 20 461 26 26 (6232720)
I1011 15:06:38.888078 38966 net.cpp:139] Memory required for data: 5807903040
I1011 15:06:38.888087 38966 layer_factory.hpp:77] Creating layer batch_norm34
I1011 15:06:38.888100 38966 net.cpp:86] Creating Layer batch_norm34
I1011 15:06:38.888110 38966 net.cpp:408] batch_norm34 <- conv34
I1011 15:06:38.888120 38966 net.cpp:369] batch_norm34 -> conv34 (in-place)
I1011 15:06:38.888342 38966 net.cpp:124] Setting up batch_norm34
I1011 15:06:38.888355 38966 net.cpp:131] Top shape: 20 461 26 26 (6232720)
I1011 15:06:38.888362 38966 net.cpp:139] Memory required for data: 5832833920
I1011 15:06:38.888375 38966 layer_factory.hpp:77] Creating layer bn_scale34
I1011 15:06:38.888391 38966 net.cpp:86] Creating Layer bn_scale34
I1011 15:06:38.888401 38966 net.cpp:408] bn_scale34 <- conv34
I1011 15:06:38.888411 38966 net.cpp:369] bn_scale34 -> conv34 (in-place)
I1011 15:06:38.888468 38966 layer_factory.hpp:77] Creating layer bn_scale34
I1011 15:06:38.888597 38966 net.cpp:124] Setting up bn_scale34
I1011 15:06:38.888610 38966 net.cpp:131] Top shape: 20 461 26 26 (6232720)
I1011 15:06:38.888617 38966 net.cpp:139] Memory required for data: 5857764800
I1011 15:06:38.888628 38966 layer_factory.hpp:77] Creating layer relu23
I1011 15:06:38.888641 38966 net.cpp:86] Creating Layer relu23
I1011 15:06:38.888650 38966 net.cpp:408] relu23 <- conv34
I1011 15:06:38.888660 38966 net.cpp:369] relu23 -> conv34 (in-place)
I1011 15:06:38.888674 38966 net.cpp:124] Setting up relu23
I1011 15:06:38.888685 38966 net.cpp:131] Top shape: 20 461 26 26 (6232720)
I1011 15:06:38.888692 38966 net.cpp:139] Memory required for data: 5882695680
I1011 15:06:38.888700 38966 layer_factory.hpp:77] Creating layer conv35
I1011 15:06:38.888715 38966 net.cpp:86] Creating Layer conv35
I1011 15:06:38.888723 38966 net.cpp:408] conv35 <- conv34
I1011 15:06:38.888738 38966 net.cpp:382] conv35 -> conv35
I1011 15:06:38.888978 38966 net.cpp:124] Setting up conv35
I1011 15:06:38.888991 38966 net.cpp:131] Top shape: 20 461 26 26 (6232720)
I1011 15:06:38.888998 38966 net.cpp:139] Memory required for data: 5907626560
I1011 15:06:38.889008 38966 layer_factory.hpp:77] Creating layer batch_norm35
I1011 15:06:38.889020 38966 net.cpp:86] Creating Layer batch_norm35
I1011 15:06:38.889029 38966 net.cpp:408] batch_norm35 <- conv35
I1011 15:06:38.889044 38966 net.cpp:369] batch_norm35 -> conv35 (in-place)
I1011 15:06:38.889246 38966 net.cpp:124] Setting up batch_norm35
I1011 15:06:38.889258 38966 net.cpp:131] Top shape: 20 461 26 26 (6232720)
I1011 15:06:38.889264 38966 net.cpp:139] Memory required for data: 5932557440
I1011 15:06:38.889277 38966 layer_factory.hpp:77] Creating layer bn_scale35
I1011 15:06:38.889288 38966 net.cpp:86] Creating Layer bn_scale35
I1011 15:06:38.889297 38966 net.cpp:408] bn_scale35 <- conv35
I1011 15:06:38.889307 38966 net.cpp:369] bn_scale35 -> conv35 (in-place)
I1011 15:06:38.889355 38966 layer_factory.hpp:77] Creating layer bn_scale35
I1011 15:06:38.889484 38966 net.cpp:124] Setting up bn_scale35
I1011 15:06:38.889497 38966 net.cpp:131] Top shape: 20 461 26 26 (6232720)
I1011 15:06:38.889503 38966 net.cpp:139] Memory required for data: 5957488320
I1011 15:06:38.889514 38966 layer_factory.hpp:77] Creating layer relu24
I1011 15:06:38.889528 38966 net.cpp:86] Creating Layer relu24
I1011 15:06:38.889536 38966 net.cpp:408] relu24 <- conv35
I1011 15:06:38.889546 38966 net.cpp:369] relu24 -> conv35 (in-place)
I1011 15:06:38.889556 38966 net.cpp:124] Setting up relu24
I1011 15:06:38.889567 38966 net.cpp:131] Top shape: 20 461 26 26 (6232720)
I1011 15:06:38.889575 38966 net.cpp:139] Memory required for data: 5982419200
I1011 15:06:38.889580 38966 layer_factory.hpp:77] Creating layer conv36
I1011 15:06:38.889597 38966 net.cpp:86] Creating Layer conv36
I1011 15:06:38.889605 38966 net.cpp:408] conv36 <- conv35
I1011 15:06:38.889621 38966 net.cpp:382] conv36 -> conv36
I1011 15:06:38.890280 38966 net.cpp:124] Setting up conv36
I1011 15:06:38.890293 38966 net.cpp:131] Top shape: 20 87 26 26 (1176240)
I1011 15:06:38.890300 38966 net.cpp:139] Memory required for data: 5987124160
I1011 15:06:38.890308 38966 layer_factory.hpp:77] Creating layer batch_norm36
I1011 15:06:38.890324 38966 net.cpp:86] Creating Layer batch_norm36
I1011 15:06:38.890334 38966 net.cpp:408] batch_norm36 <- conv36
I1011 15:06:38.890344 38966 net.cpp:369] batch_norm36 -> conv36 (in-place)
I1011 15:06:38.890549 38966 net.cpp:124] Setting up batch_norm36
I1011 15:06:38.890573 38966 net.cpp:131] Top shape: 20 87 26 26 (1176240)
I1011 15:06:38.890579 38966 net.cpp:139] Memory required for data: 5991829120
I1011 15:06:38.890594 38966 layer_factory.hpp:77] Creating layer bn_scale36
I1011 15:06:38.890610 38966 net.cpp:86] Creating Layer bn_scale36
I1011 15:06:38.890620 38966 net.cpp:408] bn_scale36 <- conv36
I1011 15:06:38.890630 38966 net.cpp:369] bn_scale36 -> conv36 (in-place)
I1011 15:06:38.890681 38966 layer_factory.hpp:77] Creating layer bn_scale36
I1011 15:06:38.890813 38966 net.cpp:124] Setting up bn_scale36
I1011 15:06:38.890825 38966 net.cpp:131] Top shape: 20 87 26 26 (1176240)
I1011 15:06:38.890831 38966 net.cpp:139] Memory required for data: 5996534080
I1011 15:06:38.890843 38966 layer_factory.hpp:77] Creating layer add7
I1011 15:06:38.890857 38966 net.cpp:86] Creating Layer add7
I1011 15:06:38.890866 38966 net.cpp:408] add7 <- conv33_bn_scale33_0_split_1
I1011 15:06:38.890875 38966 net.cpp:408] add7 <- conv36
I1011 15:06:38.890887 38966 net.cpp:382] add7 -> add7
I1011 15:06:38.890923 38966 net.cpp:124] Setting up add7
I1011 15:06:38.890935 38966 net.cpp:131] Top shape: 20 87 26 26 (1176240)
I1011 15:06:38.890941 38966 net.cpp:139] Memory required for data: 6001239040
I1011 15:06:38.890949 38966 layer_factory.hpp:77] Creating layer add7_add7_0_split
I1011 15:06:38.890959 38966 net.cpp:86] Creating Layer add7_add7_0_split
I1011 15:06:38.890966 38966 net.cpp:408] add7_add7_0_split <- add7
I1011 15:06:38.890985 38966 net.cpp:382] add7_add7_0_split -> add7_add7_0_split_0
I1011 15:06:38.891000 38966 net.cpp:382] add7_add7_0_split -> add7_add7_0_split_1
I1011 15:06:38.891047 38966 net.cpp:124] Setting up add7_add7_0_split
I1011 15:06:38.891058 38966 net.cpp:131] Top shape: 20 87 26 26 (1176240)
I1011 15:06:38.891067 38966 net.cpp:131] Top shape: 20 87 26 26 (1176240)
I1011 15:06:38.891072 38966 net.cpp:139] Memory required for data: 6010648960
I1011 15:06:38.891079 38966 layer_factory.hpp:77] Creating layer conv37
I1011 15:06:38.891094 38966 net.cpp:86] Creating Layer conv37
I1011 15:06:38.891103 38966 net.cpp:408] conv37 <- add7_add7_0_split_0
I1011 15:06:38.891116 38966 net.cpp:382] conv37 -> conv37
I1011 15:06:38.891779 38966 net.cpp:124] Setting up conv37
I1011 15:06:38.891794 38966 net.cpp:131] Top shape: 20 461 26 26 (6232720)
I1011 15:06:38.891800 38966 net.cpp:139] Memory required for data: 6035579840
I1011 15:06:38.891810 38966 layer_factory.hpp:77] Creating layer batch_norm37
I1011 15:06:38.891821 38966 net.cpp:86] Creating Layer batch_norm37
I1011 15:06:38.891830 38966 net.cpp:408] batch_norm37 <- conv37
I1011 15:06:38.891844 38966 net.cpp:369] batch_norm37 -> conv37 (in-place)
I1011 15:06:38.892055 38966 net.cpp:124] Setting up batch_norm37
I1011 15:06:38.892066 38966 net.cpp:131] Top shape: 20 461 26 26 (6232720)
I1011 15:06:38.892072 38966 net.cpp:139] Memory required for data: 6060510720
I1011 15:06:38.892086 38966 layer_factory.hpp:77] Creating layer bn_scale37
I1011 15:06:38.892105 38966 net.cpp:86] Creating Layer bn_scale37
I1011 15:06:38.892114 38966 net.cpp:408] bn_scale37 <- conv37
I1011 15:06:38.892124 38966 net.cpp:369] bn_scale37 -> conv37 (in-place)
I1011 15:06:38.892174 38966 layer_factory.hpp:77] Creating layer bn_scale37
I1011 15:06:38.892302 38966 net.cpp:124] Setting up bn_scale37
I1011 15:06:38.892314 38966 net.cpp:131] Top shape: 20 461 26 26 (6232720)
I1011 15:06:38.892320 38966 net.cpp:139] Memory required for data: 6085441600
I1011 15:06:38.892333 38966 layer_factory.hpp:77] Creating layer relu25
I1011 15:06:38.892343 38966 net.cpp:86] Creating Layer relu25
I1011 15:06:38.892352 38966 net.cpp:408] relu25 <- conv37
I1011 15:06:38.892366 38966 net.cpp:369] relu25 -> conv37 (in-place)
I1011 15:06:38.892379 38966 net.cpp:124] Setting up relu25
I1011 15:06:38.892390 38966 net.cpp:131] Top shape: 20 461 26 26 (6232720)
I1011 15:06:38.892397 38966 net.cpp:139] Memory required for data: 6110372480
I1011 15:06:38.892405 38966 layer_factory.hpp:77] Creating layer conv38
I1011 15:06:38.892419 38966 net.cpp:86] Creating Layer conv38
I1011 15:06:38.892441 38966 net.cpp:408] conv38 <- conv37
I1011 15:06:38.892454 38966 net.cpp:382] conv38 -> conv38
I1011 15:06:38.892716 38966 net.cpp:124] Setting up conv38
I1011 15:06:38.892730 38966 net.cpp:131] Top shape: 20 461 26 26 (6232720)
I1011 15:06:38.892737 38966 net.cpp:139] Memory required for data: 6135303360
I1011 15:06:38.892747 38966 layer_factory.hpp:77] Creating layer batch_norm38
I1011 15:06:38.892765 38966 net.cpp:86] Creating Layer batch_norm38
I1011 15:06:38.892774 38966 net.cpp:408] batch_norm38 <- conv38
I1011 15:06:38.892784 38966 net.cpp:369] batch_norm38 -> conv38 (in-place)
I1011 15:06:38.892993 38966 net.cpp:124] Setting up batch_norm38
I1011 15:06:38.893005 38966 net.cpp:131] Top shape: 20 461 26 26 (6232720)
I1011 15:06:38.893012 38966 net.cpp:139] Memory required for data: 6160234240
I1011 15:06:38.893025 38966 layer_factory.hpp:77] Creating layer bn_scale38
I1011 15:06:38.893038 38966 net.cpp:86] Creating Layer bn_scale38
I1011 15:06:38.893049 38966 net.cpp:408] bn_scale38 <- conv38
I1011 15:06:38.893064 38966 net.cpp:369] bn_scale38 -> conv38 (in-place)
I1011 15:06:38.893111 38966 layer_factory.hpp:77] Creating layer bn_scale38
I1011 15:06:38.893237 38966 net.cpp:124] Setting up bn_scale38
I1011 15:06:38.893252 38966 net.cpp:131] Top shape: 20 461 26 26 (6232720)
I1011 15:06:38.893260 38966 net.cpp:139] Memory required for data: 6185165120
I1011 15:06:38.893270 38966 layer_factory.hpp:77] Creating layer relu26
I1011 15:06:38.893283 38966 net.cpp:86] Creating Layer relu26
I1011 15:06:38.893293 38966 net.cpp:408] relu26 <- conv38
I1011 15:06:38.893303 38966 net.cpp:369] relu26 -> conv38 (in-place)
I1011 15:06:38.893317 38966 net.cpp:124] Setting up relu26
I1011 15:06:38.893327 38966 net.cpp:131] Top shape: 20 461 26 26 (6232720)
I1011 15:06:38.893334 38966 net.cpp:139] Memory required for data: 6210096000
I1011 15:06:38.893342 38966 layer_factory.hpp:77] Creating layer conv39
I1011 15:06:38.893358 38966 net.cpp:86] Creating Layer conv39
I1011 15:06:38.893366 38966 net.cpp:408] conv39 <- conv38
I1011 15:06:38.893383 38966 net.cpp:382] conv39 -> conv39
I1011 15:06:38.895222 38966 net.cpp:124] Setting up conv39
I1011 15:06:38.895239 38966 net.cpp:131] Top shape: 20 87 26 26 (1176240)
I1011 15:06:38.895254 38966 net.cpp:139] Memory required for data: 6214800960
I1011 15:06:38.895267 38966 layer_factory.hpp:77] Creating layer batch_norm39
I1011 15:06:38.895278 38966 net.cpp:86] Creating Layer batch_norm39
I1011 15:06:38.895288 38966 net.cpp:408] batch_norm39 <- conv39
I1011 15:06:38.895304 38966 net.cpp:369] batch_norm39 -> conv39 (in-place)
I1011 15:06:38.895524 38966 net.cpp:124] Setting up batch_norm39
I1011 15:06:38.895537 38966 net.cpp:131] Top shape: 20 87 26 26 (1176240)
I1011 15:06:38.895543 38966 net.cpp:139] Memory required for data: 6219505920
I1011 15:06:38.895557 38966 layer_factory.hpp:77] Creating layer bn_scale39
I1011 15:06:38.895571 38966 net.cpp:86] Creating Layer bn_scale39
I1011 15:06:38.895581 38966 net.cpp:408] bn_scale39 <- conv39
I1011 15:06:38.895591 38966 net.cpp:369] bn_scale39 -> conv39 (in-place)
I1011 15:06:38.895645 38966 layer_factory.hpp:77] Creating layer bn_scale39
I1011 15:06:38.895778 38966 net.cpp:124] Setting up bn_scale39
I1011 15:06:38.895792 38966 net.cpp:131] Top shape: 20 87 26 26 (1176240)
I1011 15:06:38.895797 38966 net.cpp:139] Memory required for data: 6224210880
I1011 15:06:38.895808 38966 layer_factory.hpp:77] Creating layer add8
I1011 15:06:38.895823 38966 net.cpp:86] Creating Layer add8
I1011 15:06:38.895833 38966 net.cpp:408] add8 <- add7_add7_0_split_1
I1011 15:06:38.895843 38966 net.cpp:408] add8 <- conv39
I1011 15:06:38.895853 38966 net.cpp:382] add8 -> add8
I1011 15:06:38.895890 38966 net.cpp:124] Setting up add8
I1011 15:06:38.895901 38966 net.cpp:131] Top shape: 20 87 26 26 (1176240)
I1011 15:06:38.895908 38966 net.cpp:139] Memory required for data: 6228915840
I1011 15:06:38.895915 38966 layer_factory.hpp:77] Creating layer conv40
I1011 15:06:38.895933 38966 net.cpp:86] Creating Layer conv40
I1011 15:06:38.895942 38966 net.cpp:408] conv40 <- add8
I1011 15:06:38.895968 38966 net.cpp:382] conv40 -> conv40
I1011 15:06:38.896761 38966 net.cpp:124] Setting up conv40
I1011 15:06:38.896775 38966 net.cpp:131] Top shape: 20 576 26 26 (7787520)
I1011 15:06:38.896782 38966 net.cpp:139] Memory required for data: 6260065920
I1011 15:06:38.896792 38966 layer_factory.hpp:77] Creating layer batch_norm40
I1011 15:06:38.896806 38966 net.cpp:86] Creating Layer batch_norm40
I1011 15:06:38.896814 38966 net.cpp:408] batch_norm40 <- conv40
I1011 15:06:38.896828 38966 net.cpp:369] batch_norm40 -> conv40 (in-place)
I1011 15:06:38.897034 38966 net.cpp:124] Setting up batch_norm40
I1011 15:06:38.897047 38966 net.cpp:131] Top shape: 20 576 26 26 (7787520)
I1011 15:06:38.897053 38966 net.cpp:139] Memory required for data: 6291216000
I1011 15:06:38.897066 38966 layer_factory.hpp:77] Creating layer bn_scale40
I1011 15:06:38.897079 38966 net.cpp:86] Creating Layer bn_scale40
I1011 15:06:38.897089 38966 net.cpp:408] bn_scale40 <- conv40
I1011 15:06:38.897099 38966 net.cpp:369] bn_scale40 -> conv40 (in-place)
I1011 15:06:38.897151 38966 layer_factory.hpp:77] Creating layer bn_scale40
I1011 15:06:38.897279 38966 net.cpp:124] Setting up bn_scale40
I1011 15:06:38.897291 38966 net.cpp:131] Top shape: 20 576 26 26 (7787520)
I1011 15:06:38.897298 38966 net.cpp:139] Memory required for data: 6322366080
I1011 15:06:38.897310 38966 layer_factory.hpp:77] Creating layer relu27
I1011 15:06:38.897320 38966 net.cpp:86] Creating Layer relu27
I1011 15:06:38.897330 38966 net.cpp:408] relu27 <- conv40
I1011 15:06:38.897342 38966 net.cpp:369] relu27 -> conv40 (in-place)
I1011 15:06:38.897356 38966 net.cpp:124] Setting up relu27
I1011 15:06:38.897364 38966 net.cpp:131] Top shape: 20 576 26 26 (7787520)
I1011 15:06:38.897372 38966 net.cpp:139] Memory required for data: 6353516160
I1011 15:06:38.897379 38966 layer_factory.hpp:77] Creating layer conv40_relu27_0_split
I1011 15:06:38.897389 38966 net.cpp:86] Creating Layer conv40_relu27_0_split
I1011 15:06:38.897395 38966 net.cpp:408] conv40_relu27_0_split <- conv40
I1011 15:06:38.897413 38966 net.cpp:382] conv40_relu27_0_split -> conv40_relu27_0_split_0
I1011 15:06:38.897428 38966 net.cpp:382] conv40_relu27_0_split -> conv40_relu27_0_split_1
I1011 15:06:38.897477 38966 net.cpp:124] Setting up conv40_relu27_0_split
I1011 15:06:38.897488 38966 net.cpp:131] Top shape: 20 576 26 26 (7787520)
I1011 15:06:38.897497 38966 net.cpp:131] Top shape: 20 576 26 26 (7787520)
I1011 15:06:38.897503 38966 net.cpp:139] Memory required for data: 6415816320
I1011 15:06:38.897511 38966 layer_factory.hpp:77] Creating layer conv41
I1011 15:06:38.897527 38966 net.cpp:86] Creating Layer conv41
I1011 15:06:38.897536 38966 net.cpp:408] conv41 <- conv40_relu27_0_split_0
I1011 15:06:38.897550 38966 net.cpp:382] conv41 -> conv41
I1011 15:06:38.897806 38966 net.cpp:124] Setting up conv41
I1011 15:06:38.897819 38966 net.cpp:131] Top shape: 20 576 13 13 (1946880)
I1011 15:06:38.897826 38966 net.cpp:139] Memory required for data: 6423603840
I1011 15:06:38.897835 38966 layer_factory.hpp:77] Creating layer batch_norm41
I1011 15:06:38.897846 38966 net.cpp:86] Creating Layer batch_norm41
I1011 15:06:38.897853 38966 net.cpp:408] batch_norm41 <- conv41
I1011 15:06:38.897862 38966 net.cpp:369] batch_norm41 -> conv41 (in-place)
I1011 15:06:38.898067 38966 net.cpp:124] Setting up batch_norm41
I1011 15:06:38.898079 38966 net.cpp:131] Top shape: 20 576 13 13 (1946880)
I1011 15:06:38.898085 38966 net.cpp:139] Memory required for data: 6431391360
I1011 15:06:38.898098 38966 layer_factory.hpp:77] Creating layer bn_scale41
I1011 15:06:38.898109 38966 net.cpp:86] Creating Layer bn_scale41
I1011 15:06:38.898118 38966 net.cpp:408] bn_scale41 <- conv41
I1011 15:06:38.898128 38966 net.cpp:369] bn_scale41 -> conv41 (in-place)
I1011 15:06:38.898180 38966 layer_factory.hpp:77] Creating layer bn_scale41
I1011 15:06:38.898309 38966 net.cpp:124] Setting up bn_scale41
I1011 15:06:38.898321 38966 net.cpp:131] Top shape: 20 576 13 13 (1946880)
I1011 15:06:38.898329 38966 net.cpp:139] Memory required for data: 6439178880
I1011 15:06:38.898355 38966 layer_factory.hpp:77] Creating layer relu28
I1011 15:06:38.898366 38966 net.cpp:86] Creating Layer relu28
I1011 15:06:38.898376 38966 net.cpp:408] relu28 <- conv41
I1011 15:06:38.898391 38966 net.cpp:369] relu28 -> conv41 (in-place)
I1011 15:06:38.898403 38966 net.cpp:124] Setting up relu28
I1011 15:06:38.898414 38966 net.cpp:131] Top shape: 20 576 13 13 (1946880)
I1011 15:06:38.898424 38966 net.cpp:139] Memory required for data: 6446966400
I1011 15:06:38.898432 38966 layer_factory.hpp:77] Creating layer conv42
I1011 15:06:38.898445 38966 net.cpp:86] Creating Layer conv42
I1011 15:06:38.898453 38966 net.cpp:408] conv42 <- conv41
I1011 15:06:38.898473 38966 net.cpp:382] conv42 -> conv42
I1011 15:06:38.899528 38966 net.cpp:124] Setting up conv42
I1011 15:06:38.899543 38966 net.cpp:131] Top shape: 20 128 13 13 (432640)
I1011 15:06:38.899549 38966 net.cpp:139] Memory required for data: 6448696960
I1011 15:06:38.899559 38966 layer_factory.hpp:77] Creating layer batch_norm42
I1011 15:06:38.899574 38966 net.cpp:86] Creating Layer batch_norm42
I1011 15:06:38.899582 38966 net.cpp:408] batch_norm42 <- conv42
I1011 15:06:38.899592 38966 net.cpp:369] batch_norm42 -> conv42 (in-place)
I1011 15:06:38.899785 38966 net.cpp:124] Setting up batch_norm42
I1011 15:06:38.899796 38966 net.cpp:131] Top shape: 20 128 13 13 (432640)
I1011 15:06:38.899803 38966 net.cpp:139] Memory required for data: 6450427520
I1011 15:06:38.899816 38966 layer_factory.hpp:77] Creating layer bn_scale42
I1011 15:06:38.899832 38966 net.cpp:86] Creating Layer bn_scale42
I1011 15:06:38.899842 38966 net.cpp:408] bn_scale42 <- conv42
I1011 15:06:38.899852 38966 net.cpp:369] bn_scale42 -> conv42 (in-place)
I1011 15:06:38.899904 38966 layer_factory.hpp:77] Creating layer bn_scale42
I1011 15:06:38.900022 38966 net.cpp:124] Setting up bn_scale42
I1011 15:06:38.900034 38966 net.cpp:131] Top shape: 20 128 13 13 (432640)
I1011 15:06:38.900040 38966 net.cpp:139] Memory required for data: 6452158080
I1011 15:06:38.900053 38966 layer_factory.hpp:77] Creating layer conv42_bn_scale42_0_split
I1011 15:06:38.900066 38966 net.cpp:86] Creating Layer conv42_bn_scale42_0_split
I1011 15:06:38.900074 38966 net.cpp:408] conv42_bn_scale42_0_split <- conv42
I1011 15:06:38.900090 38966 net.cpp:382] conv42_bn_scale42_0_split -> conv42_bn_scale42_0_split_0
I1011 15:06:38.900105 38966 net.cpp:382] conv42_bn_scale42_0_split -> conv42_bn_scale42_0_split_1
I1011 15:06:38.900156 38966 net.cpp:124] Setting up conv42_bn_scale42_0_split
I1011 15:06:38.900169 38966 net.cpp:131] Top shape: 20 128 13 13 (432640)
I1011 15:06:38.900178 38966 net.cpp:131] Top shape: 20 128 13 13 (432640)
I1011 15:06:38.900190 38966 net.cpp:139] Memory required for data: 6455619200
I1011 15:06:38.900197 38966 layer_factory.hpp:77] Creating layer conv43
I1011 15:06:38.900211 38966 net.cpp:86] Creating Layer conv43
I1011 15:06:38.900220 38966 net.cpp:408] conv43 <- conv42_bn_scale42_0_split_0
I1011 15:06:38.900236 38966 net.cpp:382] conv43 -> conv43
I1011 15:06:38.901556 38966 net.cpp:124] Setting up conv43
I1011 15:06:38.901569 38966 net.cpp:131] Top shape: 20 768 13 13 (2595840)
I1011 15:06:38.901576 38966 net.cpp:139] Memory required for data: 6466002560
I1011 15:06:38.901585 38966 layer_factory.hpp:77] Creating layer batch_norm43
I1011 15:06:38.901598 38966 net.cpp:86] Creating Layer batch_norm43
I1011 15:06:38.901608 38966 net.cpp:408] batch_norm43 <- conv43
I1011 15:06:38.901623 38966 net.cpp:369] batch_norm43 -> conv43 (in-place)
I1011 15:06:38.901816 38966 net.cpp:124] Setting up batch_norm43
I1011 15:06:38.901829 38966 net.cpp:131] Top shape: 20 768 13 13 (2595840)
I1011 15:06:38.901835 38966 net.cpp:139] Memory required for data: 6476385920
I1011 15:06:38.901849 38966 layer_factory.hpp:77] Creating layer bn_scale43
I1011 15:06:38.901863 38966 net.cpp:86] Creating Layer bn_scale43
I1011 15:06:38.901871 38966 net.cpp:408] bn_scale43 <- conv43
I1011 15:06:38.901881 38966 net.cpp:369] bn_scale43 -> conv43 (in-place)
I1011 15:06:38.901937 38966 layer_factory.hpp:77] Creating layer bn_scale43
I1011 15:06:38.902077 38966 net.cpp:124] Setting up bn_scale43
I1011 15:06:38.902091 38966 net.cpp:131] Top shape: 20 768 13 13 (2595840)
I1011 15:06:38.902097 38966 net.cpp:139] Memory required for data: 6486769280
I1011 15:06:38.902132 38966 layer_factory.hpp:77] Creating layer relu29
I1011 15:06:38.902143 38966 net.cpp:86] Creating Layer relu29
I1011 15:06:38.902150 38966 net.cpp:408] relu29 <- conv43
I1011 15:06:38.902160 38966 net.cpp:369] relu29 -> conv43 (in-place)
I1011 15:06:38.902173 38966 net.cpp:124] Setting up relu29
I1011 15:06:38.902184 38966 net.cpp:131] Top shape: 20 768 13 13 (2595840)
I1011 15:06:38.902191 38966 net.cpp:139] Memory required for data: 6497152640
I1011 15:06:38.902199 38966 layer_factory.hpp:77] Creating layer conv44
I1011 15:06:38.902210 38966 net.cpp:86] Creating Layer conv44
I1011 15:06:38.902218 38966 net.cpp:408] conv44 <- conv43
I1011 15:06:38.902230 38966 net.cpp:382] conv44 -> conv44
I1011 15:06:38.902503 38966 net.cpp:124] Setting up conv44
I1011 15:06:38.902516 38966 net.cpp:131] Top shape: 20 768 13 13 (2595840)
I1011 15:06:38.902523 38966 net.cpp:139] Memory required for data: 6507536000
I1011 15:06:38.902531 38966 layer_factory.hpp:77] Creating layer batch_norm44
I1011 15:06:38.902546 38966 net.cpp:86] Creating Layer batch_norm44
I1011 15:06:38.902555 38966 net.cpp:408] batch_norm44 <- conv44
I1011 15:06:38.902565 38966 net.cpp:369] batch_norm44 -> conv44 (in-place)
I1011 15:06:38.902752 38966 net.cpp:124] Setting up batch_norm44
I1011 15:06:38.902765 38966 net.cpp:131] Top shape: 20 768 13 13 (2595840)
I1011 15:06:38.902770 38966 net.cpp:139] Memory required for data: 6517919360
I1011 15:06:38.902784 38966 layer_factory.hpp:77] Creating layer bn_scale44
I1011 15:06:38.902797 38966 net.cpp:86] Creating Layer bn_scale44
I1011 15:06:38.902807 38966 net.cpp:408] bn_scale44 <- conv44
I1011 15:06:38.902822 38966 net.cpp:369] bn_scale44 -> conv44 (in-place)
I1011 15:06:38.902871 38966 layer_factory.hpp:77] Creating layer bn_scale44
I1011 15:06:38.902987 38966 net.cpp:124] Setting up bn_scale44
I1011 15:06:38.902999 38966 net.cpp:131] Top shape: 20 768 13 13 (2595840)
I1011 15:06:38.903007 38966 net.cpp:139] Memory required for data: 6528302720
I1011 15:06:38.903017 38966 layer_factory.hpp:77] Creating layer relu30
I1011 15:06:38.903030 38966 net.cpp:86] Creating Layer relu30
I1011 15:06:38.903039 38966 net.cpp:408] relu30 <- conv44
I1011 15:06:38.903049 38966 net.cpp:369] relu30 -> conv44 (in-place)
I1011 15:06:38.903060 38966 net.cpp:124] Setting up relu30
I1011 15:06:38.903070 38966 net.cpp:131] Top shape: 20 768 13 13 (2595840)
I1011 15:06:38.903077 38966 net.cpp:139] Memory required for data: 6538686080
I1011 15:06:38.903084 38966 layer_factory.hpp:77] Creating layer conv45
I1011 15:06:38.903103 38966 net.cpp:86] Creating Layer conv45
I1011 15:06:38.903111 38966 net.cpp:408] conv45 <- conv44
I1011 15:06:38.903126 38966 net.cpp:382] conv45 -> conv45
I1011 15:06:38.904453 38966 net.cpp:124] Setting up conv45
I1011 15:06:38.904467 38966 net.cpp:131] Top shape: 20 128 13 13 (432640)
I1011 15:06:38.904474 38966 net.cpp:139] Memory required for data: 6540416640
I1011 15:06:38.904482 38966 layer_factory.hpp:77] Creating layer batch_norm45
I1011 15:06:38.904497 38966 net.cpp:86] Creating Layer batch_norm45
I1011 15:06:38.904506 38966 net.cpp:408] batch_norm45 <- conv45
I1011 15:06:38.904516 38966 net.cpp:369] batch_norm45 -> conv45 (in-place)
I1011 15:06:38.904709 38966 net.cpp:124] Setting up batch_norm45
I1011 15:06:38.904721 38966 net.cpp:131] Top shape: 20 128 13 13 (432640)
I1011 15:06:38.904727 38966 net.cpp:139] Memory required for data: 6542147200
I1011 15:06:38.904742 38966 layer_factory.hpp:77] Creating layer bn_scale45
I1011 15:06:38.904755 38966 net.cpp:86] Creating Layer bn_scale45
I1011 15:06:38.904765 38966 net.cpp:408] bn_scale45 <- conv45
I1011 15:06:38.904774 38966 net.cpp:369] bn_scale45 -> conv45 (in-place)
I1011 15:06:38.904831 38966 layer_factory.hpp:77] Creating layer bn_scale45
I1011 15:06:38.904953 38966 net.cpp:124] Setting up bn_scale45
I1011 15:06:38.904964 38966 net.cpp:131] Top shape: 20 128 13 13 (432640)
I1011 15:06:38.904986 38966 net.cpp:139] Memory required for data: 6543877760
I1011 15:06:38.905000 38966 layer_factory.hpp:77] Creating layer add9
I1011 15:06:38.905014 38966 net.cpp:86] Creating Layer add9
I1011 15:06:38.905022 38966 net.cpp:408] add9 <- conv42_bn_scale42_0_split_1
I1011 15:06:38.905032 38966 net.cpp:408] add9 <- conv45
I1011 15:06:38.905047 38966 net.cpp:382] add9 -> add9
I1011 15:06:38.905083 38966 net.cpp:124] Setting up add9
I1011 15:06:38.905094 38966 net.cpp:131] Top shape: 20 128 13 13 (432640)
I1011 15:06:38.905100 38966 net.cpp:139] Memory required for data: 6545608320
I1011 15:06:38.905107 38966 layer_factory.hpp:77] Creating layer add9_add9_0_split
I1011 15:06:38.905123 38966 net.cpp:86] Creating Layer add9_add9_0_split
I1011 15:06:38.905133 38966 net.cpp:408] add9_add9_0_split <- add9
I1011 15:06:38.905148 38966 net.cpp:382] add9_add9_0_split -> add9_add9_0_split_0
I1011 15:06:38.905162 38966 net.cpp:382] add9_add9_0_split -> add9_add9_0_split_1
I1011 15:06:38.905211 38966 net.cpp:124] Setting up add9_add9_0_split
I1011 15:06:38.905222 38966 net.cpp:131] Top shape: 20 128 13 13 (432640)
I1011 15:06:38.905230 38966 net.cpp:131] Top shape: 20 128 13 13 (432640)
I1011 15:06:38.905236 38966 net.cpp:139] Memory required for data: 6549069440
I1011 15:06:38.905243 38966 layer_factory.hpp:77] Creating layer conv46
I1011 15:06:38.905258 38966 net.cpp:86] Creating Layer conv46
I1011 15:06:38.905267 38966 net.cpp:408] conv46 <- add9_add9_0_split_0
I1011 15:06:38.905283 38966 net.cpp:382] conv46 -> conv46
I1011 15:06:38.906597 38966 net.cpp:124] Setting up conv46
I1011 15:06:38.906611 38966 net.cpp:131] Top shape: 20 768 13 13 (2595840)
I1011 15:06:38.906617 38966 net.cpp:139] Memory required for data: 6559452800
I1011 15:06:38.906626 38966 layer_factory.hpp:77] Creating layer batch_norm46
I1011 15:06:38.906639 38966 net.cpp:86] Creating Layer batch_norm46
I1011 15:06:38.906649 38966 net.cpp:408] batch_norm46 <- conv46
I1011 15:06:38.906663 38966 net.cpp:369] batch_norm46 -> conv46 (in-place)
I1011 15:06:38.906853 38966 net.cpp:124] Setting up batch_norm46
I1011 15:06:38.906865 38966 net.cpp:131] Top shape: 20 768 13 13 (2595840)
I1011 15:06:38.906872 38966 net.cpp:139] Memory required for data: 6569836160
I1011 15:06:38.906885 38966 layer_factory.hpp:77] Creating layer bn_scale46
I1011 15:06:38.906903 38966 net.cpp:86] Creating Layer bn_scale46
I1011 15:06:38.906911 38966 net.cpp:408] bn_scale46 <- conv46
I1011 15:06:38.906921 38966 net.cpp:369] bn_scale46 -> conv46 (in-place)
I1011 15:06:38.906971 38966 layer_factory.hpp:77] Creating layer bn_scale46
I1011 15:06:38.907086 38966 net.cpp:124] Setting up bn_scale46
I1011 15:06:38.907107 38966 net.cpp:131] Top shape: 20 768 13 13 (2595840)
I1011 15:06:38.907114 38966 net.cpp:139] Memory required for data: 6580219520
I1011 15:06:38.907125 38966 layer_factory.hpp:77] Creating layer relu31
I1011 15:06:38.907135 38966 net.cpp:86] Creating Layer relu31
I1011 15:06:38.907145 38966 net.cpp:408] relu31 <- conv46
I1011 15:06:38.907158 38966 net.cpp:369] relu31 -> conv46 (in-place)
I1011 15:06:38.907171 38966 net.cpp:124] Setting up relu31
I1011 15:06:38.907181 38966 net.cpp:131] Top shape: 20 768 13 13 (2595840)
I1011 15:06:38.907188 38966 net.cpp:139] Memory required for data: 6590602880
I1011 15:06:38.907194 38966 layer_factory.hpp:77] Creating layer conv47
I1011 15:06:38.907210 38966 net.cpp:86] Creating Layer conv47
I1011 15:06:38.907218 38966 net.cpp:408] conv47 <- conv46
I1011 15:06:38.907230 38966 net.cpp:382] conv47 -> conv47
I1011 15:06:38.907510 38966 net.cpp:124] Setting up conv47
I1011 15:06:38.907524 38966 net.cpp:131] Top shape: 20 768 13 13 (2595840)
I1011 15:06:38.907531 38966 net.cpp:139] Memory required for data: 6600986240
I1011 15:06:38.907539 38966 layer_factory.hpp:77] Creating layer batch_norm47
I1011 15:06:38.907550 38966 net.cpp:86] Creating Layer batch_norm47
I1011 15:06:38.907559 38966 net.cpp:408] batch_norm47 <- conv47
I1011 15:06:38.907569 38966 net.cpp:369] batch_norm47 -> conv47 (in-place)
I1011 15:06:38.907776 38966 net.cpp:124] Setting up batch_norm47
I1011 15:06:38.907789 38966 net.cpp:131] Top shape: 20 768 13 13 (2595840)
I1011 15:06:38.907795 38966 net.cpp:139] Memory required for data: 6611369600
I1011 15:06:38.907810 38966 layer_factory.hpp:77] Creating layer bn_scale47
I1011 15:06:38.907829 38966 net.cpp:86] Creating Layer bn_scale47
I1011 15:06:38.907837 38966 net.cpp:408] bn_scale47 <- conv47
I1011 15:06:38.907847 38966 net.cpp:369] bn_scale47 -> conv47 (in-place)
I1011 15:06:38.907898 38966 layer_factory.hpp:77] Creating layer bn_scale47
I1011 15:06:38.908017 38966 net.cpp:124] Setting up bn_scale47
I1011 15:06:38.908033 38966 net.cpp:131] Top shape: 20 768 13 13 (2595840)
I1011 15:06:38.908041 38966 net.cpp:139] Memory required for data: 6621752960
I1011 15:06:38.908051 38966 layer_factory.hpp:77] Creating layer relu32
I1011 15:06:38.908062 38966 net.cpp:86] Creating Layer relu32
I1011 15:06:38.908071 38966 net.cpp:408] relu32 <- conv47
I1011 15:06:38.908080 38966 net.cpp:369] relu32 -> conv47 (in-place)
I1011 15:06:38.908092 38966 net.cpp:124] Setting up relu32
I1011 15:06:38.908103 38966 net.cpp:131] Top shape: 20 768 13 13 (2595840)
I1011 15:06:38.908110 38966 net.cpp:139] Memory required for data: 6632136320
I1011 15:06:38.908116 38966 layer_factory.hpp:77] Creating layer conv48
I1011 15:06:38.908133 38966 net.cpp:86] Creating Layer conv48
I1011 15:06:38.908143 38966 net.cpp:408] conv48 <- conv47
I1011 15:06:38.908159 38966 net.cpp:382] conv48 -> conv48
I1011 15:06:38.910616 38966 net.cpp:124] Setting up conv48
I1011 15:06:38.910634 38966 net.cpp:131] Top shape: 20 128 13 13 (432640)
I1011 15:06:38.910641 38966 net.cpp:139] Memory required for data: 6633866880
I1011 15:06:38.910651 38966 layer_factory.hpp:77] Creating layer batch_norm48
I1011 15:06:38.910663 38966 net.cpp:86] Creating Layer batch_norm48
I1011 15:06:38.910673 38966 net.cpp:408] batch_norm48 <- conv48
I1011 15:06:38.910688 38966 net.cpp:369] batch_norm48 -> conv48 (in-place)
I1011 15:06:38.910890 38966 net.cpp:124] Setting up batch_norm48
I1011 15:06:38.910902 38966 net.cpp:131] Top shape: 20 128 13 13 (432640)
I1011 15:06:38.910908 38966 net.cpp:139] Memory required for data: 6635597440
I1011 15:06:38.910923 38966 layer_factory.hpp:77] Creating layer bn_scale48
I1011 15:06:38.910941 38966 net.cpp:86] Creating Layer bn_scale48
I1011 15:06:38.910950 38966 net.cpp:408] bn_scale48 <- conv48
I1011 15:06:38.910960 38966 net.cpp:369] bn_scale48 -> conv48 (in-place)
I1011 15:06:38.911011 38966 layer_factory.hpp:77] Creating layer bn_scale48
I1011 15:06:38.911132 38966 net.cpp:124] Setting up bn_scale48
I1011 15:06:38.911144 38966 net.cpp:131] Top shape: 20 128 13 13 (432640)
I1011 15:06:38.911151 38966 net.cpp:139] Memory required for data: 6637328000
I1011 15:06:38.911162 38966 layer_factory.hpp:77] Creating layer add10
I1011 15:06:38.911177 38966 net.cpp:86] Creating Layer add10
I1011 15:06:38.911186 38966 net.cpp:408] add10 <- add9_add9_0_split_1
I1011 15:06:38.911195 38966 net.cpp:408] add10 <- conv48
I1011 15:06:38.911206 38966 net.cpp:382] add10 -> add10
I1011 15:06:38.911244 38966 net.cpp:124] Setting up add10
I1011 15:06:38.911267 38966 net.cpp:131] Top shape: 20 128 13 13 (432640)
I1011 15:06:38.911274 38966 net.cpp:139] Memory required for data: 6639058560
I1011 15:06:38.911281 38966 layer_factory.hpp:77] Creating layer conv49
I1011 15:06:38.911299 38966 net.cpp:86] Creating Layer conv49
I1011 15:06:38.911309 38966 net.cpp:408] conv49 <- add10
I1011 15:06:38.911321 38966 net.cpp:382] conv49 -> conv49
I1011 15:06:38.912644 38966 net.cpp:124] Setting up conv49
I1011 15:06:38.912657 38966 net.cpp:131] Top shape: 20 768 13 13 (2595840)
I1011 15:06:38.912664 38966 net.cpp:139] Memory required for data: 6649441920
I1011 15:06:38.912673 38966 layer_factory.hpp:77] Creating layer batch_norm49
I1011 15:06:38.912690 38966 net.cpp:86] Creating Layer batch_norm49
I1011 15:06:38.912700 38966 net.cpp:408] batch_norm49 <- conv49
I1011 15:06:38.912710 38966 net.cpp:369] batch_norm49 -> conv49 (in-place)
I1011 15:06:38.912909 38966 net.cpp:124] Setting up batch_norm49
I1011 15:06:38.912932 38966 net.cpp:131] Top shape: 20 768 13 13 (2595840)
I1011 15:06:38.912940 38966 net.cpp:139] Memory required for data: 6659825280
I1011 15:06:38.912955 38966 layer_factory.hpp:77] Creating layer bn_scale49
I1011 15:06:38.912967 38966 net.cpp:86] Creating Layer bn_scale49
I1011 15:06:38.912977 38966 net.cpp:408] bn_scale49 <- conv49
I1011 15:06:38.912987 38966 net.cpp:369] bn_scale49 -> conv49 (in-place)
I1011 15:06:38.913045 38966 layer_factory.hpp:77] Creating layer bn_scale49
I1011 15:06:38.913166 38966 net.cpp:124] Setting up bn_scale49
I1011 15:06:38.913179 38966 net.cpp:131] Top shape: 20 768 13 13 (2595840)
I1011 15:06:38.913185 38966 net.cpp:139] Memory required for data: 6670208640
I1011 15:06:38.913200 38966 layer_factory.hpp:77] Creating layer relu33
I1011 15:06:38.913214 38966 net.cpp:86] Creating Layer relu33
I1011 15:06:38.913223 38966 net.cpp:408] relu33 <- conv49
I1011 15:06:38.913236 38966 net.cpp:369] relu33 -> conv49 (in-place)
I1011 15:06:38.913249 38966 net.cpp:124] Setting up relu33
I1011 15:06:38.913259 38966 net.cpp:131] Top shape: 20 768 13 13 (2595840)
I1011 15:06:38.913266 38966 net.cpp:139] Memory required for data: 6680592000
I1011 15:06:38.913273 38966 layer_factory.hpp:77] Creating layer conv50
I1011 15:06:38.913285 38966 net.cpp:86] Creating Layer conv50
I1011 15:06:38.913293 38966 net.cpp:408] conv50 <- conv49
I1011 15:06:38.913308 38966 net.cpp:382] conv50 -> conv50
I1011 15:06:38.913581 38966 net.cpp:124] Setting up conv50
I1011 15:06:38.913594 38966 net.cpp:131] Top shape: 20 768 13 13 (2595840)
I1011 15:06:38.913600 38966 net.cpp:139] Memory required for data: 6690975360
I1011 15:06:38.913610 38966 layer_factory.hpp:77] Creating layer batch_norm50
I1011 15:06:38.913621 38966 net.cpp:86] Creating Layer batch_norm50
I1011 15:06:38.913630 38966 net.cpp:408] batch_norm50 <- conv50
I1011 15:06:38.913643 38966 net.cpp:369] batch_norm50 -> conv50 (in-place)
I1011 15:06:38.913831 38966 net.cpp:124] Setting up batch_norm50
I1011 15:06:38.913842 38966 net.cpp:131] Top shape: 20 768 13 13 (2595840)
I1011 15:06:38.913849 38966 net.cpp:139] Memory required for data: 6701358720
I1011 15:06:38.913862 38966 layer_factory.hpp:77] Creating layer bn_scale50
I1011 15:06:38.913882 38966 net.cpp:86] Creating Layer bn_scale50
I1011 15:06:38.913890 38966 net.cpp:408] bn_scale50 <- conv50
I1011 15:06:38.913900 38966 net.cpp:369] bn_scale50 -> conv50 (in-place)
I1011 15:06:38.913951 38966 layer_factory.hpp:77] Creating layer bn_scale50
I1011 15:06:38.914072 38966 net.cpp:124] Setting up bn_scale50
I1011 15:06:38.914083 38966 net.cpp:131] Top shape: 20 768 13 13 (2595840)
I1011 15:06:38.914089 38966 net.cpp:139] Memory required for data: 6711742080
I1011 15:06:38.914101 38966 layer_factory.hpp:77] Creating layer relu34
I1011 15:06:38.914110 38966 net.cpp:86] Creating Layer relu34
I1011 15:06:38.914121 38966 net.cpp:408] relu34 <- conv50
I1011 15:06:38.914134 38966 net.cpp:369] relu34 -> conv50 (in-place)
I1011 15:06:38.914147 38966 net.cpp:124] Setting up relu34
I1011 15:06:38.914158 38966 net.cpp:131] Top shape: 20 768 13 13 (2595840)
I1011 15:06:38.914166 38966 net.cpp:139] Memory required for data: 6722125440
I1011 15:06:38.914173 38966 layer_factory.hpp:77] Creating layer conv51
I1011 15:06:38.914186 38966 net.cpp:86] Creating Layer conv51
I1011 15:06:38.914198 38966 net.cpp:408] conv51 <- conv50
I1011 15:06:38.914212 38966 net.cpp:382] conv51 -> conv51
I1011 15:06:38.916383 38966 net.cpp:124] Setting up conv51
I1011 15:06:38.916397 38966 net.cpp:131] Top shape: 20 224 13 13 (757120)
I1011 15:06:38.916404 38966 net.cpp:139] Memory required for data: 6725153920
I1011 15:06:38.916414 38966 layer_factory.hpp:77] Creating layer batch_norm51
I1011 15:06:38.916424 38966 net.cpp:86] Creating Layer batch_norm51
I1011 15:06:38.916432 38966 net.cpp:408] batch_norm51 <- conv51
I1011 15:06:38.916442 38966 net.cpp:369] batch_norm51 -> conv51 (in-place)
I1011 15:06:38.916652 38966 net.cpp:124] Setting up batch_norm51
I1011 15:06:38.916667 38966 net.cpp:131] Top shape: 20 224 13 13 (757120)
I1011 15:06:38.916687 38966 net.cpp:139] Memory required for data: 6728182400
I1011 15:06:38.916707 38966 layer_factory.hpp:77] Creating layer bn_scale51
I1011 15:06:38.916723 38966 net.cpp:86] Creating Layer bn_scale51
I1011 15:06:38.916733 38966 net.cpp:408] bn_scale51 <- conv51
I1011 15:06:38.916743 38966 net.cpp:369] bn_scale51 -> conv51 (in-place)
I1011 15:06:38.916798 38966 layer_factory.hpp:77] Creating layer bn_scale51
I1011 15:06:38.916924 38966 net.cpp:124] Setting up bn_scale51
I1011 15:06:38.916936 38966 net.cpp:131] Top shape: 20 224 13 13 (757120)
I1011 15:06:38.916942 38966 net.cpp:139] Memory required for data: 6731210880
I1011 15:06:38.916954 38966 layer_factory.hpp:77] Creating layer conv52
I1011 15:06:38.916971 38966 net.cpp:86] Creating Layer conv52
I1011 15:06:38.916980 38966 net.cpp:408] conv52 <- conv51
I1011 15:06:38.916996 38966 net.cpp:382] conv52 -> conv52
I1011 15:06:38.919975 38966 net.cpp:124] Setting up conv52
I1011 15:06:38.919994 38966 net.cpp:131] Top shape: 20 640 13 13 (2163200)
I1011 15:06:38.920001 38966 net.cpp:139] Memory required for data: 6739863680
I1011 15:06:38.920011 38966 layer_factory.hpp:77] Creating layer batch_norm52
I1011 15:06:38.920023 38966 net.cpp:86] Creating Layer batch_norm52
I1011 15:06:38.920042 38966 net.cpp:408] batch_norm52 <- conv52
I1011 15:06:38.920055 38966 net.cpp:369] batch_norm52 -> conv52 (in-place)
I1011 15:06:38.920264 38966 net.cpp:124] Setting up batch_norm52
I1011 15:06:38.920276 38966 net.cpp:131] Top shape: 20 640 13 13 (2163200)
I1011 15:06:38.920282 38966 net.cpp:139] Memory required for data: 6748516480
I1011 15:06:38.920296 38966 layer_factory.hpp:77] Creating layer bn_scale52
I1011 15:06:38.920310 38966 net.cpp:86] Creating Layer bn_scale52
I1011 15:06:38.920320 38966 net.cpp:408] bn_scale52 <- conv52
I1011 15:06:38.920330 38966 net.cpp:369] bn_scale52 -> conv52 (in-place)
I1011 15:06:38.920384 38966 layer_factory.hpp:77] Creating layer bn_scale52
I1011 15:06:38.920501 38966 net.cpp:124] Setting up bn_scale52
I1011 15:06:38.920514 38966 net.cpp:131] Top shape: 20 640 13 13 (2163200)
I1011 15:06:38.920521 38966 net.cpp:139] Memory required for data: 6757169280
I1011 15:06:38.920532 38966 layer_factory.hpp:77] Creating layer relu35
I1011 15:06:38.920547 38966 net.cpp:86] Creating Layer relu35
I1011 15:06:38.920555 38966 net.cpp:408] relu35 <- conv52
I1011 15:06:38.920565 38966 net.cpp:369] relu35 -> conv52 (in-place)
I1011 15:06:38.920576 38966 net.cpp:124] Setting up relu35
I1011 15:06:38.920586 38966 net.cpp:131] Top shape: 20 640 13 13 (2163200)
I1011 15:06:38.920593 38966 net.cpp:139] Memory required for data: 6765822080
I1011 15:06:38.920600 38966 layer_factory.hpp:77] Creating layer yolo/conv1/dw
I1011 15:06:38.920616 38966 net.cpp:86] Creating Layer yolo/conv1/dw
I1011 15:06:38.920624 38966 net.cpp:408] yolo/conv1/dw <- conv52
I1011 15:06:38.920640 38966 net.cpp:382] yolo/conv1/dw -> yolo/conv1/dw
I1011 15:06:38.920907 38966 net.cpp:124] Setting up yolo/conv1/dw
I1011 15:06:38.920919 38966 net.cpp:131] Top shape: 20 640 13 13 (2163200)
I1011 15:06:38.920925 38966 net.cpp:139] Memory required for data: 6774474880
I1011 15:06:38.920934 38966 layer_factory.hpp:77] Creating layer yolo/conv1/dw/bn
I1011 15:06:38.920949 38966 net.cpp:86] Creating Layer yolo/conv1/dw/bn
I1011 15:06:38.920958 38966 net.cpp:408] yolo/conv1/dw/bn <- yolo/conv1/dw
I1011 15:06:38.920974 38966 net.cpp:369] yolo/conv1/dw/bn -> yolo/conv1/dw (in-place)
I1011 15:06:38.921170 38966 net.cpp:124] Setting up yolo/conv1/dw/bn
I1011 15:06:38.921182 38966 net.cpp:131] Top shape: 20 640 13 13 (2163200)
I1011 15:06:38.921188 38966 net.cpp:139] Memory required for data: 6783127680
I1011 15:06:38.921202 38966 layer_factory.hpp:77] Creating layer yolo/conv1/dw/scale
I1011 15:06:38.921221 38966 net.cpp:86] Creating Layer yolo/conv1/dw/scale
I1011 15:06:38.921231 38966 net.cpp:408] yolo/conv1/dw/scale <- yolo/conv1/dw
I1011 15:06:38.921241 38966 net.cpp:369] yolo/conv1/dw/scale -> yolo/conv1/dw (in-place)
I1011 15:06:38.921298 38966 layer_factory.hpp:77] Creating layer yolo/conv1/dw/scale
I1011 15:06:38.921434 38966 net.cpp:124] Setting up yolo/conv1/dw/scale
I1011 15:06:38.921447 38966 net.cpp:131] Top shape: 20 640 13 13 (2163200)
I1011 15:06:38.921454 38966 net.cpp:139] Memory required for data: 6791780480
I1011 15:06:38.921465 38966 layer_factory.hpp:77] Creating layer yolo/conv1/dw/relu
I1011 15:06:38.921476 38966 net.cpp:86] Creating Layer yolo/conv1/dw/relu
I1011 15:06:38.921485 38966 net.cpp:408] yolo/conv1/dw/relu <- yolo/conv1/dw
I1011 15:06:38.921500 38966 net.cpp:369] yolo/conv1/dw/relu -> yolo/conv1/dw (in-place)
I1011 15:06:38.921514 38966 net.cpp:124] Setting up yolo/conv1/dw/relu
I1011 15:06:38.921525 38966 net.cpp:131] Top shape: 20 640 13 13 (2163200)
I1011 15:06:38.921531 38966 net.cpp:139] Memory required for data: 6800433280
I1011 15:06:38.921538 38966 layer_factory.hpp:77] Creating layer yolo/conv1
I1011 15:06:38.921555 38966 net.cpp:86] Creating Layer yolo/conv1
I1011 15:06:38.921563 38966 net.cpp:408] yolo/conv1 <- yolo/conv1/dw
I1011 15:06:38.921574 38966 net.cpp:382] yolo/conv1 -> yolo/conv1
I1011 15:06:38.925976 38966 net.cpp:124] Setting up yolo/conv1
I1011 15:06:38.925992 38966 net.cpp:131] Top shape: 20 576 13 13 (1946880)
I1011 15:06:38.925998 38966 net.cpp:139] Memory required for data: 6808220800
I1011 15:06:38.926007 38966 layer_factory.hpp:77] Creating layer yolo/conv1/bn
I1011 15:06:38.926018 38966 net.cpp:86] Creating Layer yolo/conv1/bn
I1011 15:06:38.926028 38966 net.cpp:408] yolo/conv1/bn <- yolo/conv1
I1011 15:06:38.926038 38966 net.cpp:369] yolo/conv1/bn -> yolo/conv1 (in-place)
I1011 15:06:38.926250 38966 net.cpp:124] Setting up yolo/conv1/bn
I1011 15:06:38.926262 38966 net.cpp:131] Top shape: 20 576 13 13 (1946880)
I1011 15:06:38.926268 38966 net.cpp:139] Memory required for data: 6816008320
I1011 15:06:38.926282 38966 layer_factory.hpp:77] Creating layer yolo/conv1/scale
I1011 15:06:38.926301 38966 net.cpp:86] Creating Layer yolo/conv1/scale
I1011 15:06:38.926311 38966 net.cpp:408] yolo/conv1/scale <- yolo/conv1
I1011 15:06:38.926321 38966 net.cpp:369] yolo/conv1/scale -> yolo/conv1 (in-place)
I1011 15:06:38.926379 38966 layer_factory.hpp:77] Creating layer yolo/conv1/scale
I1011 15:06:38.926510 38966 net.cpp:124] Setting up yolo/conv1/scale
I1011 15:06:38.926522 38966 net.cpp:131] Top shape: 20 576 13 13 (1946880)
I1011 15:06:38.926529 38966 net.cpp:139] Memory required for data: 6823795840
I1011 15:06:38.926540 38966 layer_factory.hpp:77] Creating layer yolo/conv1/relu
I1011 15:06:38.926550 38966 net.cpp:86] Creating Layer yolo/conv1/relu
I1011 15:06:38.926558 38966 net.cpp:408] yolo/conv1/relu <- yolo/conv1
I1011 15:06:38.926570 38966 net.cpp:369] yolo/conv1/relu -> yolo/conv1 (in-place)
I1011 15:06:38.926582 38966 net.cpp:124] Setting up yolo/conv1/relu
I1011 15:06:38.926594 38966 net.cpp:131] Top shape: 20 576 13 13 (1946880)
I1011 15:06:38.926601 38966 net.cpp:139] Memory required for data: 6831583360
I1011 15:06:38.926609 38966 layer_factory.hpp:77] Creating layer yolo/conv1_yolo/conv1/relu_0_split
I1011 15:06:38.926618 38966 net.cpp:86] Creating Layer yolo/conv1_yolo/conv1/relu_0_split
I1011 15:06:38.926625 38966 net.cpp:408] yolo/conv1_yolo/conv1/relu_0_split <- yolo/conv1
I1011 15:06:38.926640 38966 net.cpp:382] yolo/conv1_yolo/conv1/relu_0_split -> yolo/conv1_yolo/conv1/relu_0_split_0
I1011 15:06:38.926653 38966 net.cpp:382] yolo/conv1_yolo/conv1/relu_0_split -> yolo/conv1_yolo/conv1/relu_0_split_1
I1011 15:06:38.926699 38966 net.cpp:124] Setting up yolo/conv1_yolo/conv1/relu_0_split
I1011 15:06:38.926710 38966 net.cpp:131] Top shape: 20 576 13 13 (1946880)
I1011 15:06:38.926718 38966 net.cpp:131] Top shape: 20 576 13 13 (1946880)
I1011 15:06:38.926724 38966 net.cpp:139] Memory required for data: 6847158400
I1011 15:06:38.926733 38966 layer_factory.hpp:77] Creating layer upsample
I1011 15:06:38.926751 38966 net.cpp:86] Creating Layer upsample
I1011 15:06:38.926759 38966 net.cpp:408] upsample <- yolo/conv1_yolo/conv1/relu_0_split_0
I1011 15:06:38.926772 38966 net.cpp:382] upsample -> upsample
I1011 15:06:38.926973 38966 net.cpp:124] Setting up upsample
I1011 15:06:38.926997 38966 net.cpp:131] Top shape: 20 576 25 25 (7200000)
I1011 15:06:38.927004 38966 net.cpp:139] Memory required for data: 6875958400
I1011 15:06:38.927014 38966 layer_factory.hpp:77] Creating layer maxpool
I1011 15:06:38.927026 38966 net.cpp:86] Creating Layer maxpool
I1011 15:06:38.927037 38966 net.cpp:408] maxpool <- upsample
I1011 15:06:38.927047 38966 net.cpp:382] maxpool -> maxpool
I1011 15:06:38.927119 38966 net.cpp:124] Setting up maxpool
I1011 15:06:38.927132 38966 net.cpp:131] Top shape: 20 576 26 26 (7787520)
I1011 15:06:38.927139 38966 net.cpp:139] Memory required for data: 6907108480
I1011 15:06:38.927145 38966 layer_factory.hpp:77] Creating layer yolo/conv2/dw
I1011 15:06:38.927163 38966 net.cpp:86] Creating Layer yolo/conv2/dw
I1011 15:06:38.927171 38966 net.cpp:408] yolo/conv2/dw <- conv40_relu27_0_split_1
I1011 15:06:38.927191 38966 net.cpp:382] yolo/conv2/dw -> yolo/conv2/dw
I1011 15:06:38.927458 38966 net.cpp:124] Setting up yolo/conv2/dw
I1011 15:06:38.927471 38966 net.cpp:131] Top shape: 20 576 26 26 (7787520)
I1011 15:06:38.927477 38966 net.cpp:139] Memory required for data: 6938258560
I1011 15:06:38.927486 38966 layer_factory.hpp:77] Creating layer yolo/conv2/dw/bn
I1011 15:06:38.927502 38966 net.cpp:86] Creating Layer yolo/conv2/dw/bn
I1011 15:06:38.927511 38966 net.cpp:408] yolo/conv2/dw/bn <- yolo/conv2/dw
I1011 15:06:38.927521 38966 net.cpp:369] yolo/conv2/dw/bn -> yolo/conv2/dw (in-place)
I1011 15:06:38.927736 38966 net.cpp:124] Setting up yolo/conv2/dw/bn
I1011 15:06:38.927748 38966 net.cpp:131] Top shape: 20 576 26 26 (7787520)
I1011 15:06:38.927754 38966 net.cpp:139] Memory required for data: 6969408640
I1011 15:06:38.927768 38966 layer_factory.hpp:77] Creating layer yolo/conv2/dw/scale
I1011 15:06:38.927784 38966 net.cpp:86] Creating Layer yolo/conv2/dw/scale
I1011 15:06:38.927793 38966 net.cpp:408] yolo/conv2/dw/scale <- yolo/conv2/dw
I1011 15:06:38.927803 38966 net.cpp:369] yolo/conv2/dw/scale -> yolo/conv2/dw (in-place)
I1011 15:06:38.927858 38966 layer_factory.hpp:77] Creating layer yolo/conv2/dw/scale
I1011 15:06:38.927992 38966 net.cpp:124] Setting up yolo/conv2/dw/scale
I1011 15:06:38.928005 38966 net.cpp:131] Top shape: 20 576 26 26 (7787520)
I1011 15:06:38.928011 38966 net.cpp:139] Memory required for data: 7000558720
I1011 15:06:38.928022 38966 layer_factory.hpp:77] Creating layer yolo/conv2/dw/relu
I1011 15:06:38.928036 38966 net.cpp:86] Creating Layer yolo/conv2/dw/relu
I1011 15:06:38.928045 38966 net.cpp:408] yolo/conv2/dw/relu <- yolo/conv2/dw
I1011 15:06:38.928056 38966 net.cpp:369] yolo/conv2/dw/relu -> yolo/conv2/dw (in-place)
I1011 15:06:38.928066 38966 net.cpp:124] Setting up yolo/conv2/dw/relu
I1011 15:06:38.928076 38966 net.cpp:131] Top shape: 20 576 26 26 (7787520)
I1011 15:06:38.928083 38966 net.cpp:139] Memory required for data: 7031708800
I1011 15:06:38.928090 38966 layer_factory.hpp:77] Creating layer yolo/conv2
I1011 15:06:38.928107 38966 net.cpp:86] Creating Layer yolo/conv2
I1011 15:06:38.928115 38966 net.cpp:408] yolo/conv2 <- yolo/conv2/dw
I1011 15:06:38.928129 38966 net.cpp:382] yolo/conv2 -> yolo/conv2
I1011 15:06:38.933270 38966 net.cpp:124] Setting up yolo/conv2
I1011 15:06:38.933290 38966 net.cpp:131] Top shape: 20 576 26 26 (7787520)
I1011 15:06:38.933296 38966 net.cpp:139] Memory required for data: 7062858880
I1011 15:06:38.933306 38966 layer_factory.hpp:77] Creating layer yolo/conv2/bn
I1011 15:06:38.933323 38966 net.cpp:86] Creating Layer yolo/conv2/bn
I1011 15:06:38.933333 38966 net.cpp:408] yolo/conv2/bn <- yolo/conv2
I1011 15:06:38.933343 38966 net.cpp:369] yolo/conv2/bn -> yolo/conv2 (in-place)
I1011 15:06:38.933557 38966 net.cpp:124] Setting up yolo/conv2/bn
I1011 15:06:38.933569 38966 net.cpp:131] Top shape: 20 576 26 26 (7787520)
I1011 15:06:38.933575 38966 net.cpp:139] Memory required for data: 7094008960
I1011 15:06:38.933588 38966 layer_factory.hpp:77] Creating layer yolo/conv2/scale
I1011 15:06:38.933610 38966 net.cpp:86] Creating Layer yolo/conv2/scale
I1011 15:06:38.933619 38966 net.cpp:408] yolo/conv2/scale <- yolo/conv2
I1011 15:06:38.933645 38966 net.cpp:369] yolo/conv2/scale -> yolo/conv2 (in-place)
I1011 15:06:38.933703 38966 layer_factory.hpp:77] Creating layer yolo/conv2/scale
I1011 15:06:38.933845 38966 net.cpp:124] Setting up yolo/conv2/scale
I1011 15:06:38.933856 38966 net.cpp:131] Top shape: 20 576 26 26 (7787520)
I1011 15:06:38.933863 38966 net.cpp:139] Memory required for data: 7125159040
I1011 15:06:38.933876 38966 layer_factory.hpp:77] Creating layer yolo/conv2/relu
I1011 15:06:38.933888 38966 net.cpp:86] Creating Layer yolo/conv2/relu
I1011 15:06:38.933897 38966 net.cpp:408] yolo/conv2/relu <- yolo/conv2
I1011 15:06:38.933908 38966 net.cpp:369] yolo/conv2/relu -> yolo/conv2 (in-place)
I1011 15:06:38.933919 38966 net.cpp:124] Setting up yolo/conv2/relu
I1011 15:06:38.933929 38966 net.cpp:131] Top shape: 20 576 26 26 (7787520)
I1011 15:06:38.933936 38966 net.cpp:139] Memory required for data: 7156309120
…
I1011 15:06:38.998246 38966 net.cpp:369] bn_scale37 -> conv37 (in-place)
I1011 15:06:38.998279 38966 layer_factory.hpp:77] Creating layer bn_scale37
I1011 15:06:38.998391 38966 net.cpp:124] Setting up bn_scale37
I1011 15:06:38.998399 38966 net.cpp:131] Top shape: 1 461 22 22 (223124)
I1011 15:06:38.998404 38966 net.cpp:139] Memory required for data: 217838752
I1011 15:06:38.998409 38966 layer_factory.hpp:77] Creating layer relu25
I1011 15:06:38.998415 38966 net.cpp:86] Creating Layer relu25
I1011 15:06:38.998419 38966 net.cpp:408] relu25 <- conv37
I1011 15:06:38.998423 38966 net.cpp:369] relu25 -> conv37 (in-place)
I1011 15:06:38.998428 38966 net.cpp:124] Setting up relu25
I1011 15:06:38.998432 38966 net.cpp:131] Top shape: 1 461 22 22 (223124)
I1011 15:06:38.998435 38966 net.cpp:139] Memory required for data: 218731248
I1011 15:06:38.998438 38966 layer_factory.hpp:77] Creating layer conv38
I1011 15:06:38.998447 38966 net.cpp:86] Creating Layer conv38
I1011 15:06:38.998452 38966 net.cpp:408] conv38 <- conv37
I1011 15:06:38.998461 38966 net.cpp:382] conv38 -> conv38
I1011 15:06:38.998668 38966 net.cpp:124] Setting up conv38
I1011 15:06:38.998677 38966 net.cpp:131] Top shape: 1 461 22 22 (223124)
I1011 15:06:38.998679 38966 net.cpp:139] Memory required for data: 219623744
I1011 15:06:38.998684 38966 layer_factory.hpp:77] Creating layer batch_norm38
I1011 15:06:38.998689 38966 net.cpp:86] Creating Layer batch_norm38
I1011 15:06:38.998693 38966 net.cpp:408] batch_norm38 <- conv38
I1011 15:06:38.998703 38966 net.cpp:369] batch_norm38 -> conv38 (in-place)
I1011 15:06:38.998883 38966 net.cpp:124] Setting up batch_norm38
I1011 15:06:38.998890 38966 net.cpp:131] Top shape: 1 461 22 22 (223124)
I1011 15:06:38.998893 38966 net.cpp:139] Memory required for data: 220516240
I1011 15:06:38.998900 38966 layer_factory.hpp:77] Creating layer bn_scale38
I1011 15:06:38.998905 38966 net.cpp:86] Creating Layer bn_scale38
I1011 15:06:38.998909 38966 net.cpp:408] bn_scale38 <- conv38
I1011 15:06:38.998914 38966 net.cpp:369] bn_scale38 -> conv38 (in-place)
I1011 15:06:38.998947 38966 layer_factory.hpp:77] Creating layer bn_scale38
I1011 15:06:38.999049 38966 net.cpp:124] Setting up bn_scale38
I1011 15:06:38.999058 38966 net.cpp:131] Top shape: 1 461 22 22 (223124)
I1011 15:06:38.999060 38966 net.cpp:139] Memory required for data: 221408736
I1011 15:06:38.999065 38966 layer_factory.hpp:77] Creating layer relu26
I1011 15:06:38.999073 38966 net.cpp:86] Creating Layer relu26
I1011 15:06:38.999076 38966 net.cpp:408] relu26 <- conv38
I1011 15:06:38.999080 38966 net.cpp:369] relu26 -> conv38 (in-place)
I1011 15:06:38.999085 38966 net.cpp:124] Setting up relu26
I1011 15:06:38.999090 38966 net.cpp:131] Top shape: 1 461 22 22 (223124)
I1011 15:06:38.999094 38966 net.cpp:139] Memory required for data: 222301232
I1011 15:06:38.999096 38966 layer_factory.hpp:77] Creating layer conv39
I1011 15:06:38.999104 38966 net.cpp:86] Creating Layer conv39
I1011 15:06:38.999109 38966 net.cpp:408] conv39 <- conv38
I1011 15:06:38.999114 38966 net.cpp:382] conv39 -> conv39
I1011 15:06:38.999696 38966 net.cpp:124] Setting up conv39
I1011 15:06:38.999706 38966 net.cpp:131] Top shape: 1 87 22 22 (42108)
I1011 15:06:38.999720 38966 net.cpp:139] Memory required for data: 222469664
I1011 15:06:38.999724 38966 layer_factory.hpp:77] Creating layer batch_norm39
I1011 15:06:38.999732 38966 net.cpp:86] Creating Layer batch_norm39
I1011 15:06:38.999735 38966 net.cpp:408] batch_norm39 <- conv39
I1011 15:06:38.999739 38966 net.cpp:369] batch_norm39 -> conv39 (in-place)
I1011 15:06:38.999903 38966 net.cpp:124] Setting up batch_norm39
I1011 15:06:38.999910 38966 net.cpp:131] Top shape: 1 87 22 22 (42108)
I1011 15:06:38.999913 38966 net.cpp:139] Memory required for data: 222638096
I1011 15:06:38.999930 38966 layer_factory.hpp:77] Creating layer bn_scale39
I1011 15:06:38.999938 38966 net.cpp:86] Creating Layer bn_scale39
I1011 15:06:38.999943 38966 net.cpp:408] bn_scale39 <- conv39
I1011 15:06:38.999946 38966 net.cpp:369] bn_scale39 -> conv39 (in-place)
I1011 15:06:38.999980 38966 layer_factory.hpp:77] Creating layer bn_scale39
I1011 15:06:39.000094 38966 net.cpp:124] Setting up bn_scale39
I1011 15:06:39.000102 38966 net.cpp:131] Top shape: 1 87 22 22 (42108)
I1011 15:06:39.000105 38966 net.cpp:139] Memory required for data: 222806528
I1011 15:06:39.000111 38966 layer_factory.hpp:77] Creating layer add8
I1011 15:06:39.000116 38966 net.cpp:86] Creating Layer add8
I1011 15:06:39.000120 38966 net.cpp:408] add8 <- add7_add7_0_split_1
I1011 15:06:39.000124 38966 net.cpp:408] add8 <- conv39
I1011 15:06:39.000131 38966 net.cpp:382] add8 -> add8
I1011 15:06:39.000159 38966 net.cpp:124] Setting up add8
I1011 15:06:39.000166 38966 net.cpp:131] Top shape: 1 87 22 22 (42108)
I1011 15:06:39.000169 38966 net.cpp:139] Memory required for data: 222974960
I1011 15:06:39.000174 38966 layer_factory.hpp:77] Creating layer conv40
I1011 15:06:39.000182 38966 net.cpp:86] Creating Layer conv40
I1011 15:06:39.000187 38966 net.cpp:408] conv40 <- add8
I1011 15:06:39.000193 38966 net.cpp:382] conv40 -> conv40
I1011 15:06:39.000864 38966 net.cpp:124] Setting up conv40
I1011 15:06:39.000872 38966 net.cpp:131] Top shape: 1 576 22 22 (278784)
I1011 15:06:39.000875 38966 net.cpp:139] Memory required for data: 224090096
I1011 15:06:39.000880 38966 layer_factory.hpp:77] Creating layer batch_norm40
I1011 15:06:39.000887 38966 net.cpp:86] Creating Layer batch_norm40
I1011 15:06:39.000891 38966 net.cpp:408] batch_norm40 <- conv40
I1011 15:06:39.000895 38966 net.cpp:369] batch_norm40 -> conv40 (in-place)
I1011 15:06:39.001067 38966 net.cpp:124] Setting up batch_norm40
I1011 15:06:39.001075 38966 net.cpp:131] Top shape: 1 576 22 22 (278784)
I1011 15:06:39.001078 38966 net.cpp:139] Memory required for data: 225205232
I1011 15:06:39.001085 38966 layer_factory.hpp:77] Creating layer bn_scale40
I1011 15:06:39.001089 38966 net.cpp:86] Creating Layer bn_scale40
I1011 15:06:39.001093 38966 net.cpp:408] bn_scale40 <- conv40
I1011 15:06:39.001099 38966 net.cpp:369] bn_scale40 -> conv40 (in-place)
I1011 15:06:39.001128 38966 layer_factory.hpp:77] Creating layer bn_scale40
I1011 15:06:39.001229 38966 net.cpp:124] Setting up bn_scale40
I1011 15:06:39.001237 38966 net.cpp:131] Top shape: 1 576 22 22 (278784)
I1011 15:06:39.001240 38966 net.cpp:139] Memory required for data: 226320368
I1011 15:06:39.001245 38966 layer_factory.hpp:77] Creating layer relu27
I1011 15:06:39.001250 38966 net.cpp:86] Creating Layer relu27
I1011 15:06:39.001255 38966 net.cpp:408] relu27 <- conv40
I1011 15:06:39.001258 38966 net.cpp:369] relu27 -> conv40 (in-place)
I1011 15:06:39.001263 38966 net.cpp:124] Setting up relu27
I1011 15:06:39.001267 38966 net.cpp:131] Top shape: 1 576 22 22 (278784)
I1011 15:06:39.001271 38966 net.cpp:139] Memory required for data: 227435504
I1011 15:06:39.001273 38966 layer_factory.hpp:77] Creating layer conv40_relu27_0_split
I1011 15:06:39.001281 38966 net.cpp:86] Creating Layer conv40_relu27_0_split
I1011 15:06:39.001284 38966 net.cpp:408] conv40_relu27_0_split <- conv40
I1011 15:06:39.001289 38966 net.cpp:382] conv40_relu27_0_split -> conv40_relu27_0_split_0
I1011 15:06:39.001297 38966 net.cpp:382] conv40_relu27_0_split -> conv40_relu27_0_split_1
I1011 15:06:39.001330 38966 net.cpp:124] Setting up conv40_relu27_0_split
I1011 15:06:39.001338 38966 net.cpp:131] Top shape: 1 576 22 22 (278784)
I1011 15:06:39.001341 38966 net.cpp:131] Top shape: 1 576 22 22 (278784)
I1011 15:06:39.001344 38966 net.cpp:139] Memory required for data: 229665776
I1011 15:06:39.001348 38966 layer_factory.hpp:77] Creating layer conv41
I1011 15:06:39.001353 38966 net.cpp:86] Creating Layer conv41
I1011 15:06:39.001358 38966 net.cpp:408] conv41 <- conv40_relu27_0_split_0
I1011 15:06:39.001364 38966 net.cpp:382] conv41 -> conv41
I1011 15:06:39.001579 38966 net.cpp:124] Setting up conv41
I1011 15:06:39.001597 38966 net.cpp:131] Top shape: 1 576 11 11 (69696)
I1011 15:06:39.001601 38966 net.cpp:139] Memory required for data: 229944560
I1011 15:06:39.001605 38966 layer_factory.hpp:77] Creating layer batch_norm41
I1011 15:06:39.001611 38966 net.cpp:86] Creating Layer batch_norm41
I1011 15:06:39.001615 38966 net.cpp:408] batch_norm41 <- conv41
I1011 15:06:39.001622 38966 net.cpp:369] batch_norm41 -> conv41 (in-place)
I1011 15:06:39.001796 38966 net.cpp:124] Setting up batch_norm41
I1011 15:06:39.001804 38966 net.cpp:131] Top shape: 1 576 11 11 (69696)
I1011 15:06:39.001807 38966 net.cpp:139] Memory required for data: 230223344
I1011 15:06:39.001813 38966 layer_factory.hpp:77] Creating layer bn_scale41
I1011 15:06:39.001818 38966 net.cpp:86] Creating Layer bn_scale41
I1011 15:06:39.001822 38966 net.cpp:408] bn_scale41 <- conv41
I1011 15:06:39.001827 38966 net.cpp:369] bn_scale41 -> conv41 (in-place)
I1011 15:06:39.001860 38966 layer_factory.hpp:77] Creating layer bn_scale41
I1011 15:06:39.001966 38966 net.cpp:124] Setting up bn_scale41
I1011 15:06:39.001974 38966 net.cpp:131] Top shape: 1 576 11 11 (69696)
I1011 15:06:39.001977 38966 net.cpp:139] Memory required for data: 230502128
I1011 15:06:39.001982 38966 layer_factory.hpp:77] Creating layer relu28
I1011 15:06:39.001989 38966 net.cpp:86] Creating Layer relu28
I1011 15:06:39.001993 38966 net.cpp:408] relu28 <- conv41
I1011 15:06:39.001997 38966 net.cpp:369] relu28 -> conv41 (in-place)
I1011 15:06:39.002002 38966 net.cpp:124] Setting up relu28
I1011 15:06:39.002007 38966 net.cpp:131] Top shape: 1 576 11 11 (69696)
I1011 15:06:39.002009 38966 net.cpp:139] Memory required for data: 230780912
I1011 15:06:39.002012 38966 layer_factory.hpp:77] Creating layer conv42
I1011 15:06:39.002024 38966 net.cpp:86] Creating Layer conv42
I1011 15:06:39.002028 38966 net.cpp:408] conv42 <- conv41
I1011 15:06:39.002036 38966 net.cpp:382] conv42 -> conv42
I1011 15:06:39.002919 38966 net.cpp:124] Setting up conv42
I1011 15:06:39.002928 38966 net.cpp:131] Top shape: 1 128 11 11 (15488)
I1011 15:06:39.002941 38966 net.cpp:139] Memory required for data: 230842864
I1011 15:06:39.002946 38966 layer_factory.hpp:77] Creating layer batch_norm42
I1011 15:06:39.002954 38966 net.cpp:86] Creating Layer batch_norm42
I1011 15:06:39.002957 38966 net.cpp:408] batch_norm42 <- conv42
I1011 15:06:39.002961 38966 net.cpp:369] batch_norm42 -> conv42 (in-place)
I1011 15:06:39.003113 38966 net.cpp:124] Setting up batch_norm42
I1011 15:06:39.003120 38966 net.cpp:131] Top shape: 1 128 11 11 (15488)
I1011 15:06:39.003123 38966 net.cpp:139] Memory required for data: 230904816
I1011 15:06:39.003129 38966 layer_factory.hpp:77] Creating layer bn_scale42
I1011 15:06:39.003134 38966 net.cpp:86] Creating Layer bn_scale42
I1011 15:06:39.003137 38966 net.cpp:408] bn_scale42 <- conv42
I1011 15:06:39.003142 38966 net.cpp:369] bn_scale42 -> conv42 (in-place)
I1011 15:06:39.003185 38966 layer_factory.hpp:77] Creating layer bn_scale42
I1011 15:06:39.003296 38966 net.cpp:124] Setting up bn_scale42
I1011 15:06:39.003304 38966 net.cpp:131] Top shape: 1 128 11 11 (15488)
I1011 15:06:39.003309 38966 net.cpp:139] Memory required for data: 230966768
I1011 15:06:39.003314 38966 layer_factory.hpp:77] Creating layer conv42_bn_scale42_0_split
I1011 15:06:39.003319 38966 net.cpp:86] Creating Layer conv42_bn_scale42_0_split
I1011 15:06:39.003322 38966 net.cpp:408] conv42_bn_scale42_0_split <- conv42
I1011 15:06:39.003329 38966 net.cpp:382] conv42_bn_scale42_0_split -> conv42_bn_scale42_0_split_0
I1011 15:06:39.003336 38966 net.cpp:382] conv42_bn_scale42_0_split -> conv42_bn_scale42_0_split_1
I1011 15:06:39.003370 38966 net.cpp:124] Setting up conv42_bn_scale42_0_split
I1011 15:06:39.003376 38966 net.cpp:131] Top shape: 1 128 11 11 (15488)
I1011 15:06:39.003381 38966 net.cpp:131] Top shape: 1 128 11 11 (15488)
I1011 15:06:39.003383 38966 net.cpp:139] Memory required for data: 231090672
I1011 15:06:39.003386 38966 layer_factory.hpp:77] Creating layer conv43
I1011 15:06:39.003397 38966 net.cpp:86] Creating Layer conv43
I1011 15:06:39.003412 38966 net.cpp:408] conv43 <- conv42_bn_scale42_0_split_0
I1011 15:06:39.003418 38966 net.cpp:382] conv43 -> conv43
I1011 15:06:39.005079 38966 net.cpp:124] Setting up conv43
I1011 15:06:39.005092 38966 net.cpp:131] Top shape: 1 768 11 11 (92928)
I1011 15:06:39.005097 38966 net.cpp:139] Memory required for data: 231462384
I1011 15:06:39.005105 38966 layer_factory.hpp:77] Creating layer batch_norm43
I1011 15:06:39.005118 38966 net.cpp:86] Creating Layer batch_norm43
I1011 15:06:39.005138 38966 net.cpp:408] batch_norm43 <- conv43
I1011 15:06:39.005147 38966 net.cpp:369] batch_norm43 -> conv43 (in-place)
I1011 15:06:39.005332 38966 net.cpp:124] Setting up batch_norm43
I1011 15:06:39.005343 38966 net.cpp:131] Top shape: 1 768 11 11 (92928)
I1011 15:06:39.005348 38966 net.cpp:139] Memory required for data: 231834096
I1011 15:06:39.005367 38966 layer_factory.hpp:77] Creating layer bn_scale43
I1011 15:06:39.005375 38966 net.cpp:86] Creating Layer bn_scale43
I1011 15:06:39.005380 38966 net.cpp:408] bn_scale43 <- conv43
I1011 15:06:39.005388 38966 net.cpp:369] bn_scale43 -> conv43 (in-place)
I1011 15:06:39.005439 38966 layer_factory.hpp:77] Creating layer bn_scale43
I1011 15:06:39.005555 38966 net.cpp:124] Setting up bn_scale43
I1011 15:06:39.005568 38966 net.cpp:131] Top shape: 1 768 11 11 (92928)
I1011 15:06:39.005573 38966 net.cpp:139] Memory required for data: 232205808
I1011 15:06:39.005602 38966 layer_factory.hpp:77] Creating layer relu29
I1011 15:06:39.005614 38966 net.cpp:86] Creating Layer relu29
I1011 15:06:39.005620 38966 net.cpp:408] relu29 <- conv43
I1011 15:06:39.005628 38966 net.cpp:369] relu29 -> conv43 (in-place)
I1011 15:06:39.005642 38966 net.cpp:124] Setting up relu29
I1011 15:06:39.005651 38966 net.cpp:131] Top shape: 1 768 11 11 (92928)
I1011 15:06:39.005657 38966 net.cpp:139] Memory required for data: 232577520
I1011 15:06:39.005663 38966 layer_factory.hpp:77] Creating layer conv44
I1011 15:06:39.005673 38966 net.cpp:86] Creating Layer conv44
I1011 15:06:39.005679 38966 net.cpp:408] conv44 <- conv43
I1011 15:06:39.005693 38966 net.cpp:382] conv44 -> conv44
I1011 15:06:39.005939 38966 net.cpp:124] Setting up conv44
I1011 15:06:39.005954 38966 net.cpp:131] Top shape: 1 768 11 11 (92928)
I1011 15:06:39.005959 38966 net.cpp:139] Memory required for data: 232949232
I1011 15:06:39.005969 38966 layer_factory.hpp:77] Creating layer batch_norm44
I1011 15:06:39.005977 38966 net.cpp:86] Creating Layer batch_norm44
I1011 15:06:39.005985 38966 net.cpp:408] batch_norm44 <- conv44
I1011 15:06:39.005998 38966 net.cpp:369] batch_norm44 -> conv44 (in-place)
I1011 15:06:39.006173 38966 net.cpp:124] Setting up batch_norm44
I1011 15:06:39.006184 38966 net.cpp:131] Top shape: 1 768 11 11 (92928)
I1011 15:06:39.006189 38966 net.cpp:139] Memory required for data: 233320944
I1011 15:06:39.006201 38966 layer_factory.hpp:77] Creating layer bn_scale44
I1011 15:06:39.006214 38966 net.cpp:86] Creating Layer bn_scale44
I1011 15:06:39.006223 38966 net.cpp:408] bn_scale44 <- conv44
I1011 15:06:39.006232 38966 net.cpp:369] bn_scale44 -> conv44 (in-place)
I1011 15:06:39.006278 38966 layer_factory.hpp:77] Creating layer bn_scale44
I1011 15:06:39.006388 38966 net.cpp:124] Setting up bn_scale44
I1011 15:06:39.006400 38966 net.cpp:131] Top shape: 1 768 11 11 (92928)
I1011 15:06:39.006405 38966 net.cpp:139] Memory required for data: 233692656
I1011 15:06:39.006415 38966 layer_factory.hpp:77] Creating layer relu30
I1011 15:06:39.006424 38966 net.cpp:86] Creating Layer relu30
I1011 15:06:39.006430 38966 net.cpp:408] relu30 <- conv44
I1011 15:06:39.006443 38966 net.cpp:369] relu30 -> conv44 (in-place)
I1011 15:06:39.006453 38966 net.cpp:124] Setting up relu30
I1011 15:06:39.006462 38966 net.cpp:131] Top shape: 1 768 11 11 (92928)
I1011 15:06:39.006469 38966 net.cpp:139] Memory required for data: 234064368
I1011 15:06:39.006474 38966 layer_factory.hpp:77] Creating layer conv45
I1011 15:06:39.006489 38966 net.cpp:86] Creating Layer conv45
I1011 15:06:39.006496 38966 net.cpp:408] conv45 <- conv44
I1011 15:06:39.006507 38966 net.cpp:382] conv45 -> conv45
I1011 15:06:39.008730 38966 net.cpp:124] Setting up conv45
I1011 15:06:39.008746 38966 net.cpp:131] Top shape: 1 128 11 11 (15488)
I1011 15:06:39.008751 38966 net.cpp:139] Memory required for data: 234126320
I1011 15:06:39.008771 38966 layer_factory.hpp:77] Creating layer batch_norm45
I1011 15:06:39.008785 38966 net.cpp:86] Creating Layer batch_norm45
I1011 15:06:39.008792 38966 net.cpp:408] batch_norm45 <- conv45
I1011 15:06:39.008801 38966 net.cpp:369] batch_norm45 -> conv45 (in-place)
I1011 15:06:39.008980 38966 net.cpp:124] Setting up batch_norm45
I1011 15:06:39.008991 38966 net.cpp:131] Top shape: 1 128 11 11 (15488)
I1011 15:06:39.008996 38966 net.cpp:139] Memory required for data: 234188272
I1011 15:06:39.009008 38966 layer_factory.hpp:77] Creating layer bn_scale45
I1011 15:06:39.009018 38966 net.cpp:86] Creating Layer bn_scale45
I1011 15:06:39.009027 38966 net.cpp:408] bn_scale45 <- conv45
I1011 15:06:39.009035 38966 net.cpp:369] bn_scale45 -> conv45 (in-place)
I1011 15:06:39.009097 38966 layer_factory.hpp:77] Creating layer bn_scale45
I1011 15:06:39.009208 38966 net.cpp:124] Setting up bn_scale45
I1011 15:06:39.009219 38966 net.cpp:131] Top shape: 1 128 11 11 (15488)
I1011 15:06:39.009224 38966 net.cpp:139] Memory required for data: 234250224
I1011 15:06:39.009235 38966 layer_factory.hpp:77] Creating layer add9
I1011 15:06:39.009248 38966 net.cpp:86] Creating Layer add9
I1011 15:06:39.009256 38966 net.cpp:408] add9 <- conv42_bn_scale42_0_split_1
I1011 15:06:39.009264 38966 net.cpp:408] add9 <- conv45
I1011 15:06:39.009277 38966 net.cpp:382] add9 -> add9
I1011 15:06:39.009308 38966 net.cpp:124] Setting up add9
I1011 15:06:39.009317 38966 net.cpp:131] Top shape: 1 128 11 11 (15488)
I1011 15:06:39.009323 38966 net.cpp:139] Memory required for data: 234312176
I1011 15:06:39.009328 38966 layer_factory.hpp:77] Creating layer add9_add9_0_split
I1011 15:06:39.009342 38966 net.cpp:86] Creating Layer add9_add9_0_split
I1011 15:06:39.009351 38966 net.cpp:408] add9_add9_0_split <- add9
I1011 15:06:39.009361 38966 net.cpp:382] add9_add9_0_split -> add9_add9_0_split_0
I1011 15:06:39.009377 38966 net.cpp:382] add9_add9_0_split -> add9_add9_0_split_1
I1011 15:06:39.009420 38966 net.cpp:124] Setting up add9_add9_0_split
I1011 15:06:39.009430 38966 net.cpp:131] Top shape: 1 128 11 11 (15488)
I1011 15:06:39.009438 38966 net.cpp:131] Top shape: 1 128 11 11 (15488)
I1011 15:06:39.009443 38966 net.cpp:139] Memory required for data: 234436080
I1011 15:06:39.009449 38966 layer_factory.hpp:77] Creating layer conv46
I1011 15:06:39.009461 38966 net.cpp:86] Creating Layer conv46
I1011 15:06:39.009469 38966 net.cpp:408] conv46 <- add9_add9_0_split_0
I1011 15:06:39.009483 38966 net.cpp:382] conv46 -> conv46
I1011 15:06:39.010648 38966 net.cpp:124] Setting up conv46
I1011 15:06:39.010660 38966 net.cpp:131] Top shape: 1 768 11 11 (92928)
I1011 15:06:39.010666 38966 net.cpp:139] Memory required for data: 234807792
I1011 15:06:39.010674 38966 layer_factory.hpp:77] Creating layer batch_norm46
I1011 15:06:39.010686 38966 net.cpp:86] Creating Layer batch_norm46
I1011 15:06:39.010695 38966 net.cpp:408] batch_norm46 <- conv46
I1011 15:06:39.010709 38966 net.cpp:369] batch_norm46 -> conv46 (in-place)
I1011 15:06:39.010885 38966 net.cpp:124] Setting up batch_norm46
I1011 15:06:39.010895 38966 net.cpp:131] Top shape: 1 768 11 11 (92928)
I1011 15:06:39.010900 38966 net.cpp:139] Memory required for data: 235179504
I1011 15:06:39.010912 38966 layer_factory.hpp:77] Creating layer bn_scale46
I1011 15:06:39.010926 38966 net.cpp:86] Creating Layer bn_scale46
I1011 15:06:39.010934 38966 net.cpp:408] bn_scale46 <- conv46
I1011 15:06:39.010943 38966 net.cpp:369] bn_scale46 -> conv46 (in-place)
I1011 15:06:39.010987 38966 layer_factory.hpp:77] Creating layer bn_scale46
I1011 15:06:39.011096 38966 net.cpp:124] Setting up bn_scale46
I1011 15:06:39.011107 38966 net.cpp:131] Top shape: 1 768 11 11 (92928)
I1011 15:06:39.011112 38966 net.cpp:139] Memory required for data: 235551216
I1011 15:06:39.011123 38966 layer_factory.hpp:77] Creating layer relu31
I1011 15:06:39.011144 38966 net.cpp:86] Creating Layer relu31
I1011 15:06:39.011154 38966 net.cpp:408] relu31 <- conv46
I1011 15:06:39.011166 38966 net.cpp:369] relu31 -> conv46 (in-place)
I1011 15:06:39.011178 38966 net.cpp:124] Setting up relu31
I1011 15:06:39.011188 38966 net.cpp:131] Top shape: 1 768 11 11 (92928)
I1011 15:06:39.011194 38966 net.cpp:139] Memory required for data: 235922928
I1011 15:06:39.011200 38966 layer_factory.hpp:77] Creating layer conv47
I1011 15:06:39.011214 38966 net.cpp:86] Creating Layer conv47
I1011 15:06:39.011221 38966 net.cpp:408] conv47 <- conv46
I1011 15:06:39.011231 38966 net.cpp:382] conv47 -> conv47
I1011 15:06:39.011489 38966 net.cpp:124] Setting up conv47
I1011 15:06:39.011502 38966 net.cpp:131] Top shape: 1 768 11 11 (92928)
I1011 15:06:39.011507 38966 net.cpp:139] Memory required for data: 236294640
I1011 15:06:39.011515 38966 layer_factory.hpp:77] Creating layer batch_norm47
I1011 15:06:39.011525 38966 net.cpp:86] Creating Layer batch_norm47
I1011 15:06:39.011533 38966 net.cpp:408] batch_norm47 <- conv47
I1011 15:06:39.011543 38966 net.cpp:369] batch_norm47 -> conv47 (in-place)
I1011 15:06:39.011739 38966 net.cpp:124] Setting up batch_norm47
I1011 15:06:39.011749 38966 net.cpp:131] Top shape: 1 768 11 11 (92928)
I1011 15:06:39.011754 38966 net.cpp:139] Memory required for data: 236666352
I1011 15:06:39.011766 38966 layer_factory.hpp:77] Creating layer bn_scale47
I1011 15:06:39.011776 38966 net.cpp:86] Creating Layer bn_scale47
I1011 15:06:39.011783 38966 net.cpp:408] bn_scale47 <- conv47
I1011 15:06:39.011798 38966 net.cpp:369] bn_scale47 -> conv47 (in-place)
I1011 15:06:39.011842 38966 layer_factory.hpp:77] Creating layer bn_scale47
I1011 15:06:39.011951 38966 net.cpp:124] Setting up bn_scale47
I1011 15:06:39.011962 38966 net.cpp:131] Top shape: 1 768 11 11 (92928)
I1011 15:06:39.011967 38966 net.cpp:139] Memory required for data: 237038064
I1011 15:06:39.011977 38966 layer_factory.hpp:77] Creating layer relu32
I1011 15:06:39.011991 38966 net.cpp:86] Creating Layer relu32
I1011 15:06:39.011999 38966 net.cpp:408] relu32 <- conv47
I1011 15:06:39.012008 38966 net.cpp:369] relu32 -> conv47 (in-place)
I1011 15:06:39.012022 38966 net.cpp:124] Setting up relu32
I1011 15:06:39.012032 38966 net.cpp:131] Top shape: 1 768 11 11 (92928)
I1011 15:06:39.012038 38966 net.cpp:139] Memory required for data: 237409776
I1011 15:06:39.012044 38966 layer_factory.hpp:77] Creating layer conv48
I1011 15:06:39.012059 38966 net.cpp:86] Creating Layer conv48
I1011 15:06:39.012066 38966 net.cpp:408] conv48 <- conv47
I1011 15:06:39.012079 38966 net.cpp:382] conv48 -> conv48
I1011 15:06:39.013244 38966 net.cpp:124] Setting up conv48
I1011 15:06:39.013257 38966 net.cpp:131] Top shape: 1 128 11 11 (15488)
I1011 15:06:39.013262 38966 net.cpp:139] Memory required for data: 237471728
I1011 15:06:39.013269 38966 layer_factory.hpp:77] Creating layer batch_norm48
I1011 15:06:39.013283 38966 net.cpp:86] Creating Layer batch_norm48
I1011 15:06:39.013290 38966 net.cpp:408] batch_norm48 <- conv48
I1011 15:06:39.013298 38966 net.cpp:369] batch_norm48 -> conv48 (in-place)
I1011 15:06:39.013495 38966 net.cpp:124] Setting up batch_norm48
I1011 15:06:39.013510 38966 net.cpp:131] Top shape: 1 128 11 11 (15488)
I1011 15:06:39.013515 38966 net.cpp:139] Memory required for data: 237533680
I1011 15:06:39.013527 38966 layer_factory.hpp:77] Creating layer bn_scale48
I1011 15:06:39.013537 38966 net.cpp:86] Creating Layer bn_scale48
I1011 15:06:39.013545 38966 net.cpp:408] bn_scale48 <- conv48
I1011 15:06:39.013552 38966 net.cpp:369] bn_scale48 -> conv48 (in-place)
I1011 15:06:39.013597 38966 layer_factory.hpp:77] Creating layer bn_scale48
I1011 15:06:39.013706 38966 net.cpp:124] Setting up bn_scale48
I1011 15:06:39.013717 38966 net.cpp:131] Top shape: 1 128 11 11 (15488)
I1011 15:06:39.013722 38966 net.cpp:139] Memory required for data: 237595632
I1011 15:06:39.013732 38966 layer_factory.hpp:77] Creating layer add10
I1011 15:06:39.013741 38966 net.cpp:86] Creating Layer add10
I1011 15:06:39.013748 38966 net.cpp:408] add10 <- add9_add9_0_split_1
I1011 15:06:39.013772 38966 net.cpp:408] add10 <- conv48
I1011 15:06:39.013789 38966 net.cpp:382] add10 -> add10
I1011 15:06:39.013830 38966 net.cpp:124] Setting up add10
I1011 15:06:39.013840 38966 net.cpp:131] Top shape: 1 128 11 11 (15488)
I1011 15:06:39.013845 38966 net.cpp:139] Memory required for data: 237657584
I1011 15:06:39.013851 38966 layer_factory.hpp:77] Creating layer conv49
I1011 15:06:39.013869 38966 net.cpp:86] Creating Layer conv49
I1011 15:06:39.013878 38966 net.cpp:408] conv49 <- add10
I1011 15:06:39.013890 38966 net.cpp:382] conv49 -> conv49
I1011 15:06:39.015573 38966 net.cpp:124] Setting up conv49
I1011 15:06:39.015585 38966 net.cpp:131] Top shape: 1 768 11 11 (92928)
I1011 15:06:39.015591 38966 net.cpp:139] Memory required for data: 238029296
I1011 15:06:39.015600 38966 layer_factory.hpp:77] Creating layer batch_norm49
I1011 15:06:39.015610 38966 net.cpp:86] Creating Layer batch_norm49
I1011 15:06:39.015617 38966 net.cpp:408] batch_norm49 <- conv49
I1011 15:06:39.015626 38966 net.cpp:369] batch_norm49 -> conv49 (in-place)
I1011 15:06:39.015807 38966 net.cpp:124] Setting up batch_norm49
I1011 15:06:39.015818 38966 net.cpp:131] Top shape: 1 768 11 11 (92928)
I1011 15:06:39.015823 38966 net.cpp:139] Memory required for data: 238401008
I1011 15:06:39.015836 38966 layer_factory.hpp:77] Creating layer bn_scale49
I1011 15:06:39.015846 38966 net.cpp:86] Creating Layer bn_scale49
I1011 15:06:39.015853 38966 net.cpp:408] bn_scale49 <- conv49
I1011 15:06:39.015866 38966 net.cpp:369] bn_scale49 -> conv49 (in-place)
I1011 15:06:39.015908 38966 layer_factory.hpp:77] Creating layer bn_scale49
I1011 15:06:39.016018 38966 net.cpp:124] Setting up bn_scale49
I1011 15:06:39.016028 38966 net.cpp:131] Top shape: 1 768 11 11 (92928)
I1011 15:06:39.016034 38966 net.cpp:139] Memory required for data: 238772720
I1011 15:06:39.016044 38966 layer_factory.hpp:77] Creating layer relu33
I1011 15:06:39.016058 38966 net.cpp:86] Creating Layer relu33
I1011 15:06:39.016067 38966 net.cpp:408] relu33 <- conv49
I1011 15:06:39.016074 38966 net.cpp:369] relu33 -> conv49 (in-place)
I1011 15:06:39.016083 38966 net.cpp:124] Setting up relu33
I1011 15:06:39.016093 38966 net.cpp:131] Top shape: 1 768 11 11 (92928)
I1011 15:06:39.016099 38966 net.cpp:139] Memory required for data: 239144432
I1011 15:06:39.016105 38966 layer_factory.hpp:77] Creating layer conv50
I1011 15:06:39.016119 38966 net.cpp:86] Creating Layer conv50
I1011 15:06:39.016126 38966 net.cpp:408] conv50 <- conv49
I1011 15:06:39.016139 38966 net.cpp:382] conv50 -> conv50
I1011 15:06:39.016383 38966 net.cpp:124] Setting up conv50
I1011 15:06:39.016394 38966 net.cpp:131] Top shape: 1 768 11 11 (92928)
I1011 15:06:39.016400 38966 net.cpp:139] Memory required for data: 239516144
I1011 15:06:39.016407 38966 layer_factory.hpp:77] Creating layer batch_norm50
I1011 15:06:39.016422 38966 net.cpp:86] Creating Layer batch_norm50
I1011 15:06:39.016429 38966 net.cpp:408] batch_norm50 <- conv50
I1011 15:06:39.016438 38966 net.cpp:369] batch_norm50 -> conv50 (in-place)
I1011 15:06:39.016610 38966 net.cpp:124] Setting up batch_norm50
I1011 15:06:39.016620 38966 net.cpp:131] Top shape: 1 768 11 11 (92928)
I1011 15:06:39.016625 38966 net.cpp:139] Memory required for data: 239887856
I1011 15:06:39.016638 38966 layer_factory.hpp:77] Creating layer bn_scale50
I1011 15:06:39.016646 38966 net.cpp:86] Creating Layer bn_scale50
I1011 15:06:39.016654 38966 net.cpp:408] bn_scale50 <- conv50
I1011 15:06:39.016662 38966 net.cpp:369] bn_scale50 -> conv50 (in-place)
I1011 15:06:39.016711 38966 layer_factory.hpp:77] Creating layer bn_scale50
I1011 15:06:39.016822 38966 net.cpp:124] Setting up bn_scale50
I1011 15:06:39.016832 38966 net.cpp:131] Top shape: 1 768 11 11 (92928)
I1011 15:06:39.016839 38966 net.cpp:139] Memory required for data: 240259568
I1011 15:06:39.016847 38966 layer_factory.hpp:77] Creating layer relu34
I1011 15:06:39.016862 38966 net.cpp:86] Creating Layer relu34
I1011 15:06:39.016870 38966 net.cpp:408] relu34 <- conv50
I1011 15:06:39.016882 38966 net.cpp:369] relu34 -> conv50 (in-place)
I1011 15:06:39.016904 38966 net.cpp:124] Setting up relu34
I1011 15:06:39.016916 38966 net.cpp:131] Top shape: 1 768 11 11 (92928)
I1011 15:06:39.016922 38966 net.cpp:139] Memory required for data: 240631280
I1011 15:06:39.016928 38966 layer_factory.hpp:77] Creating layer conv51
I1011 15:06:39.016939 38966 net.cpp:86] Creating Layer conv51
I1011 15:06:39.016947 38966 net.cpp:408] conv51 <- conv50
I1011 15:06:39.016960 38966 net.cpp:382] conv51 -> conv51
I1011 15:06:39.020370 38966 net.cpp:124] Setting up conv51
I1011 15:06:39.020386 38966 net.cpp:131] Top shape: 1 224 11 11 (27104)
I1011 15:06:39.020392 38966 net.cpp:139] Memory required for data: 240739696
I1011 15:06:39.020401 38966 layer_factory.hpp:77] Creating layer batch_norm51
I1011 15:06:39.020411 38966 net.cpp:86] Creating Layer batch_norm51
I1011 15:06:39.020418 38966 net.cpp:408] batch_norm51 <- conv51
I1011 15:06:39.020431 38966 net.cpp:369] batch_norm51 -> conv51 (in-place)
I1011 15:06:39.020630 38966 net.cpp:124] Setting up batch_norm51
I1011 15:06:39.020642 38966 net.cpp:131] Top shape: 1 224 11 11 (27104)
I1011 15:06:39.020648 38966 net.cpp:139] Memory required for data: 240848112
I1011 15:06:39.020659 38966 layer_factory.hpp:77] Creating layer bn_scale51
I1011 15:06:39.020669 38966 net.cpp:86] Creating Layer bn_scale51
I1011 15:06:39.020676 38966 net.cpp:408] bn_scale51 <- conv51
I1011 15:06:39.020684 38966 net.cpp:369] bn_scale51 -> conv51 (in-place)
I1011 15:06:39.020732 38966 layer_factory.hpp:77] Creating layer bn_scale51
I1011 15:06:39.020851 38966 net.cpp:124] Setting up bn_scale51
I1011 15:06:39.020862 38966 net.cpp:131] Top shape: 1 224 11 11 (27104)
I1011 15:06:39.020867 38966 net.cpp:139] Memory required for data: 240956528
I1011 15:06:39.020877 38966 layer_factory.hpp:77] Creating layer conv52
I1011 15:06:39.020895 38966 net.cpp:86] Creating Layer conv52
I1011 15:06:39.020901 38966 net.cpp:408] conv52 <- conv51
I1011 15:06:39.020915 38966 net.cpp:382] conv52 -> conv52
I1011 15:06:39.022500 38966 net.cpp:124] Setting up conv52
I1011 15:06:39.022512 38966 net.cpp:131] Top shape: 1 640 11 11 (77440)
I1011 15:06:39.022518 38966 net.cpp:139] Memory required for data: 241266288
I1011 15:06:39.022526 38966 layer_factory.hpp:77] Creating layer batch_norm52
I1011 15:06:39.022536 38966 net.cpp:86] Creating Layer batch_norm52
I1011 15:06:39.022543 38966 net.cpp:408] batch_norm52 <- conv52
I1011 15:06:39.022554 38966 net.cpp:369] batch_norm52 -> conv52 (in-place)
I1011 15:06:39.022725 38966 net.cpp:124] Setting up batch_norm52
I1011 15:06:39.022748 38966 net.cpp:131] Top shape: 1 640 11 11 (77440)
I1011 15:06:39.022753 38966 net.cpp:139] Memory required for data: 241576048
I1011 15:06:39.022765 38966 layer_factory.hpp:77] Creating layer bn_scale52
I1011 15:06:39.022778 38966 net.cpp:86] Creating Layer bn_scale52
I1011 15:06:39.022786 38966 net.cpp:408] bn_scale52 <- conv52
I1011 15:06:39.022795 38966 net.cpp:369] bn_scale52 -> conv52 (in-place)
I1011 15:06:39.022840 38966 layer_factory.hpp:77] Creating layer bn_scale52
I1011 15:06:39.022948 38966 net.cpp:124] Setting up bn_scale52
I1011 15:06:39.022959 38966 net.cpp:131] Top shape: 1 640 11 11 (77440)
I1011 15:06:39.022964 38966 net.cpp:139] Memory required for data: 241885808
I1011 15:06:39.022974 38966 layer_factory.hpp:77] Creating layer relu35
I1011 15:06:39.022982 38966 net.cpp:86] Creating Layer relu35
I1011 15:06:39.022989 38966 net.cpp:408] relu35 <- conv52
I1011 15:06:39.023000 38966 net.cpp:369] relu35 -> conv52 (in-place)
I1011 15:06:39.023011 38966 net.cpp:124] Setting up relu35
I1011 15:06:39.023021 38966 net.cpp:131] Top shape: 1 640 11 11 (77440)
I1011 15:06:39.023027 38966 net.cpp:139] Memory required for data: 242195568
I1011 15:06:39.023033 38966 layer_factory.hpp:77] Creating layer yolo/conv1/dw
I1011 15:06:39.023048 38966 net.cpp:86] Creating Layer yolo/conv1/dw
I1011 15:06:39.023056 38966 net.cpp:408] yolo/conv1/dw <- conv52
I1011 15:06:39.023066 38966 net.cpp:382] yolo/conv1/dw -> yolo/conv1/dw
I1011 15:06:39.023309 38966 net.cpp:124] Setting up yolo/conv1/dw
I1011 15:06:39.023334 38966 net.cpp:131] Top shape: 1 640 11 11 (77440)
I1011 15:06:39.023339 38966 net.cpp:139] Memory required for data: 242505328
I1011 15:06:39.023347 38966 layer_factory.hpp:77] Creating layer yolo/conv1/dw/bn
I1011 15:06:39.023357 38966 net.cpp:86] Creating Layer yolo/conv1/dw/bn
I1011 15:06:39.023365 38966 net.cpp:408] yolo/conv1/dw/bn <- yolo/conv1/dw
I1011 15:06:39.023375 38966 net.cpp:369] yolo/conv1/dw/bn -> yolo/conv1/dw (in-place)
I1011 15:06:39.023561 38966 net.cpp:124] Setting up yolo/conv1/dw/bn
I1011 15:06:39.023571 38966 net.cpp:131] Top shape: 1 640 11 11 (77440)
I1011 15:06:39.023576 38966 net.cpp:139] Memory required for data: 242815088
I1011 15:06:39.023588 38966 layer_factory.hpp:77] Creating layer yolo/conv1/dw/scale
I1011 15:06:39.023602 38966 net.cpp:86] Creating Layer yolo/conv1/dw/scale
I1011 15:06:39.023622 38966 net.cpp:408] yolo/conv1/dw/scale <- yolo/conv1/dw
I1011 15:06:39.023630 38966 net.cpp:369] yolo/conv1/dw/scale -> yolo/conv1/dw (in-place)
I1011 15:06:39.023679 38966 layer_factory.hpp:77] Creating layer yolo/conv1/dw/scale
I1011 15:06:39.023797 38966 net.cpp:124] Setting up yolo/conv1/dw/scale
I1011 15:06:39.023808 38966 net.cpp:131] Top shape: 1 640 11 11 (77440)
I1011 15:06:39.023813 38966 net.cpp:139] Memory required for data: 243124848
I1011 15:06:39.023823 38966 layer_factory.hpp:77] Creating layer yolo/conv1/dw/relu
I1011 15:06:39.023833 38966 net.cpp:86] Creating Layer yolo/conv1/dw/relu
I1011 15:06:39.023840 38966 net.cpp:408] yolo/conv1/dw/relu <- yolo/conv1/dw
I1011 15:06:39.023849 38966 net.cpp:369] yolo/conv1/dw/relu -> yolo/conv1/dw (in-place)
I1011 15:06:39.023859 38966 net.cpp:124] Setting up yolo/conv1/dw/relu
I1011 15:06:39.023869 38966 net.cpp:131] Top shape: 1 640 11 11 (77440)
I1011 15:06:39.023874 38966 net.cpp:139] Memory required for data: 243434608
I1011 15:06:39.023880 38966 layer_factory.hpp:77] Creating layer yolo/conv1
I1011 15:06:39.023895 38966 net.cpp:86] Creating Layer yolo/conv1
I1011 15:06:39.023902 38966 net.cpp:408] yolo/conv1 <- yolo/conv1/dw
I1011 15:06:39.023916 38966 net.cpp:382] yolo/conv1 -> yolo/conv1
I1011 15:06:39.028692 38966 net.cpp:124] Setting up yolo/conv1
I1011 15:06:39.028708 38966 net.cpp:131] Top shape: 1 576 11 11 (69696)
I1011 15:06:39.028714 38966 net.cpp:139] Memory required for data: 243713392
I1011 15:06:39.028723 38966 layer_factory.hpp:77] Creating layer yolo/conv1/bn
I1011 15:06:39.028733 38966 net.cpp:86] Creating Layer yolo/conv1/bn
I1011 15:06:39.028739 38966 net.cpp:408] yolo/conv1/bn <- yolo/conv1
I1011 15:06:39.028751 38966 net.cpp:369] yolo/conv1/bn -> yolo/conv1 (in-place)
I1011 15:06:39.028939 38966 net.cpp:124] Setting up yolo/conv1/bn
I1011 15:06:39.028949 38966 net.cpp:131] Top shape: 1 576 11 11 (69696)
I1011 15:06:39.028954 38966 net.cpp:139] Memory required for data: 243992176
I1011 15:06:39.028965 38966 layer_factory.hpp:77] Creating layer yolo/conv1/scale
I1011 15:06:39.028977 38966 net.cpp:86] Creating Layer yolo/conv1/scale
I1011 15:06:39.028985 38966 net.cpp:408] yolo/conv1/scale <- yolo/conv1
I1011 15:06:39.028997 38966 net.cpp:369] yolo/conv1/scale -> yolo/conv1 (in-place)
I1011 15:06:39.029042 38966 layer_factory.hpp:77] Creating layer yolo/conv1/scale
I1011 15:06:39.029161 38966 net.cpp:124] Setting up yolo/conv1/scale
I1011 15:06:39.029172 38966 net.cpp:131] Top shape: 1 576 11 11 (69696)
I1011 15:06:39.029177 38966 net.cpp:139] Memory required for data: 244270960
I1011 15:06:39.029187 38966 layer_factory.hpp:77] Creating layer yolo/conv1/relu
I1011 15:06:39.029196 38966 net.cpp:86] Creating Layer yolo/conv1/relu
I1011 15:06:39.029206 38966 net.cpp:408] yolo/conv1/relu <- yolo/conv1
I1011 15:06:39.029213 38966 net.cpp:369] yolo/conv1/relu -> yolo/conv1 (in-place)
I1011 15:06:39.029227 38966 net.cpp:124] Setting up yolo/conv1/relu
I1011 15:06:39.029235 38966 net.cpp:131] Top shape: 1 576 11 11 (69696)
I1011 15:06:39.029240 38966 net.cpp:139] Memory required for data: 244549744
I1011 15:06:39.029245 38966 layer_factory.hpp:77] Creating layer yolo/conv1_yolo/conv1/relu_0_split
I1011 15:06:39.029289 38966 net.cpp:86] Creating Layer yolo/conv1_yolo/conv1/relu_0_split
I1011 15:06:39.029295 38966 net.cpp:408] yolo/conv1_yolo/conv1/relu_0_split <- yolo/conv1
I1011 15:06:39.029304 38966 net.cpp:382] yolo/conv1_yolo/conv1/relu_0_split -> yolo/conv1_yolo/conv1/relu_0_split_0
I1011 15:06:39.029322 38966 net.cpp:382] yolo/conv1_yolo/conv1/relu_0_split -> yolo/conv1_yolo/conv1/relu_0_split_1
I1011 15:06:39.029371 38966 net.cpp:124] Setting up yolo/conv1_yolo/conv1/relu_0_split
I1011 15:06:39.029381 38966 net.cpp:131] Top shape: 1 576 11 11 (69696)
I1011 15:06:39.029388 38966 net.cpp:131] Top shape: 1 576 11 11 (69696)
I1011 15:06:39.029394 38966 net.cpp:139] Memory required for data: 245107312
I1011 15:06:39.029400 38966 layer_factory.hpp:77] Creating layer upsample
I1011 15:06:39.029413 38966 net.cpp:86] Creating Layer upsample
I1011 15:06:39.029422 38966 net.cpp:408] upsample <- yolo/conv1_yolo/conv1/relu_0_split_0
I1011 15:06:39.029436 38966 net.cpp:382] upsample -> upsample
I1011 15:06:39.029619 38966 net.cpp:124] Setting up upsample
I1011 15:06:39.029630 38966 net.cpp:131] Top shape: 1 576 21 21 (254016)
I1011 15:06:39.029635 38966 net.cpp:139] Memory required for data: 246123376
I1011 15:06:39.029644 38966 layer_factory.hpp:77] Creating layer maxpool
I1011 15:06:39.029656 38966 net.cpp:86] Creating Layer maxpool
I1011 15:06:39.029664 38966 net.cpp:408] maxpool <- upsample
I1011 15:06:39.029681 38966 net.cpp:382] maxpool -> maxpool
I1011 15:06:39.029726 38966 net.cpp:124] Setting up maxpool
I1011 15:06:39.029736 38966 net.cpp:131] Top shape: 1 576 22 22 (278784)
I1011 15:06:39.029742 38966 net.cpp:139] Memory required for data: 247238512
I1011 15:06:39.029747 38966 layer_factory.hpp:77] Creating layer yolo/conv2/dw
I1011 15:06:39.029762 38966 net.cpp:86] Creating Layer yolo/conv2/dw
I1011 15:06:39.029769 38966 net.cpp:408] yolo/conv2/dw <- conv40_relu27_0_split_1
I1011 15:06:39.029779 38966 net.cpp:382] yolo/conv2/dw -> yolo/conv2/dw
I1011 15:06:39.030014 38966 net.cpp:124] Setting up yolo/conv2/dw
I1011 15:06:39.030025 38966 net.cpp:131] Top shape: 1 576 22 22 (278784)
I1011 15:06:39.030031 38966 net.cpp:139] Memory required for data: 248353648
I1011 15:06:39.030040 38966 layer_factory.hpp:77] Creating layer yolo/conv2/dw/bn
I1011 15:06:39.030050 38966 net.cpp:86] Creating Layer yolo/conv2/dw/bn
I1011 15:06:39.030057 38966 net.cpp:408] yolo/conv2/dw/bn <- yolo/conv2/dw
I1011 15:06:39.030071 38966 net.cpp:369] yolo/conv2/dw/bn -> yolo/conv2/dw (in-place)
I1011 15:06:39.030268 38966 net.cpp:124] Setting up yolo/conv2/dw/bn
I1011 15:06:39.030278 38966 net.cpp:131] Top shape: 1 576 22 22 (278784)
I1011 15:06:39.030284 38966 net.cpp:139] Memory required for data: 249468784
I1011 15:06:39.030295 38966 layer_factory.hpp:77] Creating layer yolo/conv2/dw/scale
I1011 15:06:39.030306 38966 net.cpp:86] Creating Layer yolo/conv2/dw/scale
I1011 15:06:39.030326 38966 net.cpp:408] yolo/conv2/dw/scale <- yolo/conv2/dw
I1011 15:06:39.030335 38966 net.cpp:369] yolo/conv2/dw/scale -> yolo/conv2/dw (in-place)
I1011 15:06:39.030382 38966 layer_factory.hpp:77] Creating layer yolo/conv2/dw/scale
I1011 15:06:39.030499 38966 net.cpp:124] Setting up yolo/conv2/dw/scale
I1011 15:06:39.030512 38966 net.cpp:131] Top shape: 1 576 22 22 (278784)
I1011 15:06:39.030519 38966 net.cpp:139] Memory required for data: 250583920
I1011 15:06:39.030529 38966 layer_factory.hpp:77] Creating layer yolo/conv2/dw/relu
I1011 15:06:39.030537 38966 net.cpp:86] Creating Layer yolo/conv2/dw/relu
I1011 15:06:39.030545 38966 net.cpp:408] yolo/conv2/dw/relu <- yolo/conv2/dw
I1011 15:06:39.030553 38966 net.cpp:369] yolo/conv2/dw/relu -> yolo/conv2/dw (in-place)
I1011 15:06:39.030563 38966 net.cpp:124] Setting up yolo/conv2/dw/relu
I1011 15:06:39.030572 38966 net.cpp:131] Top shape: 1 576 22 22 (278784)
I1011 15:06:39.030578 38966 net.cpp:139] Memory required for data: 251699056
I1011 15:06:39.030583 38966 layer_factory.hpp:77] Creating layer yolo/conv2
I1011 15:06:39.030598 38966 net.cpp:86] Creating Layer yolo/conv2
I1011 15:06:39.030606 38966 net.cpp:408] yolo/conv2 <- yolo/conv2/dw
I1011 15:06:39.030630 38966 net.cpp:382] yolo/conv2 -> yolo/conv2
I1011 15:06:39.035079 38966 net.cpp:124] Setting up yolo/conv2
I1011 15:06:39.035095 38966 net.cpp:131] Top shape: 1 576 22 22 (278784)
I1011 15:06:39.035101 38966 net.cpp:139] Memory required for data: 252814192
I1011 15:06:39.035109 38966 layer_factory.hpp:77] Creating layer yolo/conv2/bn
I1011 15:06:39.035120 38966 net.cpp:86] Creating Layer yolo/conv2/bn
I1011 15:06:39.035130 38966 net.cpp:408] yolo/conv2/bn <- yolo/conv2
I1011 15:06:39.035142 38966 net.cpp:369] yolo/conv2/bn -> yolo/conv2 (in-place)
I1011 15:06:39.035358 38966 net.cpp:124] Setting up yolo/conv2/bn
I1011 15:06:39.035372 38966 net.cpp:131] Top shape: 1 576 22 22 (278784)
I1011 15:06:39.035377 38966 net.cpp:139] Memory required for data: 253929328
I1011 15:06:39.035388 38966 layer_factory.hpp:77] Creating layer yolo/conv2/scale
I1011 15:06:39.035401 38966 net.cpp:86] Creating Layer yolo/conv2/scale
I1011 15:06:39.035409 38966 net.cpp:408] yolo/conv2/scale <- yolo/conv2
I1011 15:06:39.035419 38966 net.cpp:369] yolo/conv2/scale -> yolo/conv2 (in-place)
I1011 15:06:39.035470 38966 layer_factory.hpp:77] Creating layer yolo/conv2/scale
I1011 15:06:39.035589 38966 net.cpp:124] Setting up yolo/conv2/scale
I1011 15:06:39.035603 38966 net.cpp:131] Top shape: 1 576 22 22 (278784)
I1011 15:06:39.035609 38966 net.cpp:139] Memory required for data: 255044464
I1011 15:06:39.035619 38966 layer_factory.hpp:77] Creating layer yolo/conv2/relu
I1011 15:06:39.035630 38966 net.cpp:86] Creating Layer yolo/conv2/relu
I1011 15:06:39.035640 38966 net.cpp:408] yolo/conv2/relu <- yolo/conv2
I1011 15:06:39.035648 38966 net.cpp:369] yolo/conv2/relu -> yolo/conv2 (in-place)
I1011 15:06:39.035660 38966 net.cpp:124] Setting up yolo/conv2/relu
I1011 15:06:39.035670 38966 net.cpp:131] Top shape: 1 576 22 22 (278784)
I1011 15:06:39.035676 38966 net.cpp:139] Memory required for data: 256159600
I1011 15:06:39.035681 38966 layer_factory.hpp:77] Creating layer yolo/conv2/sum
I1011 15:06:39.035693 38966 net.cpp:86] Creating Layer yolo/conv2/sum
I1011 15:06:39.035701 38966 net.cpp:408] yolo/conv2/sum <- maxpool
I1011 15:06:39.035708 38966 net.cpp:408] yolo/conv2/sum <- yolo/conv2
I1011 15:06:39.035717 38966 net.cpp:382] yolo/conv2/sum -> yolo/conv2/sum
I1011 15:06:39.035753 38966 net.cpp:124] Setting up yolo/conv2/sum
I1011 15:06:39.035763 38966 net.cpp:131] Top shape: 1 576 22 22 (278784)
I1011 15:06:39.035768 38966 net.cpp:139] Memory required for data: 257274736
I1011 15:06:39.035774 38966 layer_factory.hpp:77] Creating layer yolo/conv3/dw
I1011 15:06:39.035789 38966 net.cpp:86] Creating Layer yolo/conv3/dw
I1011 15:06:39.035796 38966 net.cpp:408] yolo/conv3/dw <- yolo/conv2/sum
I1011 15:06:39.035806 38966 net.cpp:382] yolo/conv3/dw -> yolo/conv3/dw
I1011 15:06:39.036042 38966 net.cpp:124] Setting up yolo/conv3/dw
I1011 15:06:39.036053 38966 net.cpp:131] Top shape: 1 576 22 22 (278784)
I1011 15:06:39.036058 38966 net.cpp:139] Memory required for data: 258389872
I1011 15:06:39.036067 38966 layer_factory.hpp:77] Creating layer yolo/conv3/dw/bn
I1011 15:06:39.036082 38966 net.cpp:86] Creating Layer yolo/conv3/dw/bn
I1011 15:06:39.036090 38966 net.cpp:408] yolo/conv3/dw/bn <- yolo/conv3/dw
I1011 15:06:39.036099 38966 net.cpp:369] yolo/conv3/dw/bn -> yolo/conv3/dw (in-place)
I1011 15:06:39.036293 38966 net.cpp:124] Setting up yolo/conv3/dw/bn
I1011 15:06:39.036316 38966 net.cpp:131] Top shape: 1 576 22 22 (278784)
I1011 15:06:39.036321 38966 net.cpp:139] Memory required for data: 259505008
I1011 15:06:39.036334 38966 layer_factory.hpp:77] Creating layer yolo/conv3/dw/scale
I1011 15:06:39.036347 38966 net.cpp:86] Creating Layer yolo/conv3/dw/scale
I1011 15:06:39.036355 38966 net.cpp:408] yolo/conv3/dw/scale <- yolo/conv3/dw
I1011 15:06:39.036365 38966 net.cpp:369] yolo/conv3/dw/scale -> yolo/conv3/dw (in-place)
I1011 15:06:39.036412 38966 layer_factory.hpp:77] Creating layer yolo/conv3/dw/scale
I1011 15:06:39.036530 38966 net.cpp:124] Setting up yolo/conv3/dw/scale
I1011 15:06:39.036541 38966 net.cpp:131] Top shape: 1 576 22 22 (278784)
I1011 15:06:39.036561 38966 net.cpp:139] Memory required for data: 260620144
I1011 15:06:39.036574 38966 layer_factory.hpp:77] Creating layer yolo/conv3/dw/relu
I1011 15:06:39.036588 38966 net.cpp:86] Creating Layer yolo/conv3/dw/relu
I1011 15:06:39.036597 38966 net.cpp:408] yolo/conv3/dw/relu <- yolo/conv3/dw
I1011 15:06:39.036605 38966 net.cpp:369] yolo/conv3/dw/relu -> yolo/conv3/dw (in-place)
I1011 15:06:39.036618 38966 net.cpp:124] Setting up yolo/conv3/dw/relu
I1011 15:06:39.036628 38966 net.cpp:131] Top shape: 1 576 22 22 (278784)
I1011 15:06:39.036633 38966 net.cpp:139] Memory required for data: 261735280
I1011 15:06:39.036639 38966 layer_factory.hpp:77] Creating layer yolo/conv3
I1011 15:06:39.036654 38966 net.cpp:86] Creating Layer yolo/conv3
I1011 15:06:39.036661 38966 net.cpp:408] yolo/conv3 <- yolo/conv3/dw
I1011 15:06:39.036674 38966 net.cpp:382] yolo/conv3 -> yolo/conv3
I1011 15:06:39.041085 38966 net.cpp:124] Setting up yolo/conv3
I1011 15:06:39.041101 38966 net.cpp:131] Top shape: 1 576 22 22 (278784)
I1011 15:06:39.041107 38966 net.cpp:139] Memory required for data: 262850416
I1011 15:06:39.041115 38966 layer_factory.hpp:77] Creating layer yolo/conv3/bn
I1011 15:06:39.041129 38966 net.cpp:86] Creating Layer yolo/conv3/bn
I1011 15:06:39.041137 38966 net.cpp:408] yolo/conv3/bn <- yolo/conv3
I1011 15:06:39.041146 38966 net.cpp:369] yolo/conv3/bn -> yolo/conv3 (in-place)
I1011 15:06:39.041347 38966 net.cpp:124] Setting up yolo/conv3/bn
I1011 15:06:39.041358 38966 net.cpp:131] Top shape: 1 576 22 22 (278784)
I1011 15:06:39.041363 38966 net.cpp:139] Memory required for data: 263965552
I1011 15:06:39.041375 38966 layer_factory.hpp:77] Creating layer yolo/conv3/scale
I1011 15:06:39.041391 38966 net.cpp:86] Creating Layer yolo/conv3/scale
I1011 15:06:39.041400 38966 net.cpp:408] yolo/conv3/scale <- yolo/conv3
I1011 15:06:39.041409 38966 net.cpp:369] yolo/conv3/scale -> yolo/conv3 (in-place)
I1011 15:06:39.041456 38966 layer_factory.hpp:77] Creating layer yolo/conv3/scale
I1011 15:06:39.041575 38966 net.cpp:124] Setting up yolo/conv3/scale
I1011 15:06:39.041586 38966 net.cpp:131] Top shape: 1 576 22 22 (278784)
I1011 15:06:39.041592 38966 net.cpp:139] Memory required for data: 265080688
I1011 15:06:39.041601 38966 layer_factory.hpp:77] Creating layer yolo/conv3/relu
I1011 15:06:39.041615 38966 net.cpp:86] Creating Layer yolo/conv3/relu
I1011 15:06:39.041623 38966 net.cpp:408] yolo/conv3/relu <- yolo/conv3
I1011 15:06:39.041632 38966 net.cpp:369] yolo/conv3/relu -> yolo/conv3 (in-place)
I1011 15:06:39.041641 38966 net.cpp:124] Setting up yolo/conv3/relu
I1011 15:06:39.041651 38966 net.cpp:131] Top shape: 1 576 22 22 (278784)
I1011 15:06:39.041657 38966 net.cpp:139] Memory required for data: 266195824
I1011 15:06:39.041662 38966 layer_factory.hpp:77] Creating layer yolo/conv4
I1011 15:06:39.041678 38966 net.cpp:86] Creating Layer yolo/conv4
I1011 15:06:39.041687 38966 net.cpp:408] yolo/conv4 <- yolo/conv1_yolo/conv1/relu_0_split_1
I1011 15:06:39.041700 38966 net.cpp:382] yolo/conv4 -> yolo/conv4
I1011 15:06:39.042266 38966 net.cpp:124] Setting up yolo/conv4
I1011 15:06:39.042290 38966 net.cpp:131] Top shape: 1 18 11 11 (2178)
I1011 15:06:39.042299 38966 net.cpp:139] Memory required for data: 266204536
I1011 15:06:39.042310 38966 layer_factory.hpp:77] Creating layer yolo/conv5
I1011 15:06:39.042326 38966 net.cpp:86] Creating Layer yolo/conv5
I1011 15:06:39.042335 38966 net.cpp:408] yolo/conv5 <- yolo/conv3
I1011 15:06:39.042351 38966 net.cpp:382] yolo/conv5 -> yolo/conv5
I1011 15:06:39.042865 38966 net.cpp:124] Setting up yolo/conv5
I1011 15:06:39.042873 38966 net.cpp:131] Top shape: 1 18 22 22 (8712)
I1011 15:06:39.042876 38966 net.cpp:139] Memory required for data: 266239384
I1011 15:06:39.042882 38966 layer_factory.hpp:77] Creating layer detection_out
I1011 15:06:39.042891 38966 net.cpp:86] Creating Layer detection_out
I1011 15:06:39.042894 38966 net.cpp:408] detection_out <- yolo/conv4
I1011 15:06:39.042898 38966 net.cpp:408] detection_out <- yolo/conv5
I1011 15:06:39.042904 38966 net.cpp:382] detection_out -> detection_out
I1011 15:06:39.042950 38966 net.cpp:124] Setting up detection_out
I1011 15:06:39.042958 38966 net.cpp:131] Top shape: 1 1 1 7 (7)
I1011 15:06:39.042960 38966 net.cpp:139] Memory required for data: 266239412
I1011 15:06:39.042964 38966 layer_factory.hpp:77] Creating layer detection_eval
I1011 15:06:39.042971 38966 net.cpp:86] Creating Layer detection_eval
I1011 15:06:39.042974 38966 net.cpp:408] detection_eval <- detection_out
I1011 15:06:39.042979 38966 net.cpp:408] detection_eval <- label
I1011 15:06:39.042987 38966 net.cpp:382] detection_eval -> detection_eval
I1011 15:06:39.043028 38966 net.cpp:124] Setting up detection_eval
I1011 15:06:39.043036 38966 net.cpp:131] Top shape: 1 1 2 5 (10)
I1011 15:06:39.043040 38966 net.cpp:139] Memory required for data: 266239452
I1011 15:06:39.043043 38966 net.cpp:202] detection_eval does not need backward computation.
I1011 15:06:39.043047 38966 net.cpp:202] detection_out does not need backward computation.
I1011 15:06:39.043051 38966 net.cpp:202] yolo/conv5 does not need backward computation.
I1011 15:06:39.043056 38966 net.cpp:202] yolo/conv4 does not need backward computation.
…
